mlp_weights/map_2_Q.pt (torch, 561792 bytes, 8 tensors)

fc1.weight f4 [256, 26]
0.5700838 -0.42510736 -0.9188477 -1.7312813 0.4529783 -0.022603571 0.40672114 -0.62417656
-0.29387173 -0.26276517 0.058019795 0.20744155 0.29309767 0.10767222 -0.07366441 0.04792717
-0.26654208 0.15014236 0.17172062 0.27052256 0.0039017217 -0.023398656 0.11349503 -0.23832798
-0.20883377 -0.21265775 0.5437889 0.6674794 0.77893996 -5.249432 0.18698072 -0.066610396
-0.014405709 0.2021406 -0.3480655 -0.23106885 0.27451384 0.019549446 -0.03203184 0.36632958
-0.038457647 0.12760772 0.19609499 0.121717475 -0.08268571 0.07151453 -0.10254628 -0.057882708
0.12497145 0.037055597 0.06668416 0.11914392 -1.5685693 1.5897071 0.99764806 0.2357582
0.8834051 -1.6129358 -0.4992062 0.2116739 -0.58621794 -0.71583337 -1.2110745 0.10727874
0.4223467 0.019498132 -0.672602 -0.7739655 -1.7913513 -0.023486894 -0.14127667 -0.00959528
-0.071071945 -0.38145947 -0.31187165 -0.22000143 -0.07089612 -0.3936447 -0.50213313 -0.26629487
-0.07736781 -0.34627092 0.10379571 -0.23389556 0.029515456 -0.15038905 1.2981955 1.1595076
0.1974701 -0.5196481 0.47976977 -1.1164887 -0.1304541 -0.68829226 -1.0697353 -0.6993494
0.08684635 -1.0557241 0.5777797 0.1141425 -0.19468601 0.10625519 0.10740175 -0.14815381
1.083224 -1.9675387 -0.03175543 -1.5128754 0.33946583 0.31570575 -0.6250092 -0.4416768
1.0585427 1.2759202 1.5646633 0.1536791 -0.0064318264 -0.1161135 -0.33499464 -0.49817577
-1.4731454 -0.03484099 -0.14842366 -0.230769 -0.032692906 0.00819911 -0.25722533 0.0024650665
-0.08139303 -0.03397664 -0.29161474 0.013668974 -1.8019341 1.2618403 0.08252039 -0.5146844
0.15869252 -0.17449063 0.3914596 0.29496285 0.276175 0.07853051 -0.19327754 0.11097264
-0.44333577 -0.65530354 -0.27692994 -0.24680945 0.0029177018 0.05885263 0.58489764 0.19002941
0.29562077 -0.43996853 -0.47764528 -0.040790424 -1.5771196 -1.539967 2.2411265 -3.4287887
0.25149098 -0.32162645 0.12584645 -0.8610988 1.0873177 1.1036994 0.37249738 0.19715482
-0.22199513 0.06608511 0.52653295 0.27736175 0.16623875 -0.091476984 -0.19266236 0.011050889
0.17060664 -0.015817447 -0.10567788 -0.2235597 -0.038251493 -0.20793185 0.7561393 0.44121444
-0.9803192 -1.9070141 -0.6103872 0.077346526 -0.4192729 -0.4155109 0.27389866 0.22452854
0.21497922 0.4982264 0.54585093 0.25519517 -0.10091292 -0.14216162 -0.60012364 -0.6111123
-0.6463154 -0.12852724 0.1303791 0.021873444 0.28025904 -0.24748375 -0.31078595 -0.47632262
-0.027135845 -1.2445769 0.76257354 0.3164001 -0.26095816 -0.8194742 -0.5191915 -0.8032975
0.8389056 0.8259368 0.70115405 -0.6920982 -0.3750361 -0.15012379 -0.6825601 -0.5384286
-0.11076153 0.50230604 0.27809805 0.50052196 -0.10068413 0.2732675 0.05556607 -0.13211094
-0.19117935 -0.14381993 0.5230483 -0.9508963 0.9892436 -1.2024733 0.29839826 0.119977415
-0.36110815 0.11864223 -0.62457705 -0.5085109 -0.85149974 -0.4934038 -0.40497556 -0.82297117
-0.6105877 -1.0352759 -1.1747962 -0.36529407 -0.30749783 -0.2740218 -0.31762442 -0.71084046
00000000: 03f1 113f aca7 d9be 9a39 6bbf a09a ddbf
00000010: c6ec e73e 202b b9bc c13d d03e 09ca 1fbf
00000020: 5b76 96be 2889 86be 2aa6 6d3d 8f6b 543e
00000030: e610 963e 4183 dc3d 5edd 96bd 484f 443d
00000040: 3478 88be ebbe 193e 88d7 2f3e ef81 8a3e
00000050: 07b4 7f3b 8aae bfbc 1570 e83d 400c 74be
00000060: 85d8 55be f4c2 59be c035 0b3f eedf 2a3f
00000070: 9c68 473f 59fb a7c0 e077 3f3e 086b 88bd
00000080: ec05 6cbc f2fd 4e3e a435 b2be 509d 6cbe
00000090: 148d 8c3e 2926 a03c d233 03bd 8d8f bb3e
000000a0: c485 1dbd 99ab 023e 20cd 483e 0347 f93d
000000b0: 2057 a9bd 3676 923d c903 d2bd 6b16 6dbd
000000c0: 08f1 ff3d 9cc7 173d b491 883d ba01 f43d
000000d0: e1c6 c8bf 867b cb3f dd65 7f3f 996a 713e
000000e0: d626 623f ae74 cebf f497 ffbe 0bc1 583e
000000f0: 6112 16bf db40 37bf 7d04 9bbf f5b4 db3d
00000100: d43d d83e 8cba 9f3c a52f 2cbf 9a22 46bf
00000110: 004b e5bf 9667 c0bc d5aa 10be 8535 1dbc
00000120: 2b8e 91bd a84e c3be a4ad 9fbe 0e48 61be
00000130: fc31 91bd cc8b c9be cc8b 00bf cd57 88be
00000140: 0473 9ebd 6c4a b1be d892 d43d 5182 6fbe
00000150: 66ca f13c 96ff 19be 452b a63f bf6a 943f
00000160: 9a35 4a3e a807 05bf 62a4 f53e 1ae9 8ebf
00000170: c295 05be ec33 30bf 16ed 88bf 9008 33bf
00000180: 80dc b13d f821 87bf 5fe9 133f 8bc3 e93d
00000190: c55b 47be 529c d93d 73f5 db3d a2b5 17be
000001a0: 16a7 8a3f 4fd8 fbbf fb11 02bd e7a5 c1bf
000001b0: 77ce ad3e 2fa4 a13e 9a00 20bf 7623 e2be
000001c0: 547e 873f 5a51 a33f e346 c83f 0e5e 1d3e
000001d0: 12c2 d2bb eacc edbd 6b84 abbe e510 ffbe
000001e0: 0790 bcbf 6db5 0ebd 5ffc 17be b54e 6cbe
000001f0: ffe8 05bd 8f55 063c 0ab3 83be f48c 213b
00000200: 64b1 a6bd 172b 0bbd 874e 95be d5f3 5f3c
00000210: c7a5 e6bf fc83 a13f 7300 a93d 5bc2 03bf
00000220: 4b80 223e acad 32be 656d c83e 5f05 973e
00000230: cf66 8d3e 9bd4 a03d 8cea 45be a045 e33d
00000240: e8fc e2be f9c1 27bf c3c9 8dbe 9ebb 7cbe
00000250: ea36 3f3b 750f 713d dabb 153f 1297 423e
00000260: 9b5b 973e 8e43 e1be ec8d f4be dc13 27bd
00000270: 0edf c9bf a31d c5bf 9e6e 0f40 4671 5bc0
00000280: 6dc3 803e 39ac a4be e4dd 003e f970 5cbf
00000290: 3a2d 8b3f 0646 8d3f fab7 be3e f4e2 493e
000002a0: b152 63be a157 873d ddca 063f 5c02 8e3e
000002b0: 7e3a 2a3e 4958 bbbd 4849 45be ca0e 353c
000002c0: 82b3 2e3e 9793 81bc a56d d8bd d6ec 64be
000002d0: 99ad 1cbd 16ec 54be 5892 413f dce6 e13e
000002e0: 33f6 7abf 0a19 f4bf 5642 1cbf db67 9e3d
000002f0: f0aa d6be d8bd d4be 723c 8c3e cfea 653e
00000300: 8323 5c3e 8817 ff3e e3bc 0b3f f1a8 823e
00000310: 6fab cebd d192 11be b4a1 19bf db71 1cbf
00000320: ed74 25bf a59c 03be 1982 053e f02f b33c
00000330: 1d7e 8f3e 616c 7dbe 561f 9fbe 8fe0 f3be
00000340: fe4b debc 4c4e 9fbf 0538 433f 32ff a13e
00000350: 4f9c 85be 10c9 51bf bce9 04bf e8a4 4dbf
00000360: 84c2 563f 9870 533f d57e 333f 592d 31bf
00000370: bb04 c0be 0dba 19be 42bc 2ebf 75d6 09bf
00000380: f1d6 e2bd 2197 003f de62 8e3e 3522 003f
00000390: 7b33 cebd b8e9 8b3e 3f99 633d 1748 07be
000003a0: 85c4 43be 8845 13be 7ee6 053f f16d 73bf
000003b0: 123f 7d3f a5ea 99bf a8c7 983e b8b6 f53d
000003c0: 2be3 b8be b3fa f23d 48e4 1fbf c52d 02bf
000003d0: e3fb 59bf 6c9f fcbe f558 cfbe 3dae 52bf
000003e0: 7a4f 1cbf ec83 84bf b95f 96bf d307 bbbe
000003f0: 5b70 9dbe 964c 8cbe ab9f a2be a4f9 35bf

fc1.bias f4 [256]
-0.058601134 0.3279002 -0.23402342 -0.7418588 -0.6411941 -0.061474886 0.18987703 -0.19267298
0.32632828 -0.091339424 0.32770318 -0.30634812 -0.015631488 0.393255 -0.21469718 0.150665
0.013589666 -0.34585363 -0.19165142 -0.4378414 -0.2790593 -0.22121854 -0.13769951 -0.55905724
-0.30123836 0.09709184 -0.21442941 -0.34258103 -0.49725315 -0.23905882 -0.44749948 0.23478386
-0.3107252 0.2463529 -0.22746718 -0.59299296 0.08840504 0.35146812 -0.2663351 -0.82498616
-0.5060186 -0.4751289 0.3693965 -0.07057276 -0.25581852 0.009384896 -0.36252594 0.18763216
0.72062165 0.08998934 -0.5295771 -0.44030818 -0.4119413 0.021811306 -0.44554362 -0.5200809
-0.4325631 -0.3881898 0.2924982 -0.6892447 0.27527484 0.010151158 0.30039546 0.788987
-0.19869347 -0.46798202 -0.27874643 0.109499805 0.18015628 -0.1815345 -0.024993043 -0.08625423
-0.3108523 -0.12697588 -0.21608607 0.21376538 -0.09008346 0.31016582 -0.024542661 -0.0009026748
-0.0012583788 -0.286 -0.47473547 -0.4981104 -0.26442066 0.05646145 -0.19883542 -0.35048962
0.33786696 -0.29713872 -0.22727641 -0.2712851 -0.019711358 0.0060226037 -0.18634328 -0.45399603
0.14581303 -0.085315086 -0.6028628 -0.38003737 -0.3087381 -0.14430143 -0.56881106 -0.060738016
0.020296108 -0.12606637 0.02263326 0.4864698 -0.17318265 -0.019920394 -0.041366506 0.4762654
-0.08112953 -0.39322254 -0.05383905 -0.15277544 -0.8414526 0.379544 -0.07449512 -0.20612267
0.4107945 0.13730077 0.16676195 -0.4030034 -0.028777583 -0.40860873 -0.049843773 0.11893425
0.22988321 -0.26315156 -0.135414 -0.14029291 -0.15319632 -0.16758393 -0.22619769 -0.36105627
-0.0576285 -0.11287543 -0.2210183 -0.7113847 -0.11882758 -0.5354938 -0.025170723 0.5242065
-0.17632999 -0.3033397 -0.03722882 0.008327336 -0.058733273 -0.4733305 0.35528368 0.01931792
0.1588539 -0.31230494 -0.2507533 0.34710926 -0.045956064 -0.15359747 0.40453294 0.006679644
-0.3316091 -0.08104982 0.1115403 -0.03776114 -0.17402855 0.13238195 -0.22494459 -0.15109369
-0.15153927 -0.14051366 0.07875293 -0.1996853 -0.9480003 -0.47070876 -0.60456574 -0.14809667
0.23914345 -0.3492861 0.060703915 0.49752817 0.20927876 -0.08431233 -0.031478878 -0.2875079
0.053937662 -0.48008403 0.5362578 -0.03573408 -0.23793055 0.0007018329 0.2923815 -0.12946144
-0.59276307 -0.114100374 -0.24326366 -0.116705246 -0.2584212 0.15103047 -0.15694009 -0.10872779
0.21494818 -0.25813228 -0.26901737 0.15240897 0.15262477 -0.3143585 -0.17127058 -0.021452766
-0.11706863 -0.47266054 -0.19757348 -0.32698414 -0.050100997 -0.49817744 0.009118716 -0.57581633
-0.75135654 -0.5040627 -0.8498109 -0.32290715 0.36420566 0.34919605 -0.27631405 -0.04626049
0.45943928 0.23410153 0.28334898 0.22610071 -0.13358028 -0.12995036 0.22389185 -0.41731286
0.3010573 -0.04242935 -0.23146307 -0.88749856 -0.23231488 -0.08792856 -0.09465097 -0.08510601
0.24272895 0.1161528 -0.505017 -0.33052856 0.10315043 0.3407383 -0.1251442 -0.45229104
-0.26183087 -0.53729457 -0.14825343 0.26798454 0.54680246 -0.7526679 -0.08867628 -0.057634648
00000000: be07 70bd 89e2 a73e d6a3 6fbe 75ea 3dbf
00000010: 4c25 24bf 17cd 7bbd 206f 423e 114c 45be
00000020: 8014 a73e 2a10 bbbd b6c8 a73e a9d9 9cbe
00000030: 9b0d 80bc b858 c93e 94d9 5bbe ed47 1a3e
00000040: 31a7 5e3c ba13 b1be 4540 44be bf2c e0be
00000050: dce0 8ebe 1d87 62be 1a01 0dbe 601e 0fbf
00000060: ea3b 9abe 16d8 c63d 6293 5bbe c866 afbe
00000070: f797 febe d6cb 74be a71e e5be 2e6b 703e
00000080: 6017 9fbe ef43 7c3e 28ed 68be 63ce 17bf
00000090: b40d b53d a1f3 b33e 135d 88be 4b32 53bf
000000a0: 6f8a 01bf 1844 f3be 8a21 bd3e 7488 90bd
000000b0: a5fa 82be 1bc3 193c 009d b9be a522 403e
000000c0: a97a 383f 554c b83d 5d92 07bf 1370 e1be
000000d0: f8e9 d2be a0ad b23c 4b1e e4be 0624 05bf
000000e0: e978 ddbe d0c0 c6be 53c2 953e 5772 30bf
000000f0: d3f0 8c3e 0b51 263c 6fcd 993e 0dfb 493f
00000100: 4d76 4bbe 579b efbe dab7 8ebe 6f41 e03d
00000110: e37a 383e 2ee4 39be 36be ccbc 0fa6 b0bd
00000120: 0828 9fbe f705 02be ab45 5dbe 50e5 5a3e
00000130: ad7d b8bd 0ece 9e3e b10d c9bc 7ba1 6cba
00000140: 30f0 a4ba 986e 92be 8710 f3be 5408 ffbe
00000150: 2562 87be 1f44 673d 839b 4bbe 6073 b3be
00000160: e6fc ac3e 9122 98be 26bb 68be e1e5 8abe
00000170: b779 a1bc 4359 c53b c6d0 3ebe 2b72 e8be
00000180: 0350 153e adb9 aebd 3755 1abf 4294 c2be
00000190: ec12 9ebe c1c3 13be 9a9d 11bf 6dc8 78bd
000001a0: 0644 a63c 8b17 01be 6369 b93c 9212 f93e
000001b0: cb56 31be 1830 a3bc ed6f 29bd 0fd9 f33e
000001c0: 3d27 a6bd 7754 c9be 5686 5cbd 2a71 1cbe
000001d0: 7069 57bf 9753 c23e e690 98bd d211 53be
000001e0: a853 d23e 9398 0c3e a5c3 2a3e 7656 cebe
000001f0: f7be ebbc 2a35 d1be fc28 4cbd cd93 f33d
00000200: 8166 6b3e cdbb 86be f8a9 0abe f2a8 0fbe
00000210: 7fdf 1cbe 1f9b 2bbe 5ea0 67be 5edc b8be
00000220: dd0b 6cbd 3c2b e7bd 9f52 62be 4f1d 36bf
00000230: e05b f3bd 1f16 09bf d532 cebc 6632 063f
00000240: d98f 34be 574f 9bbe 3f7d 18bd 616f 083c
00000250: 4d92 70bd 6058 f2be bee7 b53e 9d40 9e3c
00000260: 99aa 223e 6fe6 9fbe bd62 80be 4eb8 b13e
00000270: 6d3c 3cbd a848 1dbe f11e cf3e eae0 da3b
00000280: abc8 a9be 73fd a5bd 3e6f e43d 6dab 1abd
00000290: 8a34 32be 228f 073e e057 66be 4eb8 1abe
000002a0: 1c2d 1bbe d0e2 0fbe 3749 a13d 4e7a 4cbe
000002b0: 26b0 72bf bd00 f1be d2c4 1abf a7a6 17be
000002c0: 05e2 743e a1d5 b2be aba4 783d 03bc fe3e
000002d0: 2c4d 563e f1ab acbd ffef 00bd 3c34 93be
000002e0: bded 5c3d 93cd f5be 3148 093f e65d 12bd
000002f0: 11a4 73be 35fb 373a 07b3 953e 8a91 04be
00000300: 52bf 17bf 75ad e9bd 1c1a 79be 2903 efbd
00000310: c94f 84be bba7 1a3e e7b4 20be adac debd
00000320: 601b 5c3e ea29 84be a5bc 89be 1911 1c3e
00000330: ab49 1c3e 99f3 a0be 8e61 2fbe b6bd afbc
00000340: aec1 efbd 9000 f2be b450 4abe 776a a7be
00000350: b436 4dbd 1d11 ffbe ab66 153c b368 13bf
00000360: e758 40bf 410a 01bf 358d 59bf 1654 a5be
00000370: 2a79 ba3e d3c9 b23e 0979 8dbe a47b 3dbd
00000380: a03b eb3e 50b8 6f3e 1e13 913e f286 673e
00000390: 45c9 08be b511 05be e843 653e 08aa d5be
000003a0: 2f24 9a3e 66ca 2dbd a804 6dbe 1b33 63bf
000003b0: f4e3 6dbe e413 b4bd 5ed8 c1bd 0f4c aebd
000003c0: f08d 783e 85e1 ed3d cb48 01bf 0a3b a9be
000003d0: 8840 d33d 4075 ae3e cd25 00be b192 e7be
000003e0: b20e 86be 238c 09bf bfcf 17be 4535 893e
000003f0: 3ffb 0b3f d8ae 40bf e99b b5bd 4f12 6cbd

fc2.weight f4 [256, 256]
0.55475926 -0.22903478 -0.9264175 0.3015917 -0.24151734 -0.69480455 0.6872298 -0.919974
0.17422096 0.88507646 -0.6461583 -0.18576849 0.4876232 0.35069078 0.048079055 0.3557815
0.90493995 -1.9314557 -0.021936225 0.33467492 0.20589235 -0.015064786 0.47009256 -1.3020257
0.3061834 0.580956 0.57710636 -0.44788867 -0.9896775 0.21126786 -0.18832551 0.40313128
-0.054488994 -0.6230148 0.06979032 0.07146309 0.66226226 0.16926004 -0.80168283 -0.5663082
0.4803285 -0.8254812 -1.0728343 -0.11121334 0.011774022 0.31832948 -0.15726598 0.69957024
0.43970886 -0.5008857 0.62699264 0.47485527 -0.63011324 0.49723783 -0.29770297 -1.0067954
-0.69597363 0.004417386 0.54385275 -0.09899416 0.26267892 -0.11053681 -0.74686235 0.48013276
-2.6430435 0.026938273 -1.4989783 -0.49784157 0.0073507694 0.16302201 -0.56657135 1.1950626
0.6990125 -0.16638562 -1.1421219 -1.1074344 -0.086499065 -0.42259547 0.033015635 -0.3767059
-0.6102565 -0.5982941 -0.7706686 -0.14287953 -0.083556555 -0.89124393 -0.49218345 0.53186953
-0.020982204 -0.37778026 -0.58490485 0.0289905 -0.21840219 0.616053 0.5455319 0.09694917
-0.16761325 -0.14768143 0.16929118 -0.1310581 -1.0724514 0.47938445 -2.0465941 -0.5957451
-0.082903914 -0.3044816 0.93189996 0.74222314 -0.60320854 0.32439375 0.19292277 -0.29140612
-0.04782125 0.55125815 -0.65239793 0.33787727 -0.34475425 0.61972255 -0.28448397 -1.2138978
-0.5075422 -0.06553238 0.35199994 0.66370547 -0.14419281 -0.8860883 0.2902173 -0.12610523
0.37053192 0.030695379 0.17483938 -0.04085899 -0.58630466 -0.63249844 -0.9911809 -0.90868294
0.030069647 -0.23429027 -0.610652 0.4932897 -0.11840896 -0.354485 -1.9253078 -0.61254686
-0.13252063 -0.21171007 -1.6569817 -1.1170176 0.35694635 0.29110608 -0.62357044 0.049842507
0.7475013 -0.35639587 -0.37911192 -1.0956695 -2.6102 0.6066645 -0.24044438 0.022485627
-0.18237619 -0.03448867 0.004942569 0.6325032 -0.55582905 0.40964046 -0.08529359 0.33006233
-0.319238 -0.0031579565 0.21659586 -0.19458154 -0.85630155 -0.6398186 0.6894384 -0.3103663
0.59077895 -1.2054055 0.04773946 -0.38257757 1.1139072 -0.018098151 0.34568974 -1.245569
0.22458242 -0.40724245 -0.40224645 -0.48808193 0.16014549 -0.350314 0.7516223 -0.03743001
-0.6067712 -0.14120872 -0.7643933 0.4540188 0.005368387 0.4550095 -0.5138246 -0.31522623
-0.85412055 0.24774668 0.14399913 0.15257429 -0.0517833 -0.066295765 0.5620063 -0.15186332
-0.3033576 -0.6142242 0.064783856 -0.06551191 0.384249 -0.522901 0.10583032 -1.4938445
-0.6159348 -0.6355808 -1.3098235 0.21903986 -0.27877438 0.60011053 -1.3970511 0.030786954
0.6864402 -0.6331737 0.048157867 -0.22337005 -0.07108631 0.35834283 0.13487546 0.4963876
1.1826595 0.6029957 -0.05716595 -0.94427085 -0.075926386 -2.311032 -0.03343244 -1.0555962
-0.45605242 -0.44138777 -1.3171759 -1.4423972 -0.39571583 -0.23886174 0.51987696 0.16518311
1.0144998 0.43906218 -0.35467023 1.2449222 0.09469392 -0.22454895 -0.88973594 0.11218724
00000000: b404 0e3f 1888 6abe b329 6dbf 3a6a 9a3e
00000010: 5250 77be b6de 31bf 4bee 2f3f 6b83 6bbf
00000020: fb66 323e 5f94 623f a16a 25bf 183a 3ebe
00000030: c0a9 f93e be8d b33e 8bee 443d fe28 b63e
00000040: 25aa 673f f139 f7bf 99b3 b3bc 835a ab3e
00000050: 72d5 523e 4bd2 76bc f9af f03e c7a8 a6bf
00000060: 12c4 9c3e 88b9 143f 3ebd 133f aa51 e5be
00000070: 815b 7dbf 9a56 583e 67d8 40be 3967 ce3e
00000080: da2f 5fbd e67d 1fbf 3aee 8e3d 3e5b 923d
00000090: 058a 293f 8152 2d3e 163b 4dbf 93f9 10bf
000000a0: 9eed f53e bc52 53bf a252 89bf d2c3 e3bd
000000b0: d4e7 403c 15fc a23e 550a 21be 0917 333f
000000c0: 8521 e13e 0c3a 00bf 9782 203f 3b20 f33e
000000d0: 1a4f 21bf f595 fe3e 866c 98be acde 80bf
000000e0: 542b 32bf b8bf 903b ef39 0b3f 73bd cabd
000000f0: da7d 863e 1f61 e2bd 5f32 3fbf f6d3 f53e
00000100: a027 29c0 a7ad dc3c 85de bfbf 17e5 febe
00000110: b9de f03b 3eef 263e d20a 11bf d0f7 983f
00000120: 7cf2 323f fe60 2abe 0d31 92bf 69c0 8dbf
00000130: 6c26 b1bd 6f5e d8be 673b 073d 99df c0be
00000140: c539 1cbf cd29 19bf 8a4a 45bf 034f 12be
00000150: b31f abbd 9028 64bf 78ff fbbe 9a28 083f
00000160: dfe2 abbc 6a6c c1be 53bc 15bf 7c7d ed3c
00000170: d3a4 5fbe a6b5 1d3f fba7 0b3f 498d c63d
00000180: cfa2 2bbe cd39 17be ab5a 2d3e 1834 06be
00000190: 1646 89bf e171 f53e 66fb 02c0 c082 18bf
000001a0: 87c9 a9bd 03e5 9bbe ff90 6e3f 5602 3e3f
000001b0: e06b 1abf f016 a63e 8c8d 453e 2f33 95be
000001c0: 37e0 43bd 411f 0d3f 8d03 27bf 40fe ac3e
000001d0: a183 b0be 23a6 1e3f e2a7 91be 0161 9bbf
000001e0: 49ee 01bf d735 86bd 5639 b43e 9ae8 293f
000001f0: 48a7 13be afd6 62bf 5d97 943e bb21 01be
00000200: 5cb6 bd3e e074 fb3c 1809 333e c25b 27bd
00000210: 1018 16bf 6beb 21bf 08be 7dbf 729f 68bf
00000220: 9f54 f63c cae9 6fbe b153 1cbf 7890 fc3e
00000230: 6680 f2bd 0f7f b5be 7c70 f6bf dfcf 1cbf
00000240: 7db3 07be 86ca 58be fa17 d4bf 6ffa 8ebf
00000250: acc1 b63e db0b 953e 50a2 1fbf a827 4c3d
00000260: 3f5c 3f3f 8579 b6be f51a c2be e63e 8cbf
00000270: 840d 27c0 5d4e 1b3f 0d37 76be c733 b83c
00000280: d3c0 3abe fe43 0dbd 46f5 a13b bbeb 213f
00000290: d04a 0ebf 65bc d13e 68ae aebd eefd a83e
000002a0: 2a73 a3be b8f5 4ebb 4ecb 5d3e 6240 47be
000002b0: 9436 5bbf 27cb 23bf 097f 303f 55e8 9ebe
000002c0: 4a3d 173f ba4a 9abf 748a 433d 35e1 c3be
000002d0: 8394 8e3f 9342 94bc 3ffe b03e ce6e 9fbf
000002e0: eff8 653e 1582 d0be 3ff3 cdbe e0e5 f9be
000002f0: 2efd 233e 5b5c b3be 526a 403f 3650 19bd
00000300: 5b55 1bbf 0599 10be 48af 43bf 2775 e83e
00000310: 4be9 af3b 01f7 e83e 028a 03bf 5565 a1be
00000320: a5a7 5abf 4eb1 7d3e 8274 133e 6f3c 1c3e
00000330: ba1a 54bd 13c6 87bd a5df 0f3f 0f82 1bbe
00000340: b051 9bbe cc3d 1dbf 66ad 843d 1c2b 86bd
00000350: 49bc c43e d7dc 05bf 91bd d83d 4c36 bfbf
00000360: e7ad 1dbf 6cb5 22bf 4ca8 a7bf fc4b 603e
00000370: 84bb 8ebe d8a0 193f 92d2 b2bf ec34 fc3c
00000380: 8cba 2f3f ac17 22bf 2f41 453d 1ebb 64be
00000390: b395 91bd b678 b73e cb1c 0a3e 8426 fe3e
000003a0: 6361 973f ed5d 1a3f d826 6abd bcbb 71bf
000003b0: 4b7f 9bbd f3e7 13c0 74f0 08bd c71d 87bf
000003c0: b47f e9be 94fd e1be 3899 a8bf 79a0 b8bf
000003d0: 449b cabe 2c98 74be a816 053f c325 293e
000003e0: 21db 813f c2cc e03e 5697 b5be 9c59 9f3f
000003f0: e3ee c13d 29f0 65be bcc5 63bf 6cc2 e53d

fc2.bias f4 [256]
0.8273347 0.5827152 -0.04038839 0.30243814 -0.046227615 0.5402954 0.7592935 -0.010835223
-0.06469402 0.4821475 1.0254035 -0.0713482 0.7107868 0.14408143 1.058695 0.5319212
-0.46901953 0.7125427 -0.04898859 0.17968959 0.2768684 0.46891674 -0.0043773423 -0.07932499
0.56939507 -0.00844037 -0.041444935 -0.11860302 -0.039962567 -0.10906956 0.43982583 -0.03089874
-0.033361383 0.93079954 0.90001917 -0.09934181 0.09865512 0.6498902 -0.7305428 0.92742807
0.019546473 0.32259962 -0.3225094 -0.07794331 -0.030060725 -0.101118416 -0.08640333 0.8764381
-0.045912936 -0.08145718 1.1121505 -0.051386666 -0.08303629 -0.117335536 0.6070485 0.8986192
-0.11525429 0.9126252 0.97632414 -0.10175332 1.191348 0.44278795 0.33773494 -0.019870372
0.26906776 -0.092215896 -0.032512017 -0.14768672 -0.053064547 -0.03805222 0.0116022555 0.002745223
-0.29968297 0.5152132 0.38796663 0.68269205 0.13607466 0.23112099 -0.035674945 0.62432534
-0.33684453 -0.06338959 -0.15403885 0.112384476 0.027543716 0.527461 1.4273734 -0.10498464
0.44165316 -0.2695241 0.26490405 -0.028002717 0.33640128 -0.09966239 0.8123869 -1.4231237
-0.11121291 0.82686377 0.15202957 0.7543187 -0.6498135 -0.021322368 -0.05025563 -0.07565107
-0.058642294 0.6155916 0.6802022 0.7542417 -0.030384885 -0.1266474 -0.11361662 -0.07288323
0.88070965 0.38429344 -0.10835088 -0.034352332 1.1216948 -0.13070203 0.46570265 0.5362093
-0.101161875 1.2561512 0.5254354 0.5938313 -0.17663439 1.7842989 -0.105431914 -0.10228272
0.3468563 0.4274522 -0.336925 0.24281259 0.27340272 0.8674428 -0.02318448 -0.0028437104
-0.06515616 0.3111759 0.5262302 0.11060112 1.24214 0.1028849 -0.118905604 0.69607437
0.12582009 0.26090583 0.4243 0.7291687 -0.15094614 -0.034491796 -0.10009378 -0.03670923
1.0375881 -0.09618085 -0.1356966 -0.16153017 0.3979671 0.8348232 0.3308046 -0.07971438
-0.02570296 -0.50452346 0.9001355 -0.07125947 0.64693356 -0.079626486 -0.11699454 -0.084915414
0.75514114 0.6132497 0.5001399 0.8396177 -0.035181064 0.04847816 -0.016347377 0.31658053
-0.45543495 -0.011043326 -0.03382347 0.014023688 -0.19850104 1.2303498 -0.6225492 0.24897513
-0.07407446 0.57736766 -0.014929392 0.48316476 0.80190945 0.30267698 0.44850492 0.13554713
-0.059861325 1.1575304 0.3597507 -0.06860454 1.3190014 -0.02371189 0.36213124 0.87538123
0.8616903 -0.27337536 -0.059455004 -0.0669541 1.9829956 -0.042140853 1.7247576 0.35850292
-0.5363422 1.3820817 -0.052295994 -0.14875476 -0.102848165 1.8120269 -0.021590443 -0.01688927
0.87241805 -0.067442976 1.2240132 0.27937284 0.7098833 -0.12152689 1.0665557 -0.15020174
-0.01868508 -0.08868667 -0.05553013 -0.049346212 0.08149552 0.054707665 -0.06541859 0.6280713
0.6489608 -0.015650263 -0.03346278 -0.0872651 -0.05709338 0.43725598 0.68810976 0.23047101
-0.043681353 -0.03918203 -0.092208706 0.40582034 0.6612818 -0.05089505 0.42231846 0.61405355
0.113645874 -0.020802222 0.61221516 -0.12147569 0.1951844 -0.00850246 0.1542055 -0.51775956
00000000: 35cc 533f d32c 153f 4c6e 25bd 2cd9 9a3e
00000010: 2b59 3dbd cd50 0a3f 0f61 423f 3886 31bc
00000020: 4c7e 84bd 0adc f63e 6c40 833f 011f 92bd
00000030: 20f6 353f 158a 133e 5183 873f fd2b 083f
00000040: 5423 f0be 3369 363f 42a8 48bd 8c00 383e
00000050: b2c1 8d3e db15 f03e cf6f 8fbb 2475 a2bd
00000060: e0c3 113f 7a49 0abc 2ac2 29bd 24e6 f2bd
00000070: caaf 23bd dd5f dfbd da30 e13e 5b1f fdbc
00000080: f2a5 08bd e148 6e3f a867 663f b873 cbbd
00000090: b20b ca3d 345f 263f da04 3bbf ed6b 6d3f
000000a0: ed1f a03c c72b a53e f41f a5be bea0 9fbd
000000b0: e941 f6bc 2c17 cfbd 3bf4 b0bd 3f5e 603f
000000c0: 340f 3cbd 06d3 a6bd f35a 8e3f d37a 52bd
000000d0: ee0e aabd 9d4d f0bd 8867 1b3f e80b 663f
000000e0: 710a ecbd cea1 693f 61f0 793f 0b64 d0bd
000000f0: 177e 983f 1ab5 e23e 98eb ac3e 31c7 a2bc
00000100: 40c3 893e b0db bcbd 522b 05bd 303b 17be
00000110: 365a 59bd a5dc 1bbd 6317 3e3c 33e9 333b
00000120: 0c70 99be 03e5 033f 90a3 c63e e8c4 2e3f
00000130: 2857 0b3e fbaa 6c3e e41f 12bd c9d3 1f3f
00000140: e376 acbe 67d2 81bd 5cbc 1dbe d529 e63d
00000150: 5ca3 e13c af07 073f 2cb4 b63f 3002 d7bd
00000160: 5d20 e23e 10ff 89be 81a1 873e f465 e5bc
00000170: ca3c ac3e cc1b ccbd 96f8 4f3f eb28 b6bf
00000180: 98c3 e3bd 58ad 533f a4ad 1b3e 081b 413f
00000190: 2d5a 26bf 3fac aebc d9d8 4dbd f3ee 9abd
000001a0: e732 70bd 6997 1d3f bb21 2e3f fc15 413f
000001b0: b9e9 f8bc dbaf 01be d5af e8bd ce43 95bd
000001c0: 3076 613f 1cc2 c43e 11e7 ddbd 08b5 0cbd
000001d0: b293 8f3f c1d6 05be 9470 ee3e 0345 093f
000001e0: f52d cfbd 90c9 a03f ef82 063f 5405 183f
000001f0: a5df 34be e863 e43f b0ec d7bd 9a79 d1bd
00000200: 2697 b13e 04db da3e 6f81 acbe dda3 783e
00000210: 71fb 8b3e bb10 5e3f 61ed bdbc 8b5d 3abb
00000220: 9870 85bd 7352 9f3e 06b7 063f d782 e23d
00000230: 72fe 9e3f 52b5 d23d c884 f3bd ee31 323f
00000240: fbd6 003e 7395 853e d93d d93e cdaa 3a3f
00000250: a091 1abe 4547 0dbd f8fd ccbd 6b5c 16bd
00000260: b0cf 843f 77fa c4bd 0df4 0abe 2a68 25be
00000270: 58c2 cb3e f9b6 553f 385f a93e 4b41 a3bd
00000280: 048f d2bc 7328 01bf 486f 663f 7cf0 91bd
00000290: 709d 253f 3613 a3bd d59a efbd 22e8 adbd
000002a0: ee50 413f effd 1c3f 2b09 003f 30f1 563f
000002b0: 051a 10bd 0991 463d efea 85bc d816 a23e
000002c0: c52e e9be 11ef 34bc 7b8a 0abd 9cc3 653c
000002d0: db43 4bbe 1a7c 9d3f 625f 1fbf 56f3 7e3e
000002e0: 5ab4 97bd 5ece 133f 699a 74bc 5f61 f73e
000002f0: f049 4d3f 7af8 9a3e 70a2 e53e decc 0a3e
00000300: 2631 75bd f529 943f 3e31 b83e 8980 8cbd
00000310: 0ad5 a83f 703f c2bc 4469 b93e fc18 603f
00000320: bc97 5c3f dbf7 8bbe 1787 73bd 3b1f 89bd
00000330: cdd2 fd3f e39b 2cbd dbc4 dc3f b28d b73e
00000340: b94d 09bf 0ee8 b03f 5334 56bd 2b53 18be
00000350: 0fa2 d2bd 7ff0 e73f 71de b0bc 5e5b 8abc
00000360: ca56 5f3f 8b1f 8abd 77ac 9c3f f509 8f3e
00000370: e9ba 353f 17e3 f8bd e684 883f 7cce 19be
00000380: 7411 99bc 5ba1 b5bd 9073 63bd 411f 4abd
00000390: 20e7 a63d 2515 603d 2ffa 85bd 48c9 203f
000003a0: 4c22 263f fb34 80bc 4510 09bd 0bb8 b2bd
000003b0: bfda 69bd 04e0 df3e f627 303f 9800 6c3e
000003c0: 38eb 32bd 567d 20bd ebd7 bcbd afc7 cf3e
000003d0: c449 293f 5477 50bd 203a d83e 9d32 1d3f
000003e0: 2bbf e83d 6c69 aabc 22ba 1c3f 3fc8 f8bd
000003f0: 6bde 473e e74d 0bbc 0ce8 1d3e e48b 04bf

fc3.weight f4 [256, 256]
1.1180998 -0.73910964 0.046555124 -0.32130298 -0.080179565 -0.55233717 -0.19414821 -0.012439682
-0.065881506 0.26939908 -1.5948426 0.043020047 -0.25955328 -1.0335726 -0.41842312 0.68088657
0.37454814 0.06505346 0.044764202 -0.25840503 0.43761453 0.9265159 0.5223067 0.07219995
-0.10695485 0.057398617 0.007274056 -0.081483826 0.016710768 0.028565327 -0.46683165 0.067716226
0.009674169 -0.05439561 -0.4988304 0.016331693 -0.5961464 -0.8787801 -0.21970937 -0.56921387
-0.0059032827 -0.6604402 -0.14294693 -0.0879772 -0.009947395 0.0005659793 -0.3390253 -0.42769405
-0.024116153 0.04311308 0.41017276 0.19104876 -0.027706964 0.035486296 0.5785969 -0.027866216
-0.021039892 0.8831902 0.44639575 0.061337505 -0.14716403 0.12824258 0.11021805 0.08999618
-0.1347119 -0.045749545 -0.027143104 -3.3928676 -0.07131054 0.013506944 -0.04360397 -0.053515367
-0.3309294 0.14668275 -2.542608 0.5670616 0.31814054 -0.5350182 0.01986187 0.56305593
-0.16692929 0.006188167 0.00038320356 -0.13243671 0.48952574 -0.30838624 0.11449628 -0.10696424
0.20456998 -0.69378614 -0.6674596 -0.002168295 0.15366268 0.0037673598 0.81827074 0.0104311425
0.057298582 -0.023285411 0.028695555 0.19807439 0.07749305 0.008176003 -0.006750409 0.08922673
0.33695203 -0.41025728 -0.454592 -0.75933486 -0.006799884 -0.07190769 0.0037880717 -0.060837988
0.5924841 -0.018592218 -0.06398958 -0.030332468 0.6251958 -0.034226865 -0.21371713 0.057015385
0.066058554 -0.31579912 0.6507847 0.53955895 -1.6761374 -0.56572866 -0.05526847 0.2622175
-0.24264352 0.40844643 -0.5165606 -0.4395924 -0.52193743 0.45482677 0.033077598 0.032629915
-0.020153074 0.20731999 0.29475957 0.1793781 0.40359426 0.48239565 0.015071729 0.121908695
0.32776943 0.5424445 -0.58484983 -0.17694043 0.07095836 -0.033881348 0.063081846 -0.005331322
0.18598093 0.20236929 -0.04916943 0.2978694 0.08138883 -0.4789837 -0.14191462 -0.02310847
0.004369326 -0.19693725 0.31556967 -0.07232742 -1.1928473 0.04713262 -0.010152528 0.037968066
1.1250566 -0.014896936 -0.5315489 0.27839205 -0.024796218 -0.5312657 -0.07740573 0.33793375
-0.4712908 -0.018114492 -0.4034205 0.021519294 -0.012491207 0.62731075 -1.1533531 0.4458128
-0.025580456 0.3427344 0.07367382 -0.06757436 0.2650526 0.093635395 0.2151955 0.67893493
0.105596274 0.8975727 -1.5534521 -0.021674978 0.47171178 -0.024365164 -0.39785984 -0.93844295
-0.22507651 -0.2530741 0.062257726 0.0050226 0.0056116106 -0.03601507 0.57406485 -0.92612845
-0.3263452 -0.2621948 -0.4325881 0.0059191864 0.035867058 -0.19943056 -1.0047733 -0.98168004
1.3253846 0.028193563 0.060335536 -0.3339632 0.13239051 -0.014081207 0.45464626 0.9069366
0.011190605 -0.019409398 -0.57978094 -0.0127728805 -0.2492202 0.018224046 -0.16961072 -1.1094075
0.6120363 -0.04338167 4.0786275e-05 -0.051202726 0.5352688 -0.41688874 0.29716763 0.20122208
-0.49443123 0.06300611 -0.015458778 0.735281 0.8643307 -0.060744103 0.9924644 -0.8134451
0.049196508 -0.03817769 -0.3596256 0.019422555 0.05802245 0.34682438 0.0726023 0.035411023
00000000: e51d 8f3f 4a36 3dbf 96b0 3e3d d381 a4be
00000010: 2f35 a4bd f865 0dbf cace 46be cfcf 4bbc
00000020: e2ec 86bd adee 893e cd23 ccbf ca35 303d
00000030: 2be4 84be 1b4c 84bf 8e3b d6be 954e 2e3f
00000040: c6c4 bf3e c03a 853d ab5a 373d aa4d 84be
00000050: 030f e03e 2530 6d3f e4b5 053f 91dd 933d
00000060: 250b dbbd d01a 6b3d 345b ee3b fee0 a6bd
00000070: 05e5 883c d501 ea3c 8f04 efbe ceae 8a3d
00000080: 6880 1e3c eecd 5ebd b366 ffbe 0bca 853c
00000090: 0d9d 18bf bcf7 60bf 7efb 60be 00b8 11bf
000000a0: 5370 c1bb 9c12 29bf ae60 12be 642d b4bd
000000b0: 66fa 22bc 3a5e 143a b994 adbe b7fa dabe
000000c0: 3d8f c5bc 5797 303d 2a02 d23e 49a2 433e
000000d0: b7f9 e2bc 145a 113d ed1e 143f b147 e4bc
000000e0: da5b acbc c118 623f fc8d e43e 093d 7b3d
000000f0: 2bb2 16be 0652 033e 00ba e13d eb4f b83d
00000100: ebf1 09be e063 3bbd 375b debc be24 59c0
00000110: 430b 92bd 3b4c 5d3c 149a 32bd ee32 5bbd
00000120: 946f a9be 0134 163e 17ba 22c0 f32a 113f
00000130: 51e3 a23e f4f6 08bf 5cb5 a23c 6f24 103f
00000140: 83ef 2abe 1bc6 ca3b b6e8 c839 7d9d 07be
00000150: 1ea3 fa3e cde4 9dbe 077d ea3d 1110 dbbd
00000160: cb7a 513e f89b 31bf a2de 2abf f419 0ebb
00000170: c059 1d3e cfe5 763b 317a 513f 62e7 2a3c
00000180: ebb1 6a3d 0cc1 bebc f112 eb3c 03d4 4a3e
00000190: adb4 9e3d a4f4 053c 8932 ddbb 81bc b63d
000001a0: fa84 ac3e 3e0d d2be 48c0 e8be c563 42bf
000001b0: 90d1 debb 5744 93bd 4c41 783b 4131 79bd
000001c0: 0aad 173f b54e 98bc f80c 83bd cc7b f8bc
000001d0: d50c 203f 7831 0cbd aad8 5abe f788 693d
000001e0: b549 873d 6cb0 a1be d399 263f 8920 0a3f
000001f0: ac8b d6bf 98d3 10bf 3161 62bd 5f41 863e
00000200: 8b77 78be e41f d13e 513d 04bf 4112 e1be
00000210: b19d 05bf 0edf e83e 607c 073d f2a6 053d
00000220: 0f18 a5bc b14b 543e baea 963e e5ae 373e
00000230: e8a3 ce3e 90fc f63e 6aef 763c 44ab f93d
00000240: 65d1 a73e a5dd 0a3f b8b8 15bf df2f 35be
00000250: 9e52 913d 2bc7 0abd 0e31 813d 5fb2 aebb
00000260: c971 3e3e e539 4f3e e265 49bd 5782 983e
00000270: 30af a63d 5a3d f5be 1152 11be f94d bdbc
00000280: 902c 8f3b eba9 49be 5992 a13e 6620 94bd
00000290: 38af 98bf 220e 413d ca56 26bc 6784 1b3d
000002a0: db01 903f 4712 74bc 9713 08bf 6789 8e3e
000002b0: 7021 cbbc 0701 08bf e586 9ebd a705 ad3e
000002c0: 074d f1be d864 94bc 228d cebe 3b49 b03c
000002d0: eba7 4cbc 7097 203f 13a1 93bf 9341 e43e
000002e0: 1b8e d1bc e27a af3e 4de2 963d 6d64 8abd
000002f0: f9b4 873e eac3 bf3d 365c 5c3e aece 2d3f
00000300: dc42 d83d 53c7 653f 85d7 c6bf b98f b1bc
00000310: 3584 f13e 7499 c7bc 49b4 cbbe cc3d 70bf
00000320: 757a 66be ee92 81be f501 7f3d 9f94 a43b
00000330: 9ae1 b73b 8a84 13bd eaf5 123f c116 6dbf
00000340: b816 a7be 663e 86be 307c ddbe bcf5 c13b
00000350: 56e9 123d 8637 4cbe 699c 80bf 624f 7bbf
00000360: 34a6 a93f 30f6 e63c 6522 773d 39fd aabe
00000370: 6191 073e ddb4 66bc 65c7 e83e ff2c 683f
00000380: cd58 373c 7500 9fbc 866c 14bf 5845 51bc
00000390: 9533 7fbe 984a 953c 6fae 2dbe 1101 8ebf
000003a0: 69ae 1c3f fab0 31bd ee11 2b38 f3b9 51bd
000003b0: 6007 093f 7172 d5be 5b26 983e 290d 4e3e
000003c0: 1726 fdbe 5909 813d d046 7dbc 603b 3c3f
000003d0: c744 5d3f cfce 78bd 2612 7e3f f03d 50bf
000003e0: 4782 493d 3660 1cbd d920 b8be 0d1c 9f3c
000003f0: f3a8 6d3d f792 b13e 84b0 943d 260b 113d

fc3.bias f4 [256]
2.9357715 1.0176122 -0.14032422 0.0058176145 -2.2105155 -0.07178655 2.286708 -1.1777744
-0.23939681 -0.12540165 -0.07374294 -0.30805573 1.0134814 1.3075731 -0.31846854 2.777709
0.18569985 0.54516155 -0.12726565 0.6030761 1.4785457 0.8888057 -0.07973064 0.95595086
-0.06152512 -0.41340733 -0.15037464 -0.022498239 -1.2709867 3.5240421 1.3871043 -0.12773956
0.47951877 -1.1419399 1.5021435 -0.07763235 0.8512565 -0.033182934 -0.10146697 -0.16704035
-0.89864105 0.57608604 -0.021530524 0.15873091 2.998886 0.009869123 -0.08295319 3.9326892
1.0944185 2.5144076 1.5967609 0.42781442 -0.092923276 -0.081989355 0.8277714 -0.012492955
1.292636 1.5393283 2.355843 0.45420158 -0.056532584 0.016052246 -0.06325126 -0.072637826
-0.23943178 -0.041582227 -0.07282527 -0.1021739 -0.10737007 -0.004648796 -0.11981798 -0.26756844
0.93740773 1.6988885 -0.061910905 0.27313352 -0.12932493 -0.06679013 1.1870321 -0.023975745
-1.0213294 0.34986055 -0.053320814 0.54351413 2.3665586 3.0310652 1.2304177 -0.97231805
0.22712786 -0.07229711 1.5758066 3.8806252 2.197653 -0.019976927 0.5405506 1.9551387
0.1785582 -0.003337881 -1.7422605 -0.15655881 0.5001403 -0.16118464 0.902604 1.6897248
0.7122085 1.0860529 1.4421606 0.02192881 -0.09275857 -0.06339356 -0.0358439 2.1890345
-0.054285172 0.023276102 -0.08386217 -0.098314986 1.4463264 0.37277177 1.3410895 -0.479774
-0.07590169 0.14998342 2.0350015 -0.14215772 -0.0796154 1.258723 -0.14602712 -0.10090837
-0.05462919 -0.105232 -0.6908213 0.5335152 -0.7235103 -0.11332817 -0.0410611 2.3419843
-0.013116323 2.1380453 -0.67965037 -0.02448681 -0.064655736 -0.08070925 -0.10279572 -0.015233321
-0.120415434 -0.0011816567 -1.0091765 0.07862669 -0.44408435 -0.03303474 0.9514026 0.0039360924
2.0626283 0.9744263 -0.053150665 1.3084738 -1.7657802 0.27992377 -0.32125208 -0.036739822
0.5556165 -0.054846816 -0.27875817 -0.08128549 0.2817009 -0.07159377 -0.047774017 -0.8288272
0.39939076 -0.11752581 0.63628304 -0.16707338 -0.10341177 1.2060623 -0.060897756 -0.9268265
-0.32939276 -0.055201076 -0.06507667 -0.12204003 -0.43049666 -0.1266928 -0.048417788 -0.7440334
0.3603068 -0.12080909 -0.13651608 -0.032547913 -0.0553847 0.8777779 2.0659761 -0.13982221
-1.9138103 -0.10617607 2.6811678 0.4503496 0.96785486 -0.094061695 1.0460585 -0.07335126
2.9636714 -0.28180283 -1.6340796 -0.06788004 3.7500381 0.4902754 0.48378763 1.158634
-0.014897339 0.70608026 0.02788711 0.61963403 0.5094638 1.4120291 0.7943318 -0.09806736
-0.28555036 0.6355046 -0.45710695 0.27955365 -0.23862377 -0.07906524 -0.012892466 0.53842103
0.9957948 1.0565739 2.7865074 3.6476285 0.22692831 -0.07684471 -0.13457808 -0.042686988
0.6739004 1.040591 -1.4232584 0.89764756 -0.0664156 -0.019524295 -0.11036538 -0.10421649
0.82702714 0.6224275 1.7333649 1.030421 -0.008469075 0.6179797 -0.050185043 -0.028723601
-0.16360208 1.0872295 3.305524 0.63984 0.73030674 -0.06549593 -1.5107987 1.7438533
00000000: aee3 3b40 1e41 823f 27b1 0fbe b0a1 be3b
00000010: 1679 0dc0 d404 93bd 6d59 1240 50c1 96bf
00000020: 7024 75be 4a69 00be 8a06 97bd 7bb9 9dbe
00000030: c2b9 813f 8e5e a73f 4f0e a3be fcc5 3140
00000040: 1a28 3e3e b58f 0b3f ed51 02be 3263 1a3f
00000050: fc40 bd3f c588 633f d149 a3bd 32b9 743f
00000060: c401 7cbd 20aa d3be cffb 19be 3a4e b8bc
00000070: b1af a2bf e889 6140 a28c b13f 29ce 02be
00000080: 7c83 f53e 162b 92bf 3d46 c03f b6fd 9ebd
00000090: f2eb 593f d4ea 07bd eacd cfbd a00c 2bbe
000000a0: 570d 66bf 607a 133f c860 b0bc 5b8a 223e
000000b0: c0ed 3f40 1ab2 213c 5de3 a9bd 2eb1 7b40
000000c0: e815 8c3f 0eec 2040 a962 cc3f 7e0a db3e
000000d0: 8f4e bebd 09ea a7bd d4e8 533f 40af 4cbc
000000e0: 1975 a53f b608 c53f 22c6 1640 1c8d e83e
000000f0: b68e 67bd 0080 833c e089 81bd 24c3 94bd
00000100: 9b2d 75be 2052 2abd 6a25 95bd 8d40 d1bd
00000110: d7e4 dbbd ed54 98bb 2163 f5bd bbfe 88be
00000120: f4f9 6f3f 2e75 d93f 4a96 7dbd 28d8 8b3e
00000130: c16d 04be 44c9 88bd abf0 973f c868 c4bc
00000140: ecba 82bf ec20 b33e ed66 5abd be23 0b3f
00000150: b275 1740 f9fc 4140 547e 9d3f d6e9 78bf
00000160: 3594 683e 8210 94bd 08b4 c93f 2a5c 7840
00000170: 59a6 0c40 a7a6 a3bc 8661 0a3f fc41 fa3f
00000180: f6d7 363e 5ac0 5abb 6402 dfbf f450 20be
00000190: 3209 003f 960d 25be 0e11 673f e748 d83f
000001a0: 4c53 363f c803 8b3f b898 b83f 0ca4 b33c
000001b0: 35f8 bdbd 7cd4 81bd 0ed1 12bd 2419 0c40
000001c0: 215a 5ebd 86ad be3c eebf abbd 5e59 c9bd
000001d0: 3921 b93f f1db be3e d2a8 ab3f f0a4 f5be
000001e0: 5872 9bbd 4195 193e 773d 0240 cb91 11be
000001f0: 660d a3bd d61d a13f 2288 15be 0ca9 cebd
00000200: dcc2 5fbd e083 d7bd aad9 30bf 7494 083f
00000210: f937 39bf 9918 e8bd af2f 28bd 12e3 1540
00000220: d9e5 56bc bcd5 0840 91fd 2dbf 9098 c8bc
00000230: 3a6a 84bd e44a a5bd 9086 d2bd 2e95 79bc
00000240: 5e9c f6bd d2e1 9aba b22c 81bf 0807 a13d
00000250: 065f e3be 6f4f 07bd 1f8f 733f 56fa 803b
00000260: 1a02 0440 0174 793f 83b4 59bd 127c a73f
00000270: 1605 e2bf 2b52 8f3e 277b a4be 7f7c 16bd
00000280: e23c 0e3f 0ea7 60bd 64b9 8ebe 0279 a6bd
00000290: 1a3b 903e c19f 92bd b0ae 43bd 052e 54bf
000002a0: f27c cc3e 5fb1 f0bd 72e3 223f 4915 2bbe
000002b0: 8dc9 d3bd 4060 9a3f ed6f 79bd 8044 6dbf
000002c0: 2ba6 a8be 861a 62bd eb46 85bd 20f0 f9bd
000002d0: 0f6a dcbe c2bb 01be bb51 46bd f978 3ebf
000002e0: 227a b83e c26a f7bd dfca 0bbe f650 05bd
000002f0: 11db 62bd 0db6 603f f438 0440 8e2d 0fbe
00000300: bcf7 f4bf d772 d9bd 4198 2b40 3994 e63e
00000310: 56c5 773f 6ba3 c0bd 3fe5 853f 2f39 96bd
00000320: cbac 3d40 7648 90be 8529 d1bf b104 8bbd
00000330: a000 7040 6105 fb3e 03b3 f73e 1e4e 943f
00000340: f813 74bc adc1 343f 8273 e43c 56a0 1e3f
00000350: 386c 023f 5fbd b43f 5459 4b3f 8ad7 c8bd
00000360: a833 92be 6eb0 223f ec09 eabe a821 8f3e
00000370: ca59 74be f5ec a1bd ec3a 53bc f6d5 093f
00000380: 68ec 7e3f d03d 873f 2356 3240 bf72 6940
00000390: e55f 683e c260 9dbd d6ce 09be 8dd8 2ebd
000003a0: bd84 2c3f 1632 853f 552d b6bf 3bcc 653f
000003b0: e704 88bd 6af1 9fbc 3f07 e2bd 756f d5bd
000003c0: 0db8 533f 6957 1f3f e7de dd3f d6e4 833f
000003d0: e0c1 0abc eb33 1e3f d58e 4dbd c24d ebbc
000003e0: 4e87 27be 562a 8b3f b58d 5340 8ecc 233f
000003f0: 62f5 3a3f bb22 86bd da61 c1bf 9636 df3f

fc4.weight f4 [5, 256]
-0.38528478 -1.5815213 0.021363901 -0.016819024 0.19177833 0.0061884834 -0.15499282 0.17515135
-1.2577165 0.0119950315 0.0055780215 -0.08591342 0.027550856 -0.3426041 0.87677556 -0.057425853
-0.23142374 1.4108868 0.013929196 0.41823363 -0.0901576 0.077082224 -0.02832468 0.6362955
0.003004549 0.14400367 -0.028398206 -0.5554226 0.26864812 -0.109743 0.124608934 0.00662394
0.43614042 0.12170476 -0.44444305 -0.034731127 0.1596885 0.0012396165 0.011540991 0.04521786
0.03542191 0.00052303233 -0.042741403 0.61739796 -0.08809746 -0.40307546 -0.012523923 -0.35821235
0.20461275 -0.09342203 -0.16590126 -0.44576848 0.016773649 0.011603696 1.5134592 -0.011052425
-0.6049102 -0.07197496 0.13631372 -0.18288115 0.014768084 0.1725498 0.0030192037 0.03145858
0.033863246 -0.030339155 0.022741063 0.019321628 0.06629989 -0.03178259 -0.14816886 -0.10055365
0.82995164 -0.6369005 0.054031838 1.0061142 0.0029755263 -0.18346994 -0.5070959 0.028670512
0.8316798 0.4222346 0.7651175 1.3481035 -0.37145296 -0.06184654 -0.026449159 1.0021557
0.63513684 0.027154695 -0.5606177 -0.33330095 -0.5147801 0.0013945189 0.5031672 -0.247033
0.8771458 0.025966201 0.47830725 -0.012484676 0.7007161 0.04345007 -0.044220407 -0.30540383
-0.17511943 -0.0194596 0.008746624 -0.5925915 0.078849204 -0.2892544 0.024101883 0.29629043
-0.034692556 -0.024719562 -0.04784848 0.02163097 -0.29523724 0.9291403 -1.5225803 -0.27389288
-0.29739574 0.9644095 0.085007146 0.027356522 -0.040567722 -0.035561923 0.046105612 0.036787674
0.030903136 -0.03869472 0.013222128 -0.14883804 -0.49287397 -1.2805297 0.03750739 -0.26278454
0.011860541 -0.35608333 0.14756228 0.031953067 0.045173053 0.022707224 0.09216982 0.016698224
0.033249374 0.029753769 0.22922324 -1.5176674 0.27972326 -0.00409593 0.11128805 -0.020987755
-0.649178 -0.17560244 0.036043666 0.51742196 0.38452518 -0.32408023 -0.35998335 0.007120568
0.18489827 -0.020548798 1.2129569 -0.009809409 -0.43271193 -0.019650701 0.037191644 0.19050892
1.1063114 0.02757923 -0.5479577 -0.024065712 0.050825045 0.25627792 -0.72168404 0.7551805
-0.34594324 0.02199522 0.046300225 0.013017096 0.5823352 0.02683919 0.036556993 -0.0774972
0.09456763 0.027581712 -0.0043714554 0.008049943 -0.06212454 -0.09998706 -0.5123995 0.0020156906
-0.1399524 -0.018798064 -0.7285445 1.0320724 -0.48704693 -0.034370568 -0.76124334 0.029599488
0.086026475 0.21123785 -0.051969633 0.006795515 -0.2893712 0.513142 -0.9567927 -1.0259562
-0.02698023 -1.0402465 0.039159395 -0.8653341 -0.15034065 -1.1387382 0.050358947 -0.07397842
0.3707223 -0.49226615 0.34043017 -0.5411216 0.12010052 0.0019297752 -0.010756938 0.23717964
0.58242023 -0.24558815 0.047980923 -0.22326086 -0.12751542 0.026616761 -0.05200146 0.0031960395
-0.2607285 -0.19684714 0.24679358 -0.072533 0.034693632 -0.015385846 0.21582302 -0.025779221
0.1727456 -0.49685493 -0.08267995 0.66854656 -0.26398832 0.20719287 -0.0030809278 -0.022588728
0.011416286 -0.86927193 -0.017911963 -3.2219195 -0.36915118 0.032572452 0.16126546 0.42430788
00000000: 0c44 c5be 4a6f cabf 5903 af3c 0dc8 89bc
00000010: 8a61 443e c3c8 ca3b 70b6 1ebe e05a 333e
00000020: dbfc a0bf cf86 443c d6c7 b63b 60f3 afbd
00000030: 55b2 e13c ce69 afbe 5d74 603f 5f37 6bbd
00000040: 58fa 6cbe f097 b43f 4837 643c b822 d63e
00000050: 8ca4 b8bd 49dd 9d3d 2909 e8bc 43e4 223f
00000060: f8e7 443b b375 133e 5ba3 e8bc 2d30 0ebf
00000070: 3f8c 893e f0c0 e0bd f832 ff3d a30d d93b
00000080: cc4d df3e 5840 f93d 0a8e e3be 3a42 0ebd
00000090: 6285 233e a17a a23a 6d16 3d3c 5d36 393d
000000a0: 9116 113d 1b1c 093a 9c11 2fbd cb0d 1e3f
000000b0: 716c b4bd e85f cebe 2431 4dbc 9c67 b7be
000000c0: 0186 513e 0d54 bfbd 05e2 29be c43b e4be
000000d0: e468 893c 6e1d 3e3c 08b9 c13f 3b15 35bc
000000e0: 65db 1abf 9c67 93bd d395 0b3e 3245 3bbe
000000f0: d5f5 713c e5b0 303e d5dd 453b b6da 003d
00000100: 30b4 0a3d d289 f8bc 774b ba3c 6448 9e3c
00000110: 3dc8 873d 762e 02bd 94b9 17be 12ef cdbd
00000120: b677 543f e90b 23bf 7d50 5d3d 5ac8 803f
00000130: 0c01 433b 8bdf 3bbe 09d1 01bf 6cde ea3c
00000140: f8e8 543f 222f d83e bede 433f a88e ac3f
00000150: 152f bebe cc52 7dbd e8ab d8bc a346 803f
00000160: 5498 223f 8673 de3c a484 0fbf 6ca6 aabe
00000170: a1c8 03bf 4ac8 b63a 91cf 003f 38f6 7cbe
00000180: a18c 603f 12b7 d43c b0e4 f43e 878c 4cbc
00000190: 2162 333f b3f8 313d 7520 35bd e45d 9cbe
000001a0: 8252 33be bd69 9fbc 004e 0f3c 14b4 17bf
000001b0: b17b a13d 2719 94be 5071 c53c 61b3 973e
000001c0: c819 0ebd ae80 cabc c5fc 43bd 6f33 b13c
000001d0: 5629 97be 24dc 6d3f e9e3 c2bf b03b 8cbe
000001e0: 4144 98be 8ae3 763f 3a18 ae3d c91a e03c
000001f0: 572a 26bd 61a9 11bd 3dd9 3c3d acae 163d
00000200: 9328 fd3c 5b7e 1ebd a0a1 583c 0069 18be
00000210: fa59 fcbe 66e8 a3bf 59a1 193d b28b 86be
00000220: b752 423c 8e50 b6be 911a 173e 38e1 023d
00000230: 6107 393d 8004 ba3c 88c3 bc3d b7ca 883c
00000240: 7f30 083d 2dbe f33c 7fb9 6a3e ed42 c2bf
00000250: e337 8f3e 2737 86bb fdea e33d 83ee abbc
00000260: 8830 26bf 20d1 33be 86a2 133d c475 043f
00000270: 7ce0 c43e d8ed a5be bd4f b8be a753 e93b
00000280: f955 3d3e f455 a8bc 2c42 9b3f a5b7 20bc
00000290: 6b8c ddbe 82fa a0bc 4456 183d c514 433e
000002a0: 9d9b 8d3f d6ed e13c f546 0cbf 7525 c5bc
000002b0: ec2d 503d dc36 833e 49c0 38bf 8253 413f
000002c0: 791f b1be 522f b43c 4ea5 3d3d a845 553c
000002d0: eb13 153f dcdd db3c c9bc 153d dab6 9ebd
000002e0: acac c13d 0bf3 e13c 6d3e 8fbb e8e3 033c
000002f0: 4d76 7ebd 04c6 ccbd 9d2c 03bf ad19 043b
00000300: af4f 0fbe 66fe 99bc e481 3abf f31a 843f
00000310: 375e f9be 27c8 0cbd d8e0 42bf a07a f23c
00000320: a62e b03d bc4e 583e 1cde 54bd e9ac de3b
00000330: 7628 94be 465d 033f 5ef0 74bf 8852 83bf
00000340: a505 ddbc cc26 85bf 9a65 203d 8986 5dbf
00000350: e6f2 19be 2cc2 91bf 2f45 4e3d ff81 97bd
00000360: 50cf bd3e 4f0a fcbe dd4c ae3e f286 0abf
00000370: 43f7 f53d 83f0 fc3a de3d 30bc 38df 723e
00000380: 7e19 153f 767b 7bbe a587 443d 7f9e 64be
00000390: 6793 02be 650b da3c 7cff 54bd a574 513b
000003a0: 357e 85be 4c92 49be 75b7 7c3e 2e8c 94bd
000003b0: e91a 0e3d ea14 7cbc b600 5d3e f22e d3bc
000003c0: 39e4 303e c563 febe 1b54 a9bd de25 2b3f
000003d0: 7a29 87be 5e2a 543e 64e9 49bb ff0b b9bc
000003e0: 600b 3b3c 9b88 5ebf 1cbc 92bc ee33 4ec0
000003f0: 6201 bdbe b16a 053d c622 253e e23e d93e

fc4.bias f4 [5]
-2.491172 -2.7435892 -2.8590682 -2.2349515 -2.3351097
00000000: 5d6f 1fc0 f796 2fc0 f9fa 36c0 7209 0fc0
00000010: 7072 15c0
