mlp_weights/map_1_Q.pt (torch, 555648 bytes, 8 tensors)

fc1.weight f4 [256, 20]
0	0x3db04173	0.086062334
1	0x3e4ffa7a	0.20310393
2	0xbda8cbce	-0.08241998
3	0xbd566fea	-0.052352823
4	0xbe626426	-0.22108516
5	0xbe20aa2e	-0.15689918
6	0x3e096a67	0.13419496
7	0xbdaa4169	-0.08313257
8	0xbb501faf	-0.0031757166
9	0x3e317c05	0.17332466
10	0xbe439f20	-0.1910367
11	0x3dd9ad98	0.106288135
12	0x3cfe3afe	0.031033989
13	0xbb2e9b72	-0.0026642946
14	0x3d5aafc3	0.053390276
15	0x3dc52811	0.09626783
16	0xbd5c0137	-0.053712096
17	0xbd4a2d6d	-0.049359728
18	0x3d9cc70f	0.07655155
19	0xbe5760fa	-0.21033087
20	0xbd96e5e4	-0.07368067
21	0xbdd4183e	-0.10356186
22	0x3da63696	0.0811588
23	0xbcfa1368	-0.030526832
24	0x3d277fe7	0.04089346
25	0x3e25ef24	0.16204506
26	0xbdb90762	-0.09034611
27	0xbd72084c	-0.059089944
28	0xbdb64a59	-0.089008994
29	0xbcf027bd	-0.029315824
30	0x3e181dd1	0.14855124
31	0x3bd6dfb8	0.006557431
32	0xbde21aa9	-0.11040241
33	0xbe20c03d	-0.15698333
34	0x3ddcbf40	0.107786655
35	0x3e3371c4	0.17523867
36	0x3c30db58	0.010794483
37	0x3da2dadf	0.079519026
38	0x3d63ce14	0.055616453
39	0xbe5278af	-0.2055385
40	0xbdd7cc81	-0.10537053
41	0x3d6ae144	0.057343736
42	0x3cd0fd48	0.025511399
43	0xbe55b96d	-0.20871516
44	0xbe213c0a	-0.1574556
45	0xbd9d8fd1	-0.076934464
46	0x3e12b9d7	0.14328705
47	0xbe225bb7	-0.15855299
48	0xbd4a2e76	-0.049360715
49	0x3da2ae99	0.07943458
50	0x3cb4eb74	0.022084929
51	0xbd68bd91	-0.05682141
52	0x3e543f03	0.20727162
53	0x3ddf651d	0.10907958
54	0x3dda923b	0.106724225
55	0xbdf4fdc4	-0.119624645
56	0x3dc82e8a	0.097745016
57	0xbe22b61c	-0.15889782
58	0x3bcf0309	0.0063175005
59	0x3c8760fc	0.016525738
60	0xbe253b1c	-0.1613583
61	0xbe526434	-0.20546037
62	0x3dfc2603	0.12311938
63	0x3e0e3ac8	0.13889611
64	0x3d3255e9	0.04353896
65	0x3dd8907f	0.105744354
66	0x3cf22573	0.029558873
67	0x3db0d87e	0.086350426
68	0x3e51bb13	0.2048152
69	0xbd9e2f66	-0.07723884
70	0xbe5a2744	-0.21304041
71	0x3d7b96dd	0.06142317
72	0xbe2b31e2	-0.16718248
73	0x3d30d556	0.043172203
74	0xbdd0c14c	-0.101931185
75	0xbcbe8f1f	-0.023261605
76	0x3e063bb9	0.1310872
77	0xbe53fddf	-0.20702313
78	0xbdec4dbb	-0.115382634
79	0xbe2fb768	-0.17159808
80	0xbde7b11d	-0.113130786
81	0xbe5dd35f	-0.21662663
82	0xbd8e66f4	-0.069532305
83	0xbdaaa042	-0.08331348
84	0x3d7c7186	0.061631702
85	0xbe0fa56b	-0.14027946
86	0x3d8b7bf3	0.06810751
87	0xbe088285	-0.13331039
88	0xbd707e63	-0.05871428
89	0xbd3a44d9	-0.045475814
90	0xbda45432	-0.080238715
91	0xbe0c53a0	-0.13703775
92	0x3d1fb343	0.038989317
93	0xbe00cbd2	-0.12577751
94	0xbdb7aa79	-0.08968062
95	0xbd51e1a3	-0.051240575
96	0xbdce2285	-0.10065178
97	0xbdb810e9	-0.089876
98	0xbe4cac9b	-0.19987719
99	0x3af89763	0.0018966015
100	0xbe427f8f	-0.18993972
101	0x3e206ac4	0.15665728
102	0x3e1387e5	0.14407308
103	0x3e357861	0.17721702
104	0xbe1314cb	-0.143634
105	0x3c4b461c	0.012406852
106	0x3dac3a89	0.08409602
107	0xbdab9e60	-0.08379817
108	0x3da1ffcf	0.0791012
109	0x3def9327	0.11697989
110	0xbe5b10f6	-0.21393189
111	0xbdde4fdb	-0.10855075
112	0xbcf66a62	-0.030080024
113	0xbd91762d	-0.07102618
114	0x3bb2795a	0.005446595
115	0x3dba640a	0.09101112
116	0xbd7399a5	-0.0594727
117	0xbe521579	-0.20516004
118	0xbe604a23	-0.21903281
119	0xbdc7e24a	-0.09759958
120	0x3cef0a23	0.029179638
121	0x3d3daf2e	0.046309642
122	0x3c13bbd9	0.009016954
123	0x3e5e5d0d	0.21715184
124	0xbd29ba28	-0.041437298
125	0x3dbd5c8b	0.09246167
126	0x3e098e0f	0.13433097
127	0x3dce9fdd	0.10089085
128	0x3e0e0503	0.138691
129	0x3cd73616	0.026270907
130	0x3dd315d3	0.10306897
131	0xbe1811f0	-0.14850593
132	0x3d24e717	0.040259447
133	0xbe5d2283	-0.21595196
134	0x3cfd85d1	0.030947598
135	0x3d100d1f	0.035168763
136	0xbe4f157a	-0.20223036
137	0xbdebe584	-0.11518386
138	0x3e1076ba	0.1410779
139	0x3e296e04	0.16545874
140	0xbded50d2	-0.11587681
141	0x3c8847bf	0.016635774
142	0x3d8769a3	0.066119455
143	0xbd8cba08	-0.0687142
144	0x3d7b846a	0.061405577
145	0x3e165516	0.14680895
146	0x3ced0f38	0.02893792
147	0xbe19cc74	-0.15019399
148	0xbd684d11	-0.05671412
149	0xbe121eb5	-0.14269526
150	0xbe2c4d5c	-0.16826385
151	0x3df1bd4a	0.11803682
152	0x3d3b96e3	0.045798194
153	0xbe4b42ec	-0.19849747
154	0xbde3fcb7	-0.11132186
155	0xbe56d92e	-0.20981285
156	0x3cbf1bfe	0.023328777
157	0x3d2ec0d8	0.04266438
158	0xbe0e6fe9	-0.13909878
159	0xbd9e06d8	-0.07716149
160	0xbd256331	-0.0403778
161	0xbd382518	-0.04495725
162	0xbd37f9da	-0.04491601
163	0xbe2b0e1b	-0.167046
164	0xbe34e804	-0.17666632
165	0x3e0acf13	0.13555555
166	0x3d2d0278	0.042238683
167	0xbe585b42	-0.21128562
168	0x398e36c4	0.00027125154
169	0x3daa0fd3	0.083037995
170	0xbc22a193	-0.009926218
171	0xbb740fc3	-0.003724084
172	0x3e506998	0.20352781
173	0x3c93beec	0.018035375
174	0xbe19ab40	-0.15006733
175	0xbdfd21fa	-0.12359996
176	0x3c9d5e58	0.019210026
177	0x3e638dde	0.22222087
178	0xbd02a502	-0.031895645
179	0xbde80481	-0.11328984
180	0x3db936a9	0.09043629
181	0xbd99e7c1	-0.07514907
182	0xbe136bd5	-0.14396603
183	0x3db73f28	0.08947593
184	0xbe2340a4	-0.15942627
185	0x3d6fba73	0.05852742
186	0xbcce4709	-0.025180357
187	0x3e58e014	0.21179229
188	0xbe4dae6f	-0.20086072
189	0xbdadc082	-0.084839836
190	0xbddcb864	-0.10777357
191	0xbe24b9d5	-0.16086514
192	0xbe3e8af1	-0.1860769
193	0xbe07df4b	-0.13268773
194	0xbe2bc2f6	-0.1677359
195	0xbd2714cb	-0.040791314
196	0xbda48352	-0.0803286
197	0x3e0d0cf6	0.13774475
198	0x3ddc37c9	0.10752828
199	0x3db89163	0.09012105
200	0x3d4f0b48	0.050547868
201	0xbe24d407	-0.16096507
202	0xbe5a9271	-0.21344925
203	0xbdf08164	-0.11743429
204	0x3e079576	0.13240609
205	0xbd02f9b3	-0.031976413
206	0x3c858fe2	0.01630396
207	0xbe47d7d5	-0.19515927
208	0xbd36035a	-0.04443679
209	0xbddba63f	-0.10725068
210	0x3d0b53ff	0.03401565
211	0xbb1222c2	-0.002229855
212	0xbe556801	-0.20840456
213	0x3e291a3f	0.16513918
214	0x3e2ab994	0.16672355
215	0xbcc2b90e	-0.023769882
216	0xbc05cadc	-0.008166041
217	0x3e394013	0.18090849
218	0x3e57ff79	0.21093549
219	0x3e5c78d4	0.21530467
220	0x3e0b96d2	0.13631752
221	0xbd626050	-0.055267632
222	0x3e536387	0.20643435
223	0x3e64ea8a	0.22355095
224	0xbe5ca440	-0.21547031
225	0x3e5384ec	0.20656174
226	0x3e0e4d0a	0.13896576
227	0xbe46b5f0	-0.19405341
228	0x3e40732e	0.18793938
229	0x3e1b7f6b	0.15185325
230	0xbe1df161	-0.1542411
231	0x3dc253ad	0.09488616
232	0x3e39faac	0.1816203
233	0xbe592271	-0.21204545
234	0xbe4bf8c2	-0.19919112
235	0xbdbef13e	-0.09323357
236	0x3e39b2b0	0.1813457
237	0xbe17408b	-0.14770715
238	0xbdaec175	-0.08532993
239	0xbe5c4228	-0.21509612
240	0xbe158a61	-0.14603569
241	0x3e5cc675	0.2156008
242	0x3d83c524	0.06434086
243	0xbe03376a	-0.12814108
244	0xbcdeafb7	-0.027183397
245	0x3dd287dd	0.1027982
246	0xbc9baac1	-0.01900232
247	0xbe1e8830	-0.15481639
248	0x3c80b3f5	0.01571081
249	0xbdd564e7	-0.10419636
250	0xbe649ae1	-0.22324707
251	0x3d82253b	0.063547574
252	0xbdb26c66	-0.087120816
253	0xbe050f08	-0.12994015
254	0xbe213812	-0.15744045
255	0x3cb42d1b	0.021994164

fc1.bias f4 [256]
0	0xbda0f1c6	-0.078586146
1	0xbe0a591f	-0.1351056
2	0xbd12c295	-0.0358301
3	0x3ceb5c6b	0.028730592
4	0xbdbaf44f	-0.091286294
5	0x3d91b758	0.07115048
6	0xbd34ddd0	-0.04415685
7	0xbdb727a9	-0.089431114
8	0xbdd86c17	-0.105674915
9	0xbdff0bcd	-0.12453423
10	0xbcde27a6	-0.027118515
11	0xbe1eea8d	-0.15519162
12	0xbe09fa1a	-0.13474312
13	0x3d29c870	0.041450918
14	0xbdc8f7ad	-0.098128654
15	0x3c182ee6	0.009288525
16	0x3e593dfb	0.2121505
17	0xbe2050a1	-0.15655757
18	0x3e632b30	0.22184443
19	0xbdf4d14f	-0.11953985
20	0x3df1145f	0.117714636
21	0x3c955106	0.018227112
22	0xbda42db5	-0.080165304
23	0xbd2d2629	-0.04227272
24	0xbe0bc668	-0.13649905
25	0xbd3ccfe1	-0.046096686
26	0x3c1cba70	0.009565935
27	0x3ddcf304	0.10788539
28	0xbb0f0409	-0.0021822473
29	0xbdde9faf	-0.10870301
30	0xbaba9d25	-0.0014237507
31	0xbc256127	-0.010093964
32	0xbda2bdc3	-0.079463504
33	0x3e06fba1	0.13181926
34	0xbc958bd5	-0.018255154
35	0xbdfd7cd5	-0.123773254
36	0xbe27fe1d	-0.1640553
37	0xbe384643	-0.17995553
38	0xbe18aaef	-0.14908956
39	0xbdfe1e43	-0.12408116
40	0xbde30500	-0.11084938
41	0xbe5370fb	-0.20648567
42	0xbe1d0936	-0.15335545
43	0x3ca48dad	0.020087088
44	0xbe4f04c3	-0.2021666
45	0x3e5725b3	0.21010475
46	0xbe0e004b	-0.138673
47	0x3e2a01be	0.16602227
48	0x3e53ff97	0.20702969
49	0xbe2e2667	-0.17006837
50	0x3d0ca71f	0.034339067
51	0x3ccee952	0.02525774
52	0xbdb26948	-0.08711487
53	0xbe5cf905	-0.21579368
54	0xbde58687	-0.112073
55	0x3e23fb4c	0.16013831
56	0xbd0bffba	-0.034179427
57	0xbd49f19d	-0.049302686
58	0x3d31569c	0.043295488
59	0x3e187528	0.14888442
60	0x3e08fede	0.13378474
61	0xbe039864	-0.12851101
62	0x3e15f144	0.14642817
63	0x3ccfcb54	0.02536551
64	0xbb17bc86	-0.002315314
65	0x3e53c54f	0.20680736
66	0xbd147ad6	-0.036249958
67	0xbe2c9a5a	-0.16855755
68	0x3dc8c365	0.098028935
69	0xbd73c0ea	-0.05951015
70	0xbe5284c2	-0.20558456
71	0x3dead065	0.11465529
72	0xbe080fb5	-0.13287242
73	0xbe53eaa3	-0.20694976
74	0x3c73fe52	0.014892178
75	0x3e1f91e3	0.15582995
76	0x3cb6250f	0.022234468
77	0xbd6f3e60	-0.058409095
78	0x3e1be293	0.1522315
79	0x3e0a5913	0.13510542
80	0xbdc5c017	-0.09655779
81	0x3e2d927a	0.16950408
82	0xbce89465	-0.028391073
83	0xbdc2fcb2	-0.09520854
84	0xbe607265	-0.21918638
85	0xbe51fe95	-0.20507272
86	0xbe269f9c	-0.16271824
87	0x3e481c45	0.19542034
88	0xbe14da48	-0.14536393
89	0xbe5e2977	-0.21695505
90	0xbe13dfbe	-0.1444082
91	0xbca8234d	-0.020524645
92	0x3dda7b01	0.106679924
93	0xbe3129ad	-0.17301054
94	0xbc7b2b5d	-0.015330163
95	0x3c41d2e8	0.011830069
96	0xbdf173cf	-0.11789667
97	0xbdae1d35	-0.085016645
98	0x3de147d7	0.110000305
99	0x3d2ee503	0.04269887
100	0x3da2e70b	0.07954224
101	0x3de2253a	0.11042257
102	0x3d3eb26c	0.046556875
103	0xbc5bd21e	-0.013416795
104	0x3e16ab39	0.14713754
105	0x3d98c6c2	0.07459785
106	0xb8a99b13	-8.087433e-05
107	0xbe333cef	-0.17503713
108	0xbd83f35f	-0.06442904
109	0x3d2f00f7	0.04272553
110	0xbe58dab8	-0.21177185
111	0xbdcbd3b2	-0.09952487
112	0x3e181453	0.14851503
113	0x3d905897	0.07048147
114	0xba5ad921	-0.0008348395
115	0xbe574d62	-0.21025613
116	0x3e106c0b	0.14103715
117	0xbe59c44a	-0.21266285
118	0x3cb6346f	0.0222418
119	0x3e5bd7ae	0.21468994
120	0x3e3369ef	0.17520879
121	0xbde88b0c	-0.11354646
122	0x3c2bb263	0.010479542
123	0xbdf78e14	-0.12087646
124	0x3d075485	0.03303959
125	0x3e45ad2b	0.1930434
126	0xbdbb50a2	-0.09146239
127	0x3b7f1706	0.0038923635
128	0x3d2d2350	0.042270005
129	0x3e1457ed	0.14486666
130	0x3e4aba3c	0.19797605
131	0xbc53c420	-0.012925178
132	0x3c43dc95	0.011954446
133	0x3de12b78	0.10994619
134	0xbe5e57fd	-0.21713252
135	0x3e53945f	0.20662068
136	0xbd004248	-0.03131321
137	0x3ca75929	0.020428257
138	0x3cf668ee	0.030079331
139	0xbe10d162	-0.14142373
140	0x3da890e9	0.082307644
141	0x3b1232dc	0.0022308147
142	0xbc86936f	-0.016427724
143	0x3d5f44f9	0.054509137
144	0x3d64b192	0.055833407
145	0x3d475e24	0.048673764
146	0xba2a5e0f	-0.0006499001
147	0x3e5ccb11	0.21561839
148	0xbe328ce0	-0.17436552
149	0x3e037a61	0.12839653
150	0x3d879b1c	0.06621382
151	0x3deeff43	0.11669781
152	0xbe3f9ceb	-0.18712203
153	0x3d847598	0.06467742
154	0xbe34f768	-0.17672503
155	0xbe017ef4	-0.12646085
156	0xbe208c98	-0.15678632
157	0xbe17ae62	-0.14812616
158	0x3d140086	0.03613331
159	0x3e0d1dcd	0.137809
160	0x3e2154d5	0.15755017
161	0x3d8f2455	0.06989352
162	0xbdb2106d	-0.08694539
163	0x3df32814	0.11872879
164	0x3dd269bf	0.10274076
165	0x3d3303cb	0.04370479
166	0x3d3075ff	0.04308128
167	0xbbec55f6	-0.007212396
168	0x3e60fe06	0.21971902
169	0xbd821bc5	-0.06352953
170	0xbe61bc6b	-0.22044532
171	0x3db4b036	0.08822672
172	0x3db1a5cf	0.086742036
173	0xbe2aa70b	-0.16665284
174	0xbdb3b6aa	-0.08775075
175	0xbda5e8a1	-0.08101011
176	0x3e154897	0.14578472
177	0xbe1c7519	-0.15279044
178	0x3e478374	0.19483739
179	0x3cfa5eb5	0.030562738
180	0xbe29192a	-0.16513506
181	0x3dc3300e	0.0953065
182	0xbe1b7982	-0.1518307
183	0x3e3ecca9	0.18632759
184	0xbe4a6897	-0.1976646
185	0x3e3c5a99	0.18393935
186	0x3e610002	0.21972659
187	0x3e646121	0.22302677
188	0xbdfe0c6a	-0.124047115
189	0xbe4a7d80	-0.19774437
190	0xbdc32d71	-0.09530152
191	0x3d8cd513	0.06876578
192	0xbe2ee7a9	-0.17080559
193	0xbe236ce0	-0.15959501
194	0xbe2587a0	-0.16165018
195	0xbcbe6fd1	-0.023246678
196	0xbdd76ff9	-0.10519404
197	0xbe4c4d1b	-0.19951288
198	0x3e3ba24c	0.1832363
199	0xbe25d6c8	-0.16195214
200	0x3e4ebc4c	0.20189017
201	0xbd93158a	-0.071818426
202	0xbe275322	-0.16340306
203	0x3e118a8d	0.14213009
204	0xbb220224	-0.0024720514
205	0x3d7daa27	0.061929848
206	0x3dfea685	0.12434105
207	0x3c2ef0c0	0.010677516
208	0x3de8fdb3	0.11376514
209	0xbe5dff18	-0.21679342
210	0x3dd9cb96	0.10634534
211	0x3df41d92	0.119197026
212	0x3db67dee	0.08910738
213	0xbdf351de	-0.11880849
214	0x3e407cbf	0.18797587
215	0x3e0f114a	0.13971439
216	0x3e4299a5	0.19003923
217	0x3ddd9770	0.108199
218	0xbe06bb89	-0.13157476
219	0xbd5d3d97	-0.054013815
220	0xbdee2384	-0.11627868
221	0xbe5c953f	-0.21541308
222	0xbcf7eb8c	-0.030263685
223	0xbe31e3c3	-0.1737204
224	0x3da10313	0.078619145
225	0x3e3f0efd	0.18658061
226	0xbd309f8f	-0.043120917
227	0x3e1e1510	0.15437722
228	0x3e524572	0.20534304
229	0xbd4affb3	-0.04956026
230	0x3d2c4513	0.04205806
231	0xbe5be15f	-0.21472691
232	0xbdb5eade	-0.08882688
233	0xbd673718	-0.056449026
234	0xbe6475c1	-0.22310545
235	0x3dbf90a5	0.09353761
236	0x3e3d81a4	0.18506485
237	0xbd1bbc88	-0.038021594
238	0x3d5e9b16	0.05434712
239	0x3e2ddc03	0.16978459
240	0x3e39dfc2	0.18151763
241	0x3e349865	0.17636259
242	0xbd81ac6a	-0.063317135
243	0xbe22b559	-0.15889491
244	0x3e4c9b5b	0.19981138
245	0xbe5cb1e4	-0.21552235
246	0x3e407d5e	0.18797824
247	0xbe2b585c	-0.16732925
248	0xbd74ccc4	-0.059765592
249	0x3d2fccb2	0.042919822
250	0xbd2747c7	-0.040839937
251	0xbc5f490d	-0.0136282565
252	0x3c8a1f8f	0.016860751
253	0x3d875419	0.06607837
254	0xbe092fdd	-0.13397165
255	0xbbac3fb5	-0.005256618

fc2.weight f4 [256, 256]
0	0x3bbe9920	0.0058165938
1	0xbc7019d8	-0.014654599
2	0xbd39b0ec	-0.04533474
3	0xb9fc2100	-0.00048089772
4	0x3c8b2840	0.016986966
5	0x3d0e9554	0.03481038
6	0xbad87f00	-0.0016517341
7	0xbbd7a840	-0.0065813363
8	0x3cfb3ffc	0.030670159
9	0xbd7b098c	-0.0612884
10	0xbd6c98a4	-0.057762757
11	0x3d61bcee	0.055111818
12	0x3b9de350	0.0048183575
13	0x3ccbda78	0.024884447
14	0xbd7b055c	-0.061284408
15	0xbc964380	-0.018342733
16	0x3d74131e	0.059588544
17	0x3bd8dd70	0.0066181943
18	0x3d1e4572	0.038640447
19	0xbb03e820	-0.002012737
20	0xbd377f30	-0.04479903
21	0xbd5d7d6c	-0.05407469
22	0xbaf6b580	-0.0018822402
23	0xbcc61480	-0.024179697
24	0xbd734152	-0.059388466
25	0x3d3abbf4	0.045589402
26	0xbd530554	-0.051518753
27	0x3cdf1d70	0.027235717
28	0x3bada350	0.0052990094
29	0x3d6fe88a	0.058571376
30	0x3d337b5e	0.043818824
31	0xbd0cd2d8	-0.034380764
32	0x3d64bd72	0.05584473
33	0xbcee0734	-0.02905617
34	0xbbd13820	-0.0063848644
35	0xbd7ad1bc	-0.061235175
36	0x3d4cbd3a	0.049985148
37	0xbd45ef68	-0.04832402
38	0x3c0de5e8	0.008660771
39	0x3bf4a0f0	0.0074654743
40	0x3b7b95a0	0.0038388744
41	0xbb65a860	-0.0035042986
42	0xbd1c2212	-0.03811843
43	0x3bbaefd0	0.0057048574
44	0xbb6e33e0	-0.0036346838
45	0xbb9584f0	-0.0045629665
46	0xbca9d174	-0.020729758
47	0xbcaed878	-0.021343455
48	0x3c62aea0	0.013835579
49	0xbd385f72	-0.0450129
50	0xbcf710a4	-0.030159302
51	0x3acc6d80	0.0015596598
52	0xbca2f5f4	-0.01989267
53	0x3ca7f65c	0.020503215
54	0x3bc7bea0	0.0060957223
55	0xbca664d4	-0.02031175
56	0xbc79e9c8	-0.015253492
57	0x3cf0ac08	0.029378906
58	0xbcdc0758	-0.02685897
59	0x3d024d6a	0.03181211
60	0x3cc22894	0.02370099
61	0xbd3f3ebc	-0.046690688
62	0xbd64931e	-0.055804364
63	0x3cbe3e2c	0.023223005
64	0xbd0f7848	-0.03502682
65	0xbd591fa4	-0.05300869
66	0x3cb4e3e8	0.02208133
67	0xbcf766d8	-0.030200407
68	0x3d6a79b4	0.05724497
69	0xbc125008	-0.008930214
70	0x3cc21024	0.023689337
71	0x3d77c108	0.060486823
72	0x3ce5d950	0.028057724
73	0xbd3eb42e	-0.04655855
74	0x3d044dd6	0.032300793
75	0x3cab9f80	0.020950079
76	0x3cc30500	0.023806095
77	0xbd4a0f48	-0.04933098
78	0x3c844668	0.016146854
79	0x3a8fdb80	0.001097545
80	0xbc9ea62c	-0.019366346
81	0x3c4ed5e8	0.012624241
82	0x3d65d01a	0.056106664
83	0x3d034022	0.032043584
84	0xbd1f5d78	-0.038907498
85	0xbb381f20	-0.0028094724
86	0xbc80bdcc	-0.015715502
87	0x3c6f8d98	0.014621161
88	0x3d73c996	0.05951842
89	0x3cc280c4	0.02374304
90	0x3c7fa190	0.015602484
91	0xbd03f70a	-0.032218017
92	0x3c3fdf48	0.011710949
93	0xbd547f7e	-0.0518794
94	0x3cfa1340	0.030526757
95	0xbd6e9efa	-0.05825708
96	0xbd4c401a	-0.04986582
97	0x3d2ce3de	0.0422095
98	0x3d71ea76	0.05906149
99	0x3c9c912c	0.019112192
100	0xbd4eec48	-0.050518304
101	0x3c67beb8	0.014144592
102	0xbb9a3050	-0.0047054663
103	0x3bed9210	0.007250078
104	0xbd5db0f6	-0.05412384
105	0x3cf2edb4	0.029654361
106	0xbd234d3a	-0.03986857
107	0xbc9d1310	-0.019174129
108	0xbbb37650	-0.0054767504
109	0xbd370eca	-0.04469184
110	0xbd13cd32	-0.03608436
111	0x3d4a33be	0.04936575
112	0x3bc191b0	0.00590726
113	0xbbd1df30	-0.00640478
114	0xbd31962a	-0.0433561
115	0x3d0e89cc	0.034799382
116	0x3d55f34c	0.05223398
117	0xbd4b5f68	-0.049651533
118	0x3c26d400	0.010182381
119	0x3d4e605c	0.050384864
120	0xbd2118f0	-0.039330423
121	0xbc9a2cac	-0.01882013
122	0x3cdf2e10	0.027243644
123	0xbd637ce8	-0.05553904
124	0x3d6e9ac6	0.058253072
125	0x3aff82c0	0.0019493923
126	0x3bd72500	0.00656569
127	0x3d5eff28	0.054442555
128	0x3d197f7c	0.037475094
129	0xbd402c34	-0.046917155
130	0xbcd6f7bc	-0.026241176
131	0x3d793a44	0.060846582
132	0xbc997708	-0.018733516
133	0xbd0c4440	-0.034244776
134	0xbc3f13e8	-0.011662461
135	0x3d1611ea	0.036638178
136	0x3d523eb4	0.05132933
137	0xbd4b005c	-0.04956089
138	0xbc94c6a0	-0.018161118
139	0xbd207368	-0.03917256
140	0xbc992034	-0.018692113
141	0xbce08bdc	-0.02741044
142	0x3d6ede5e	0.058317535
143	0x3c86e43c	0.016466253
144	0x3c7dfe40	0.015502512
145	0x3d06f8ac	0.032951996
146	0x3cb7b120	0.022423327
147	0x3d49cbc6	0.0492666
148	0x3d3535e0	0.044240832
149	0xbce8d5d8	-0.028422281
150	0xbc5ae458	-0.013360105
151	0xbd4de70a	-0.050269164
152	0x3d4f732c	0.050646946
153	0xbca1d340	-0.019754052
154	0xbd14ff34	-0.036376193
155	0xbce9f2ac	-0.028558098
156	0xbc3a7a68	-0.011381723
157	0x3d5d012e	0.053956203
158	0x3d4e451c	0.050358877
159	0xbcbeb644	-0.02328027
160	0xbbdb9e90	-0.0067022517
161	0x3d32a854	0.04361756
162	0x3d4dc428	0.050235897
163	0x3cffcbdc	0.031225137
164	0x3d3f1b6a	0.046657003
165	0x3d3035da	0.043020107
166	0x3d2efb4c	0.042720124
167	0xbd04f8a6	-0.032463692
168	0x3d42cddc	0.047559604
169	0x3d6042f8	0.054751366
170	0x3d71d2b4	0.059038833
171	0xbcb68754	-0.022281326
172	0xbd3c981c	-0.0460435
173	0xbd571ff8	-0.052520722
174	0x3c8f209c	0.017471604
175	0x3c361c18	0.0111150965
176	0xbc827000	-0.015922546
177	0xbd41934c	-0.047259614
178	0xbcc94368	-0.024568275
179	0x3cf169c4	0.029469378
180	0xbbb41ff0	-0.0054969713
181	0xbca83a28	-0.020535544
182	0xbcd8ac6c	-0.026449405
183	0xbc1f1ce0	-0.009711474
184	0xbd08e43e	-0.033420794
185	0xb9b44300	-0.00034382194
186	0xbd662932	-0.05619163
187	0x3d023fdc	0.031799182
188	0x3c812a44	0.015767224
189	0xbbc51ad0	-0.006015159
190	0x3cf900d4	0.030395903
191	0xbd6237b4	-0.055228904
192	0x3cf65d4c	0.030073784
193	0xbaa895c0	-0.0012862012
194	0xbce410bc	-0.02784001
195	0xbd41bc94	-0.047298983
196	0xbcad8a20	-0.021184027
197	0x3c82a114	0.015945949
198	0x3cd94d90	0.026526242
199	0xbd737eb4	-0.059447005
200	0x3cee3a54	0.029080547
201	0xbb386fc0	-0.002814278
202	0xbc4d6670	-0.01253663
203	0xbd6b2e2e	-0.057417087
204	0xbd0cce52	-0.03437645
205	0xbd050cae	-0.032482795
206	0x3d67a95a	0.05655799
207	0x3d484754	0.04889615
208	0xbd3ad8c2	-0.045616873
209	0x3cdf6710	0.027270824
210	0xbd69f554	-0.05711873
211	0xbd5573d6	-0.052112423
212	0xbcfda8ac	-0.030964218
213	0x3d4f7dc8	0.050657064
214	0xbd7e80dc	-0.06213461
215	0xbc9d4280	-0.019196749
216	0xbd425054	-0.047439888
217	0xbc0cae48	-0.008586474
218	0x3d18acd6	0.037274204
219	0x3c2f37a0	0.010694414
220	0x3d2c4418	0.042057127
221	0xbd490546	-0.049077295
222	0xbc9f2408	-0.01942636
223	0x3d253a0c	0.04033856
224	0x3cd4e304	0.025987156
225	0x3bab67f0	0.005230896
226	0xbb986240	-0.004650384
227	0xbc8e5b3c	-0.017377488
228	0xbd67cad6	-0.056589924
229	0xbd53c53a	-0.05170176
230	0xbc93a53c	-0.018023126
231	0xbcc8538c	-0.0244539
232	0x3d496690	0.049170077
233	0x3cb1cfd0	0.021705538
234	0x3c479540	0.01218158
235	0x3d72ce48	0.059278756
236	0x3b2c7740	0.0026316196
237	0xbd2212ec	-0.039568827
238	0x3cd1f0ec	0.025627576
239	0xbd47fbca	-0.04882411
240	0xbd38d062	-0.045120604
241	0xbd75ff42	-0.060057886
242	0xbcb25940	-0.021771073
243	0xbd3fe678	-0.04685065
244	0xbd2eea32	-0.042703815
245	0xbd08c30a	-0.03338913
246	0x3ccb64b0	0.024828285
247	0x3d450ae8	0.048106104
248	0xbd2b25d8	-0.041784137
249	0x3ccdd2c0	0.025124907
250	0x3c256fc0	0.010097444
251	0xbd2b9000	-0.041885376
252	0x3d4774b2	0.048695274
253	0xbd59e6a4	-0.05319847
254	0x3d321d36	0.04348489
255	0x3d2d1822	0.042259343

fc2.bias f4 [256]
0	0x3d0131b6	0.03154155
1	0x3d346aac	0.044047043
2	0x3cd22d34	0.02565632
3	0x3c257de0	0.010100812
4	0x3cff6094	0.031173982
5	0xbd22c66e	-0.03974002
6	0x3bc6e290	0.006069489
7	0x3d2c7a3a	0.04210875
8	0x3c8b3d7c	0.016997091
9	0xbc1027a8	-0.008798517
10	0xbd4f0cb6	-0.05054923
11	0xbcea7390	-0.028619558
12	0x3d39958a	0.045308627
13	0x3c591260	0.01324901
14	0x3c909e3c	0.017653577
15	0xbd4f15de	-0.050557964
16	0x3cdd9e80	0.027053118
17	0xbc6e6010	-0.01454927
18	0xb8b76c00	-8.7462366e-05
19	0xbd5318c6	-0.051537298
20	0x3ba40040	0.0050049126
21	0x3d29bb18	0.041438192
22	0xbd1c0cb6	-0.03809806
23	0x3d4e8bea	0.0504264
24	0xbd114b18	-0.035472006
25	0x3d128eb4	0.035780624
26	0xbd6e6272	-0.058199354
27	0xbd306be0	-0.043071628
28	0xbca31b38	-0.01991044
29	0xbcbcc6dc	-0.023044042
30	0xbcd53bb0	-0.026029438
31	0xbafcdd40	-0.0019292012
32	0xbcc350f8	-0.02384232
33	0xbcb215f8	-0.021738991
34	0xbc94e568	-0.018175796
35	0xbcf77740	-0.03020823
36	0xbd29df1c	-0.04147254
37	0x3b3b62c0	0.0028592795
38	0xbd7871ce	-0.060655408
39	0xbcfe7070	-0.031059474
40	0xbd6a800c	-0.05725102
41	0xbd393252	-0.045214005
42	0xbcf1f4d4	-0.029535688
43	0x3d3728a4	0.044716492
44	0xbd3efc74	-0.046627477
45	0x3b682360	0.0035421476
46	0xbd2f38e0	-0.04277885
47	0x3c871638	0.016490087
48	0xbd4d7e58	-0.05016932
49	0xbcc7788c	-0.024349473
50	0x3a2b2f00	0.0006530136
51	0x3c04b548	0.008099861
52	0x3d1e62f8	0.038668603
53	0xbd09609c	-0.0335394
54	0x3d73790c	0.05944161
55	0xbd7bae5c	-0.06144558
56	0xbcb0bfa4	-0.021575756
57	0xbd438c26	-0.047741078
58	0x3ce13f68	0.027496055
59	0xbd41da22	-0.04732717
60	0xbd356dca	-0.044294156
61	0xbd4f4c8a	-0.050610103
62	0xbd093158	-0.033494323
63	0xbce23d98	-0.02761726
64	0xbd64cfb2	-0.055862136
65	0x3d6e1732	0.05812759
66	0xbc1ecad8	-0.009691916
67	0x3d7b99aa	0.061425842
68	0xbd364930	-0.04450339
69	0xbd656e68	-0.056013495
70	0x3b3d7c60	0.0028913245
71	0xbd46f948	-0.048577577
72	0x3d225dee	0.03964036
73	0x3d111330	0.03541869
74	0x3d4eba68	0.05047074
75	0xbd58398c	-0.052789256
76	0x3d08056e	0.033208303
77	0xbc7a1930	-0.015264794
78	0x3d49e19e	0.04928743
79	0xbd25fc72	-0.040523954
80	0xbcd14254	-0.025544323
81	0xbd576eda	-0.05259595
82	0x3d3d628e	0.046236567
83	0xbd4f66fa	-0.050635315
84	0x3d0c66a8	0.034277588
85	0x3d630392	0.055423327
86	0x3d584724	0.05280222
87	0x3d4ce938	0.050027102
88	0x3d796846	0.06089046
89	0x3d18460e	0.037176184
90	0xbcdaaf88	-0.026695028
91	0xbb736a80	-0.0037142336
92	0x3d7357e6	0.05941
93	0xbd380c56	-0.04493364
94	0x3d28e002	0.041229255
95	0xbcf48cb0	-0.029852241
96	0xbd53f8d4	-0.051750973
97	0xbd03b05c	-0.03215061
98	0x3d50b738	0.05095598
99	0x3d759e18	0.059965223
100	0x3c9c172c	0.019054018
101	0xbc18bb28	-0.009321965
102	0xbd4589c2	-0.04822708
103	0xbce09380	-0.027414083
104	0xbd10c02e	-0.035339527
105	0xbc25f788	-0.010129817
106	0xbc3eea00	-0.01165247
107	0xbc98fb84	-0.01867462
108	0xbd64832e	-0.055789165
109	0x3cf9d4bc	0.030496947
110	0x3d349000	0.04408264
111	0xbd699246	-0.057024263
112	0x3c165e28	0.009177722
113	0xbcf9458c	-0.03042867
114	0x3d26125a	0.040544845
115	0x3d5c7822	0.053825505
116	0xbd64ff94	-0.0559078
117	0x38412000	4.6044588e-05
118	0xbcf14124	-0.029450007
119	0x3c1699f0	0.009191975
120	0xbd66e4d0	-0.056370556
121	0xbb6f79a0	-0.0036541
122	0x3d04c454	0.032413796
123	0xbd59a078	-0.05313155
124	0x3cc7f44c	0.024408482
125	0x3d13ec06	0.03611376
126	0x3d1c19d2	0.03811056
127	0x3c584150	0.013199165
128	0xbd2a6522	-0.041600354
129	0x3c9e718c	0.019341253
130	0x3d20190c	0.039086387
131	0xbd1d8546	-0.038457178
132	0x3c902488	0.017595544
133	0x3d7f89e6	0.06238737
134	0xbc775b58	-0.015097462
135	0x3bf122b0	0.0073588714
136	0x3d056a58	0.03257212
137	0xbd204cfa	-0.03913591
138	0x3d623b28	0.055232197
139	0xbd7b45b8	-0.061345786
140	0xbd695f0e	-0.056975417
141	0xbc52d8c0	-0.01286906
142	0xbd3e3abe	-0.04644274
143	0x3d4f3c04	0.050594345
144	0x3d4d60ee	0.050141267
145	0x3bf3a930	0.00743594
146	0xbca2128c	-0.019784234
147	0xbcaebbac	-0.021329723
148	0x3c7ec5a0	0.015550047
149	0xbd2a0a38	-0.04151365
150	0x3d7ccb62	0.0617174
151	0x3d0843f0	0.033267915
152	0xbd6266e0	-0.05527389
153	0x3d7dea08	0.061990768
154	0xbcc4a798	-0.024005696
155	0x3d0b96e2	0.03407944
156	0x3c7bf918	0.015379213
157	0x3d3658a2	0.04451812
158	0xbd34eace	-0.04416924
159	0x3d19eba4	0.03757824
160	0x3c141248	0.009037562
161	0xbd4fbb88	-0.050715953
162	0xbd0e865a	-0.034796096
163	0xbcdc7448	-0.026910916
164	0xbd7aae76	-0.061201535
165	0x3d5d84c4	0.054081693
166	0x3cb873fc	0.022516243
167	0x3d098b70	0.033580244
168	0xbc3fb048	-0.011699744
169	0xbc4c9e30	-0.012488887
170	0xbc493fe0	-0.012283295
171	0xbc8ff1a0	-0.01757127
172	0x3cc220f8	0.023697361
173	0x3d108b36	0.035289012
174	0x3cedcbd4	0.029027857
175	0x3c8188f0	0.015812367
176	0xbb994b30	-0.0046781525
177	0xbca6d40c	-0.020364784
178	0xbd6c91ae	-0.05775612
179	0x3d0bfc62	0.034176238
180	0x3d481c7a	0.048855282
181	0x3d0d31e0	0.034471393
182	0xbcc6e864	-0.024280734
183	0xbc9f0d48	-0.019415513
184	0x3d72a670	0.05924076
185	0xbd24380e	-0.04009252
186	0x3d7bd46c	0.06148188
187	0x3d10a98a	0.035317935
188	0x3d7fc0be	0.062439673
189	0xbce573c4	-0.028009303
190	0x3d6ea84e	0.058265977
191	0xbce9c818	-0.028537795
192	0xbcdb609c	-0.026779465
193	0xbd6bfc1e	-0.057613485
194	0x3c6f4570	0.0146039575
195	0xbcb32a68	-0.021870807
196	0x3d7bb244	0.061449304
197	0xbd702b0a	-0.058634795
198	0x3b830bb0	0.003999196
199	0x3d126dda	0.035749294
200	0xbc93df28	-0.018050745
201	0x3d507c3a	0.05089972
202	0xbcf73448	-0.030176297
203	0x3d21c0a6	0.039490364
204	0x3d712292	0.05887086
205	0xbcbe4524	-0.023226328
206	0xbd16f766	-0.03685703
207	0xbd1bce5c	-0.038038597
208	0xbd524968	-0.051339537
209	0xbcdb927c	-0.026803248
210	0x3b8ef720	0.0043629557
211	0x3d2dd22a	0.042436756
212	0xbd624a9e	-0.05524694
213	0x3d3ec6a6	0.046576165
214	0xbd412564	-0.0471548
215	0xbcacc2b0	-0.021088928
216	0x3d23e4e6	0.040013216
217	0x3cb1b948	0.021694794
218	0xbd7b6240	-0.061372995
219	0x3d6d0b14	0.057871893
220	0x3cd5f374	0.026117064
221	0xbcdf42b4	-0.027253486
222	0xbd4bfae6	-0.049799822
223	0x3d3792d4	0.04481776
224	0x3d2218e2	0.03957451
225	0x3cb03abc	0.021512382
226	0xbd706962	-0.05869425
227	0xbd6867d4	-0.056739643
228	0x3d1cb1d4	0.038255528
229	0xbd5998b6	-0.053124152
230	0xbbebebb0	-0.007199727
231	0xbcfbf244	-0.03075517
232	0x3d70e2b6	0.05880996
233	0x3c5df6a8	0.013547577
234	0x3d1f2306	0.03885176
235	0x3d1cd986	0.038293384
236	0xbd39758e	-0.045278125
237	0xbd75e810	-0.060035765
238	0xbd4486d4	-0.047980145
239	0x3c649b28	0.013953008
240	0xbd0e776e	-0.034781866
241	0xbc89db28	-0.016828135
242	0xbd63f3c6	-0.055652402
243	0x3d7eab86	0.062175296
244	0xbcccbc44	-0.024992116
245	0x3c0d8178	0.008636825
246	0xbd7e4212	-0.06207473
247	0x3d339602	0.04384423
248	0x3d128d9c	0.03577958
249	0xbc1aca70	-0.009447679
250	0xbd3e7924	-0.046502247
251	0x3c97fc44	0.018552907
252	0x3d0fd40c	0.035114333
253	0x3be17380	0.0068802238
254	0x3d6092f0	0.05482763
255	0xbcafd7ac	-0.021465145

fc3.weight f4 [256, 256]
0	0x3c9bfbf8	0.019041047
1	0x3ce14758	0.02749984
2	0x3c627130	0.013820931
3	0xbcafd440	-0.021463513
4	0x3c490b78	0.012270801
5	0x3ce6e124	0.028183527
6	0xbbe867f0	-0.0070924684
7	0xbd567a6a	-0.052362837
8	0x3cbbb580	0.022913694
9	0x3d796e10	0.06089598
10	0x3ceb4a04	0.028721817
11	0x3cb27e80	0.021788836
12	0x3d580980	0.052743435
13	0x3c15f210	0.0091519505
14	0xbd020a66	-0.031748198
15	0xbc00c970	-0.007860526
16	0xb924c000	-0.00015711784
17	0x3cccdd6c	0.025007926
18	0x3c50f5e8	0.012753941
19	0xbd615f46	-0.0550225
20	0xbd0061dc	-0.031343326
21	0xbd7084b8	-0.05872032
22	0x3c9a7184	0.018852957
23	0xb9e08300	-0.00042822212
24	0xbcb74c60	-0.022375286
25	0xbd0bcbd4	-0.034129933
26	0xbd2c359e	-0.04204332
27	0x3c982a9c	0.018575005
28	0x3c99fbf0	0.018796891
29	0xbb9eed90	-0.004850097
30	0xbc56ab28	-0.01310233
31	0x3d014fa6	0.0315701
32	0xbcb162e8	-0.021653607
33	0x3bd84d60	0.0066010207
34	0xbd571290	-0.052507937
35	0x3ca0d124	0.019630976
36	0xbc4a30d8	-0.012340747
37	0xbd65572a	-0.05599133
38	0xbc1961f0	-0.009361729
39	0x3d213312	0.039355345
40	0xbd362dda	-0.04447732
41	0x3cbaa7f0	0.022785157
42	0xbcb8abb0	-0.022542804
43	0xbc97917c	-0.01850199
44	0xbd6823f0	-0.056674898
45	0xbd56b6fe	-0.05242061
46	0x3ca39d48	0.019972458
47	0x3ccb8228	0.024842337
48	0xbcfedbe8	-0.031110719
49	0x3bb12c00	0.0054068565
50	0xbbae9940	-0.0053283274
51	0x3d46ca86	0.048532985
52	0x3d30dee2	0.043181308
53	0x3cea1420	0.02857405
54	0xbc3f6500	-0.011681795
55	0x3b88a850	0.004170455
56	0xbc6ff6e8	-0.014646269
57	0x3d1b67be	0.037940733
58	0xbcfad438	-0.030618772
59	0x3cc1b4cc	0.023645781
60	0xbd7820de	-0.06057822
61	0x3c91e34c	0.017808579
62	0x3ceeb308	0.029138103
63	0xbd2d9b30	-0.042384326
64	0xbd0a2c4a	-0.033733644
65	0xbcc1f79c	-0.02367764
66	0x3c71d608	0.014760502
67	0x3cb6a76c	0.02229663
68	0x3d11d05c	0.035599098
69	0x3d0d87d4	0.034553364
70	0x3c33f7e8	0.010984398
71	0xbcb98f08	-0.02265121
72	0x3caff034	0.021476842
73	0xbcd11c38	-0.025526151
74	0x3b9130e0	0.004430875
75	0xbd75f1fe	-0.060045235
76	0xbb8b9dc0	-0.0042607486
77	0xbd0de746	-0.034644388
78	0xbd57c728	-0.052680165
79	0x3d7ec7e8	0.062202364
80	0x3d206b46	0.039164804
81	0xbc96e3d0	-0.018419176
82	0xbd11a3b6	-0.035556518
83	0x3d740cb8	0.059582442
84	0xbceeed74	-0.02916596
85	0x3d2d2f58	0.04228148
86	0x3d291cde	0.041287296
87	0x3d0d224e	0.034456544
88	0x3d680f3e	0.05665516
89	0xbd66226e	-0.05618518
90	0xbd4b96c0	-0.049704313
91	0x3ce42d38	0.027853593
92	0x3d104700	0.03522396
93	0xbcea2e08	-0.028586403
94	0xbd4fe034	-0.050750926
95	0xbbeaa540	-0.0071608126
96	0x3d25e1ee	0.040498666
97	0xbc5d89d8	-0.013521634
98	0x3bf3f7a0	0.0074452907
99	0xbd28512a	-0.04109303
100	0x3d18a992	0.03727109
101	0xbd259642	-0.0404265
102	0x3d67911e	0.05653488
103	0x3cca7a78	0.0247166
104	0xbc1061d8	-0.00881239
105	0xbce15898	-0.027508065
106	0x3c7579e8	0.014982678
107	0xbb5c0980	-0.0033574998
108	0xbd350962	-0.0441984
109	0xbd6e20b0	-0.058136642
110	0xbd38031c	-0.04492484
111	0xbc27bfa0	-0.010238558
112	0x3ce358bc	0.027752273
113	0xbb7b6c20	-0.0038364008
114	0x3c3afda0	0.011413008
115	0xbd20fe7e	-0.039305203
116	0xbcbf1498	-0.02332525
117	0x3cf8c6fc	0.03036832
118	0xbcea215c	-0.02858036
119	0x3d510e64	0.051039115
120	0x3d7e3e3a	0.062071063
121	0x3bc7b500	0.006094575
122	0x3d6cedda	0.05784402
123	0xbd454328	-0.04815975
124	0x3c270c40	0.010195792
125	0xbd22cd9e	-0.039746873
126	0xbd42e8b0	-0.04758519
127	0x3ce96490	0.028490335
128	0xbc03a428	-0.008034743
129	0xbc823cc8	-0.015898123
130	0xbcd4c9d8	-0.025975153
131	0x3d6220b8	0.055206984
132	0x3cd850ec	0.026405774
133	0xbd445e3e	-0.04794144
134	0xbc5bec50	-0.0134230405
135	0xbd74a45c	-0.059727058
136	0x3bf780e0	0.007553205
137	0xbc29e3c0	-0.010369241
138	0x3d18c02a	0.037292637
139	0xbd10fc2c	-0.03539674
140	0xbd49be06	-0.049253486
141	0x3d0cbf44	0.034362093
142	0x3c2d4b48	0.0105770305
143	0x3c9683a0	0.01837331
144	0x3d1c4d78	0.038159817
145	0x3ba76430	0.005108379
146	0x3cfbabfc	0.030721657
147	0xbcfd6118	-0.030930087
148	0x3b751c20	0.0037400797
149	0x3d28d306	0.041216873
150	0xbd152ffe	-0.036422722
151	0x3ca88438	0.02057086
152	0xbcd66738	-0.026172265
153	0xbcca39f8	-0.024685845
154	0x3d7b4a2e	0.06135004
155	0xbd7cf992	-0.061761446
156	0x3bec2bd0	0.0072073713
157	0xbd54a9c0	-0.0519197
158	0xbc8ad81c	-0.016948752
159	0xbcaa42b8	-0.020783767
160	0x3d36bfaa	0.04461638
161	0xbcb76c38	-0.02239047
162	0xbd28a1a6	-0.041169785
163	0x3d1f8e0a	0.03895382
164	0x3d48185c	0.048851356
165	0xbd54c73c	-0.051947817
166	0x3b3a5a00	0.0028434992
167	0x3d60d266	0.05488815
168	0xbd614b6c	-0.05500357
169	0x3d3927f2	0.04520411
170	0x3d529c36	0.051418506
171	0xba352400	-0.00069099665
172	0x3cf14fe0	0.029457033
173	0x3d3c9b50	0.046046555
174	0x3d4aa1fa	0.04947088
175	0x3d2b7ef6	0.041869126
176	0xbd6d2be2	-0.057903178
177	0x3d686f6c	0.056746885
178	0x3d1981e4	0.03747739
179	0xbd2cf45a	-0.04222522
180	0x3d359c8a	0.04433874
181	0xbcd2a428	-0.025713041
182	0xbcc7e83c	-0.02440273
183	0x3d0b3c66	0.033993147
184	0x3c639820	0.01389125
185	0x3c63abe0	0.013895959
186	0xbd4cbfb4	-0.04998751
187	0xbd5b137e	-0.053485386
188	0xbd1c6e58	-0.03819117
189	0x3d7babd2	0.061443157
190	0xbd447692	-0.04796464
191	0x3d1eca66	0.03876724
192	0x3d0e60bc	0.03476022
193	0xbcf77c7c	-0.030210726
194	0x3d7f5a48	0.06234196
195	0x3d46f230	0.04857081
196	0x3d7ce308	0.06173995
197	0x3c02f2d8	0.007992469
198	0xbbf0e9d0	-0.0073520914
199	0x3d290a4a	0.041269578
200	0x3d6c79ca	0.057733335
201	0xbd466aec	-0.048441812
202	0xbbce03a0	-0.006287053
203	0x3d0b8d9e	0.034070604
204	0xbd201974	-0.039086774
205	0x3d505ab4	0.05086775
206	0x3d61782c	0.055046245
207	0x3d031412	0.032001562
208	0xbd1c059e	-0.038091294
209	0xbcf6f7cc	-0.030147456
210	0xbcf92234	-0.030411817
211	0x3c892f04	0.016746052
212	0xbd3ceb52	-0.046122856
213	0x3d6a0548	0.057133943
214	0xbce2d39c	-0.027688794
215	0x3c070b28	0.008242406
216	0xbd78738a	-0.06065706
217	0x3d60f1ba	0.05491803
218	0x3c33c520	0.010972291
219	0xbcf80ae0	-0.030278623
220	0xbcf50da8	-0.029913738
221	0xbd4eae2c	-0.050459072
222	0x3c412ac0	0.011789978
223	0x3d3065f0	0.043065965
224	0xbd7ae000	-0.06124878
225	0xbd09b5b0	-0.033620536
226	0xbcb431ac	-0.021996342
227	0x3cb34ca0	0.021887124
228	0x3cbe2bf0	0.02321431
229	0xbd23e346	-0.040011667
230	0x3ceb8500	0.028749943
231	0x3ccf9270	0.025338382
232	0x3d49d158	0.04927191
233	0x3cfa6a10	0.030568153
234	0xbc1e16c8	-0.009648986
235	0xbd27fcc6	-0.041012548
236	0x3d6238bc	0.055229887
237	0x3a43c600	0.0007468164
238	0xbd495a3e	-0.049158327
239	0x3cc0c3d8	0.023530886
240	0x3b5c94a0	0.0033657923
241	0x3d3da366	0.046298407
242	0x3d4a8c86	0.04945042
243	0x3d0ce812	0.034401007
244	0xbc4e84f8	-0.012604944
245	0xbca29580	-0.019846678
246	0xbd1dc9a8	-0.038522393
247	0x3b00ada0	0.0019634739
248	0x3d0c795a	0.034295417
249	0x3c0bdea8	0.008536972
250	0xbd7d67fc	-0.061866745
251	0xbb887650	-0.0041644946
252	0xbd6f5986	-0.058434986
253	0xbca67f18	-0.020324275
254	0xbd4f194c	-0.050561234
255	0xbd1d7a5c	-0.03844677

fc3.bias f4 [256]
0	0xbcc728a0	-0.024311364
1	0xbd332ce6	-0.04374399
2	0x3a8a28c0	0.0010540709
3	0x3d2e7f48	0.042601854
4	0xbc8b1a08	-0.016980186
5	0xbc5b1080	-0.013370633
6	0x3d0d717c	0.034532055
7	0x3cb01a9c	0.021497063
8	0xbd24e86c	-0.040260717
9	0xbd4b9bc6	-0.049709104
10	0x3d49bbce	0.04925137
11	0xbca4b0cc	-0.020103835
12	0x3d11dea4	0.035612717
13	0xbd2d2954	-0.04227574
14	0xbcd4e1d4	-0.02598659
15	0xbd7a2098	-0.06106624
16	0x3d42ce1a	0.047559835
17	0xbc7a1f88	-0.015266307
18	0x3c743b40	0.014906704
19	0xbb836db0	-0.0040108785
20	0x3bff6040	0.0077934563
21	0xbc30b790	-0.010785952
22	0xbcffd5a0	-0.031229794
23	0x3be8d010	0.007104881
24	0xbd5eba2e	-0.054376774
25	0xbd48c8e0	-0.049019694
26	0x3c979ee8	0.01850839
27	0xbd05c53e	-0.032658808
28	0x3d38c0bc	0.04510568
29	0x3d304f54	0.043044403
30	0x3d50a77c	0.050940976
31	0xbcde7558	-0.027155563
32	0xbd45f8b2	-0.048332877
33	0x3c881a70	0.016614169
34	0x3d5b56a4	0.053549424
35	0xbc6b3340	-0.014355481
36	0x3b718cc0	0.0036857575
37	0x3d1aaf98	0.037765115
38	0xbd22ef62	-0.039779074
39	0x3c0df440	0.008664191
40	0x3c91bb84	0.01778961
41	0x3d222cd2	0.039593525
42	0xbcff44e8	-0.031160787
43	0x3d18b142	0.03727842
44	0xbce7d864	-0.028301425
45	0xbc3b7698	-0.011441849
46	0x3ac87840	0.0015294626
47	0xbc3ca6a8	-0.011514343
48	0xbcd416f4	-0.025889851
49	0xbc939b70	-0.018018454
50	0x3c328e48	0.01089818
51	0xbd760dfa	-0.060071923
52	0xbc9b0bd4	-0.018926539
53	0x3ca14c04	0.019689567
54	0xbd5ada7a	-0.05343101
55	0xbc582d40	-0.013194382
56	0x3d11bb5c	0.03557907
57	0xbd3f9610	-0.04677397
58	0x3d04ecb0	0.032452285
59	0x3d6a991c	0.057274923
60	0xbd1ccc96	-0.038281046
61	0xbd46b624	-0.048513547
62	0x3d3e9554	0.04652913
63	0x3ced70b4	0.028984405
64	0xbd436532	-0.04770393
65	0x3d07e706	0.033179305
66	0x3d3b7ff4	0.045776322
67	0xbb842850	-0.004033126
68	0xbbe38490	-0.006943293
69	0x3d6a815a	0.057252266
70	0x3c8a2558	0.01686351
71	0x3d01f91c	0.03173171
72	0x3d0d8758	0.034552902
73	0x3c8a20bc	0.016861312
74	0x3b9f5a40	0.0048630536
75	0xbbb3d910	-0.0054885224
76	0x3d658f30	0.056044757
77	0xbd764dcc	-0.060132787
78	0xbcf78154	-0.030213036
79	0x3d6ade38	0.05734083
80	0xbc22bf58	-0.009933315
81	0x3cd3e82c	0.025867544
82	0x3cf9ee48	0.03050913
83	0x3befb9b0	0.007315837
84	0xbcbe0d30	-0.023199648
85	0xbd7042ac	-0.058657333
86	0xbd435a5e	-0.047693603
87	0xbd361338	-0.044451922
88	0x3d073b72	0.033015676
89	0xbd5e4950	-0.054269135
90	0xbd48f320	-0.049059987
91	0x3c059190	0.008152381
92	0xbb4b7820	-0.0031046942
93	0x3d67cb5c	0.056590423
94	0x3c56a720	0.013101369
95	0xbd6e0c82	-0.058117397
96	0xbd197c24	-0.037471905
97	0xba9d0680	-0.0011980087
98	0x3d3f9cc0	0.046780348
99	0xbba85d70	-0.0051380917
100	0x3d185a40	0.037195444
101	0xbd18c272	-0.037294813
102	0x3c9eab30	0.019368738
103	0xbd458a1c	-0.048227414
104	0xbbeee730	-0.0072907433
105	0xbd4cc96c	-0.04999678
106	0xbd70c4d6	-0.058781467
107	0xbcbc9010	-0.023017913
108	0xbd7a1760	-0.06105745
109	0x3d162bba	0.036662795
110	0x3cc92054	0.024551548
111	0xbc2c3a88	-0.010512002
112	0xbc7fbc70	-0.015608892
113	0xbceb1a3c	-0.028699033
114	0xbd0fe756	-0.03513273
115	0xbd36a040	-0.04458642
116	0xbc993430	-0.018701643
117	0xbcbd58d0	-0.023113638
118	0xba3ba280	-0.0007157698
119	0xbd09c5bc	-0.03363584
120	0xbcb64b20	-0.02225262
121	0xbd7d0f1a	-0.06178198
122	0x3d7006ce	0.05860024
123	0x3ceaf1bc	0.028679721
124	0xbd34d4ea	-0.044148363
125	0x3d263554	0.0405782
126	0xbc85edec	-0.016348802
127	0xbd3b9acc	-0.045801923
128	0xbb059940	-0.0020385534
129	0x3d649922	0.0558101
130	0x3bcb8df0	0.0062119886
131	0x3d0d50c4	0.034500852
132	0xbcf34ea4	-0.029700585
133	0x3cc98c3c	0.024603002
134	0x3d22673a	0.039649226
135	0x3cbd101c	0.02307897
136	0xbd3bef3e	-0.045882456
137	0x3d6f4346	0.058413766
138	0x3986b500	0.00025693327
139	0x3d12c4b4	0.035832122
140	0xbd6e2448	-0.05814007
141	0xbaa42a40	-0.0012524799
142	0x3a7b5580	0.00095876306
143	0x3baa5a70	0.0051987693
144	0xbd5f1390	-0.054462016
145	0x3c62f500	0.013852358
146	0x3d058406	0.03259661
147	0x3ce42890	0.027851373
148	0xbce742a8	-0.028230026
149	0x3c8c19fc	0.017102234
150	0xbd19167a	-0.03737495
151	0xbcb8dc04	-0.02256585
152	0x3d0d5c20	0.034511685
153	0xbbc04340	-0.005867392
154	0x3bb86960	0.005627796
155	0xbcef04cc	-0.029177092
156	0xbd182376	-0.037143193
157	0x3c5325e8	0.0128874555
158	0xbd106b86	-0.035258792
159	0xbd7d5fe8	-0.06185904
160	0x3d0a91a0	0.033830285
161	0xbba2f730	-0.0049733147
162	0xbc0845f0	-0.008317456
163	0xbd1a7b7a	-0.037715413
164	0x3d03eea2	0.03221
165	0x3d7ea186	0.06216576
166	0xbd1e4448	-0.038639337
167	0xbaef1200	-0.0018239617
168	0xbd309866	-0.04311409
169	0x3bbae0d0	0.0057030693
170	0xbd5fbbc4	-0.054622427
171	0x3cfda750	0.03096357
172	0x3d7b1bc8	0.06130579
173	0x3d1646be	0.03668856
174	0xbd7b22e2	-0.061312564
175	0xbcbd2454	-0.023088612
176	0x3ce79af0	0.028272122
177	0xbc96f5ac	-0.018427692
178	0x3c9b7bf4	0.018980004
179	0xbbeb17e0	-0.007174477
180	0x3d5fe622	0.05466283
181	0x3c94d10c	0.018166088
182	0x3bbb0f00	0.0057085752
183	0xbc019aa8	-0.007910408
184	0x3d735b02	0.059412964
185	0xbd59c018	-0.05316171
186	0xbd7963d0	-0.060886204
187	0xbd3861ee	-0.045015268
188	0x3cb5f44c	0.022211216
189	0x3d442324	0.047885075
190	0xbcd91824	-0.026500769
191	0xbb06d540	-0.0020573884
192	0x3d40d63c	0.04707931
193	0x3b365e00	0.0027827024
194	0x3bc5ca80	0.006036103
195	0xbc646618	-0.013940357
196	0x3d09593a	0.03353236
197	0xbd788546	-0.060673974
198	0x3d55e584	0.052220836
199	0xbd2df4d4	-0.042469814
200	0xbd308d2c	-0.043103382
201	0xbd60be52	-0.054869004
202	0x3bd21290	0.006410904
203	0x3bc610e0	0.006044492
204	0x3d7ddf6e	0.061980657
205	0xbbc33c70	-0.0059581324
206	0xbd0df692	-0.034658976
207	0xbc39ce30	-0.011340663
208	0x3d1440c4	0.036194578
209	0x3d002348	0.031283647
210	0x3cc0a918	0.02351813
211	0x3ccafc50	0.024778515
212	0xbb73a100	-0.003717482
213	0xbca8edf4	-0.020621277
214	0xbd44903e	-0.047989123
215	0xbd7a3d4e	-0.06109362
216	0xbd0405c8	-0.032232076
217	0x3caad0b8	0.020851478
218	0xbcf0f294	-0.029412545
219	0xbc467ba0	-0.012114435
220	0x3cb93d6c	0.022612296
221	0x3cee1fa8	0.02906783
222	0xbce1c43c	-0.027559392
223	0x3d69810e	0.05700784
224	0x3be62260	0.007023141
225	0xbc8c5c54	-0.01713387
226	0xbce1d18c	-0.02756574
227	0x3d2c55c0	0.042073965
228	0xbba1a8d0	-0.004933454
229	0xbd7b3e72	-0.06133885
230	0xbd186846	-0.037208818
231	0x3d52d4aa	0.051472344
232	0x3b95e0b0	0.004573904
233	0x3cf39250	0.029732853
234	0xbd549de0	-0.051908374
235	0xbb4790c0	-0.0030451268
236	0x3d6fc654	0.05853875
237	0x3d030a6c	0.03199236
238	0x3bdc8250	0.0067294016
239	0xbcdc6c00	-0.026906967
240	0x3d596fe6	0.05308523
241	0x3d368cfe	0.044568054
242	0xbc561148	-0.013065644
243	0xba7c2680	-0.0009618774
244	0xbc740948	-0.014894791
245	0xbbdd7cf0	-0.0067592785
246	0x3cd80ecc	0.026374243
247	0xbc003ce8	-0.007827021
248	0x3ca78264	0.020447917
249	0x3d2896c0	0.04115939
250	0x3cf7189c	0.030163102
251	0xbd0923fc	-0.033481583
252	0x3c890b08	0.016728893
253	0xbc38ea40	-0.011286318
254	0xbd09d586	-0.033650897
255	0x3c50d550	0.01274617

fc4.weight f4 [5, 256]
0	0xbd63bcdc	-0.055600032
1	0xbcdf8568	-0.027285293
2	0xbd516c88	-0.051128894
3	0xbcb0f090	-0.021599084
4	0xbd48f824	-0.04906477
5	0xbd555f6c	-0.052092955
6	0x3c88ec60	0.016714275
7	0xbc6e80d0	-0.0145570785
8	0x3d49ccb8	0.0492675
9	0x3d21c398	0.039493173
10	0xbd69cb70	-0.05707878
11	0xbc0939b0	-0.00837557
12	0xbd5e5252	-0.054277726
13	0xbcf596a0	-0.02997905
14	0x3d4f6d9c	0.05064164
15	0x3d723b46	0.05913856
16	0xbce2b964	-0.027676292
17	0xbaf1d440	-0.0018450096
18	0xbcfc99c0	-0.030835032
19	0xbcd76bb4	-0.026296474
20	0xbac7e700	-0.0015251338
21	0xbd2d325a	-0.042284347
22	0xbc600218	-0.013672374
23	0xbd587cde	-0.052853458
24	0xbb7e3440	-0.0038788468
25	0xbd538e22	-0.05164922
26	0xba3bd180	-0.0007164702
27	0x3c11e598	0.008904837
28	0x3d770804	0.06031038
29	0xbd60d6f4	-0.054892495
30	0x3d5fab1e	0.05460655
31	0x3cc955cc	0.024577044
32	0xbc01d948	-0.007925339
33	0x3bce4740	0.0062951148
34	0xbc429e20	-0.01187852
35	0xbccd4050	-0.02505508
36	0x3d59cb62	0.053172477
37	0x3b819740	0.003954798
38	0x3d35b456	0.044361435
39	0xbc53ea60	-0.012934297
40	0x3cb4975c	0.02204483
41	0xbba3e500	-0.005001664
42	0x3c5d62b8	0.013512306
43	0x3c499c08	0.012305267
44	0x3d36d92e	0.044640712
45	0xbd386cd8	-0.045025676
46	0x3b316700	0.002706945
47	0x3d762296	0.060091577
48	0x3c4257b0	0.011861727
49	0xbcb31b80	-0.021863699
50	0xbcb805a8	-0.022463635
51	0x3cb82160	0.022476852
52	0x3d506272	0.050875135
53	0xbd740a9a	-0.059580423
54	0xbce6fd04	-0.02819682
55	0xbc749da8	-0.014930166
56	0xbd0746c6	-0.03302648
57	0x3d3cd28c	0.04609923
58	0x3d3fc04e	0.046814255
59	0xbbde1450	-0.006777324
60	0x3c57c590	0.013169661
61	0x3d7e7190	0.06212002
62	0x3c98e4e0	0.018663824
63	0x3b110ce0	0.0022132918
64	0xbbbf4f30	-0.0058382973
65	0x3d6f7a56	0.058466278
66	0x3c406f70	0.011745319
67	0xbd5b01b0	-0.053468406
68	0xbcd17f4c	-0.025573395
69	0xbc0b4578	-0.008500449
70	0xbd4ca72a	-0.049964108
71	0x3d1be194	0.038056925
72	0x3d467598	0.04845199
73	0x3d29a516	0.041417204
74	0xbd7ee610	-0.062231123
75	0x3d0c7fe4	0.034301654
76	0xbd23c194	-0.039979532
77	0xbcd80f94	-0.026374616
78	0x3a743300	0.0009315461
79	0xbc1ff1d0	-0.009762242
80	0xbb8a8430	-0.0042271838
81	0x3c2bebe0	0.010493249
82	0x3c23bb88	0.009993441
83	0x3d5a36c6	0.053274892
84	0x3c75b708	0.014997251
85	0x3d7c5e4c	0.061613366
86	0xbd4c4e56	-0.049879394
87	0x3bd2c420	0.0064320713
88	0x3d5ae2ee	0.053439073
89	0xbd6c1780	-0.0576396
90	0xbce22758	-0.027606651
91	0xbc9be61c	-0.019030623
92	0xbb8d1290	-0.0043051913
93	0x3cd6ea14	0.026234664
94	0xbd6f0940	-0.05835843
95	0x38503800	4.964322e-05
96	0xbd4f1960	-0.05056131
97	0xbcbd23a8	-0.023088291
98	0xbd3bfe48	-0.0458968
99	0x3d6590e6	0.05604639
100	0x3cb15c24	0.021650381
101	0x3d781da8	0.060575157
102	0x3bc3c860	0.0059748143
103	0xbc1f7b98	-0.009734057
104	0x3c7b8d40	0.015353501
105	0xbc9007ec	-0.017581902
106	0x3d465d40	0.048428774
107	0xbd320a22	-0.043466695
108	0x3d266d58	0.040631622
109	0xbd09d712	-0.033652373
110	0xbd082bea	-0.033245005
111	0xbca7bf2c	-0.0204769
112	0xbcee3000	-0.029075623
113	0x3d27c1f4	0.040956452
114	0x3c8e45b8	0.017367229
115	0x3cd0ac08	0.025472656
116	0xbccb0138	-0.024780855
117	0xbcc836c8	-0.024440184
118	0x3d7b3d50	0.06133777
119	0xbd25893c	-0.04041408
120	0x3cd178bc	0.025570266
121	0xba78e180	-0.00094940513
122	0xbd122224	-0.03567709
123	0x3d13a46a	0.03604547
124	0x3d5eebbe	0.05442404
125	0xbcde76a8	-0.02715619
126	0xbc9bb690	-0.019007951
127	0xbc3f5c30	-0.011679694
128	0x3cacb2d0	0.021081358
129	0x3cfffc3c	0.031248204
130	0x3c8211e8	0.015877679
131	0xbc2977b0	-0.010343477
132	0x3c445f08	0.011985548
133	0xbd36e24a	-0.0446494
134	0xbc7eabd8	-0.0155439
135	0xba1cb100	-0.0005977303
136	0xbd5e1e0a	-0.054227866
137	0xbb713a00	-0.0036808252
138	0xbd3d3102	-0.046189316
139	0xbcf1d9ec	-0.029522859
140	0x3c035390	0.008015528
141	0x3d5a002e	0.053222828
142	0xbcfb9e80	-0.030715227
143	0xbcf8cb18	-0.03037028
144	0x3d6b6d48	0.057477266
145	0xbd79263a	-0.06082747
146	0xbb9d4f30	-0.0048006997
147	0xbc1b43a0	-0.009476572
148	0xbd54b7b2	-0.051932998
149	0xbb1df940	-0.0024104863
150	0x3c638540	0.01388675
151	0xbd5d74d4	-0.054066494
152	0x3d4470e8	0.04795924
153	0x3d0701e2	0.03296078
154	0xbcb50574	-0.022097327
155	0x3a138200	0.00056269765
156	0xbd3217ee	-0.043479852
157	0xbd1c13b0	-0.038104713
158	0x3ce50728	0.027957514
159	0x3d364e52	0.044508286
160	0x3b9b3f70	0.004737787
161	0xbd5d4ae6	-0.054026507
162	0xbc2614a0	-0.010136753
163	0x3c55f4b0	0.013058826
164	0xbd150fbc	-0.03639196
165	0x3d7cee56	0.061750732
166	0x3d226992	0.03965146
167	0x3d434caa	0.047680534
168	0x3cb19020	0.02167517
169	0xbd6fa160	-0.05850351
170	0x3d04ce22	0.032423146
171	0x3cf47a38	0.029843435
172	0x3d2e9abc	0.042628035
173	0x3c280a78	0.010256402
174	0xbc820e0c	-0.015875839
175	0xbd45a492	-0.04825265
176	0x3d15dea4	0.03658928
177	0x3c0034b8	0.007825069
178	0x3d043b82	0.032283314
179	0x3bc4c860	0.006005332
180	0xbd6faf28	-0.05851665
181	0xbd5287f0	-0.05139917
182	0x3b214c20	0.0024612024
183	0x3d5bcbe8	0.053661257
184	0xbb879ed0	-0.004138805
185	0x3c92023c	0.017823331
186	0x3cc78cb4	0.024359085
187	0xbc8c1dc0	-0.01710403
188	0x3d5d2124	0.053986683
189	0x3bd28240	0.0064242184
190	0x3d27e108	0.04098609
191	0xbd6a9060	-0.057266593
192	0xbd446888	-0.04795125
193	0xbd0340e4	-0.032044306
194	0x3d57dfc4	0.052703634
195	0xbd4003fa	-0.046878792
196	0x3d3d46c2	0.046210058
197	0xbd1a696c	-0.037698194
198	0xbd715cd0	-0.058926404
199	0xbcc42970	-0.02394554
200	0x3d2725a8	0.040807396
201	0xbc84358c	-0.016138814
202	0x3d5c5dc6	0.053800367
203	0xbc846fe4	-0.016166635
204	0xbd618abc	-0.055063948
205	0x3d1bd57c	0.03804539
206	0xbbcc3040	-0.006231338
207	0xbd5cf760	-0.053946853
208	0x3bd68cd0	0.006547548
209	0xbd7d7bee	-0.061885767
210	0xbc3b0b68	-0.011416294
211	0x3b96c3c0	0.004600972
212	0xbd4fdc72	-0.050747342
213	0xbc560ce0	-0.013064593
214	0xbcccda00	-0.025006294
215	0x3d23366c	0.039846823
216	0xbd61a854	-0.05509217
217	0x3b676f60	0.0035314187
218	0xbcc64cc4	-0.024206527
219	0xbcd8e32c	-0.026475511
220	0x3d03f950	0.032220185
221	0x3bbece60	0.0058229417
222	0xbd2bca7c	-0.04194115
223	0xbbcf0790	-0.00631804
224	0xbd124c34	-0.035717204
225	0x3c2f0b08	0.010683782
226	0xbd64febc	-0.055906996
227	0xbbe67970	-0.0070335194
228	0xbd004a4c	-0.031320855
229	0x3d0146c4	0.031561628
230	0x3d2fb288	0.04289487
231	0xbbfa3850	-0.0076361075
232	0xbd2fc8b6	-0.042916022
233	0xbd002950	-0.0312894
234	0x3d122fb8	0.03569004
235	0xbd4d0e64	-0.050062552
236	0x3d1bc268	0.038027197
237	0x3d7d1f12	0.06179721
238	0x3cd371a8	0.025811031
239	0xbc0da2b0	-0.008644745
240	0x3cf968b0	0.030445427
241	0x3d34934a	0.04408578
242	0xbd7cd122	-0.061722882
243	0xbd0962a8	-0.03354135
244	0xbd659196	-0.056047045
245	0x3cbe1050	0.023201138
246	0xbb72c9a0	-0.0037046447
247	0x3d337b66	0.043818854
248	0x3d780310	0.060549796
249	0xbc37f790	-0.011228457
250	0x3d029fd8	0.03189072
251	0xbc74fa50	-0.014952257
252	0x3d1a5ee6	0.03768816
253	0xbc729f78	-0.014808528
254	0xbd716932	-0.058938213
255	0x3d2517f6	0.040306054

fc4.bias f4 [5]
0	0xbc3a7ad8	-0.011381827
1	0xbd5524c6	-0.052037023
2	0x3d5e9eda	0.05435071
3	0xbcb08f7c	-0.021552794
4	0x3cbe5670	0.023234576
