mlp_weights/map_3_Q.pt (torch, 569984 bytes, 8 tensors)

fc1.weight f4 [256, 34]
0	0x3db11386	0.08646302
1	0x3dc90dba	0.09817071
2	0x3e29892c	0.16556233
3	0x3e1281bb	0.14307301
4	0xbcf38085	-0.029724369
5	0x3d78386d	0.060600687
6	0xbdb43793	-0.087996624
7	0xbdd9e189	-0.106387205
8	0x3dfd114e	0.12356816
9	0x3d9a5f6a	0.0753773
10	0x3da0e539	0.07856221
11	0xbdbdeafe	-0.09273337
12	0x3e292a51	0.16520049
13	0x3becf782	0.0072316537
14	0x3de5d412	0.1122209
15	0x3d9e06db	0.07716151
16	0x3e29b646	0.16573438
17	0x3d169e6f	0.036772188
18	0x3de9c8db	0.11415263
19	0x3e1ca6c3	0.1529799
20	0xbdb07bdb	-0.086173736
21	0x3c0be5cb	0.008538674
22	0x3d492fa9	0.049117718
23	0x3e266eae	0.16253158
24	0x3e01c399	0.12672271
25	0xbc313a77	-0.010817162
26	0xbd16cb1c	-0.036814794
27	0xbdd2ffd9	-0.10302705
28	0x3d80c473	0.0628747
29	0x3d8c88eb	0.068620525
30	0x3d73552c	0.059407398
31	0x3d9dbea2	0.07702376
32	0xbe219cea	-0.15782514
33	0xbda884c5	-0.08228449
34	0x3e26172b	0.16219775
35	0xbdbd104c	-0.09231624
36	0x3dab39d9	0.08360643
37	0xbde19120	-0.110140085
38	0xbda600cb	-0.0810562
39	0x3c0182cb	0.007904719
40	0xbdca1ece	-0.09869157
41	0xbe2e58dc	-0.17026085
42	0x3d72d80b	0.059288066
43	0xbe26e2d6	-0.16297469
44	0x3c8bf4ed	0.017084563
45	0x3cbd967c	0.023143046
46	0xbe0764e2	-0.13222077
47	0x3d5e5433	0.054279517
48	0xbe205808	-0.15658581
49	0x3c2abb9d	0.010420707
50	0xbd7ad39f	-0.061236974
51	0x3d810d88	0.06301409
52	0x3dcfeb93	0.10152354
53	0xbe1ff9e1	-0.15622665
54	0x3d116b69	0.035502825
55	0xbe1100e4	-0.14160496
56	0xbdfb4b9b	-0.1227028
57	0xbd92a4e1	-0.071603544
58	0x3e0aab97	0.13542019
59	0xbd29ecf0	-0.041485727
60	0xbd72b4fe	-0.05925464
61	0xbb007fd4	-0.0019607441
62	0x3c1ede8c	0.009696614
63	0xbe0de6a6	-0.13857517
64	0x3d447824	0.047966138
65	0x3d5a7e0c	0.053342864
66	0x3c84c559	0.016207384
67	0xbd53dd43	-0.051724683
68	0x3cf1ce33	0.029517269
69	0x3ddcd33a	0.10782476
70	0x3cfecc49	0.03110327
71	0x3e292126	0.16516551
72	0xbe04dbf8	-0.12974536
73	0x3da5aa8f	0.08089172
74	0xbdcad1dc	-0.09903309
75	0x3e0bfbd2	0.1367028
76	0x3d5136ec	0.05107777
77	0xbd6bc0f7	-0.057557072
78	0xbc95f8f5	-0.018307189
79	0xbe271df1	-0.16320015
80	0x3bf170c6	0.00736818
81	0x3c577993	0.013151544
82	0x3cd5b5d9	0.026087688
83	0xbd8863d9	-0.066596694
84	0xbe08735d	-0.13325258
85	0xbe2c8043	-0.16845803
86	0x3e0ea95d	0.13931794
87	0x3deb7c79	0.11498351
88	0x3d13b820	0.036064267
89	0xbe0b9d8f	-0.13634323
90	0xbd7809fe	-0.060556404
91	0xbb855690	-0.004069157
92	0x3da87ebf	0.082273
93	0x3e15b400	0.14619446
94	0xbd2b5d3b	-0.04183696
95	0xbc3e5a61	-0.011618228
96	0xbe100755	-0.14065297
97	0x3d921d02	0.07134439
98	0xbc8f41d0	-0.017487437
99	0x3deea924	0.11653355
100	0x3da584d4	0.080819756
101	0xbdb1d601	-0.08683396
102	0xbd9b2a83	-0.07576468
103	0x3e1d5b1f	0.15366791
104	0x3d6cfd57	0.05785879
105	0x3dfb8ab5	0.12282316
106	0x3c29f4d9	0.010373318
107	0x3c60c2ce	0.01371832
108	0x3d52bd9e	0.051450364
109	0xbe1c1eb2	-0.15246084
110	0xbdeb5d2d	-0.11492381
111	0xbd2a2557	-0.041539516
112	0x3d462347	0.048373487
113	0xbe21e2c3	-0.15809159
114	0x3d892fac	0.06698546
115	0x3c8933c4	0.016748317
116	0xbd2e080d	-0.042488147
117	0x3bd342ef	0.006447188
118	0x3e22788b	0.15866296
119	0x3cd52d8d	0.026022697
120	0xbd6ac540	-0.05731702
121	0xbdc32166	-0.095278546
122	0x3e22160a	0.1582872
123	0xbe1b9bd9	-0.1519617
124	0xbe154a3c	-0.145791
125	0xbdd6e624	-0.104931146
126	0xbe07bed9	-0.13256396
127	0x3e0ec80a	0.13943496
128	0x3d223f85	0.03961136
129	0x3ded99d2	0.116016045
130	0x3d84bed4	0.0648171
131	0xbd4dfb55	-0.050288517
132	0x3db67487	0.089089446
133	0x3dc2b24a	0.09506662
134	0xbd88c7ea	-0.066787556
135	0xbdb46056	-0.08807437
136	0x3caa9bc2	0.020826224
137	0xbe23fa8f	-0.1601355
138	0xbe18d9bc	-0.14926809
139	0x3d5d548f	0.05403572
140	0xbe2a2ecb	-0.16619413
141	0x3d5dc10e	0.05413919
142	0xbdc83896	-0.09776418
143	0xbe0bf26e	-0.13666698
144	0x3cee8ed1	0.029120835
145	0xbd34c1eb	-0.044130247
146	0x3dff832b	0.1247619
147	0x3db0ee2e	0.08639179
148	0x3bbd55c9	0.0057780487
149	0xbde856b8	-0.11344665
150	0xbdc1cfdc	-0.09463474
151	0x3ceee0aa	0.029159863
152	0x3de43eb9	0.11144776
153	0xbd88696c	-0.066607326
154	0x3d9581e3	0.073001646
155	0x3d87ab95	0.066245236
156	0x3c15e461	0.009148688
157	0xbe0bdef3	-0.13659267
158	0xbddc4fef	-0.107574336
159	0x3de40259	0.1113326
160	0xbd5cfa65	-0.053949732
161	0x3cdd1bf7	0.026990874
162	0xbdcd8226	-0.100345895
163	0x3e1489d3	0.14505701
164	0x3cf53bee	0.029935803
165	0x3e2b4120	0.16724062
166	0xbdfca906	-0.12336926
167	0x3c574d28	0.013140954
168	0xbe13de2a	-0.14440218
169	0xbcbbc5b9	-0.02292143
170	0xbc373b6f	-0.011183604
171	0xbe1b5cbd	-0.15172096
172	0x3e2c11fd	0.16803737
173	0xbd476ec9	-0.048689637
174	0x3cac59b3	0.021038866
175	0x3d3bd55a	0.045857765
176	0xbdb69489	-0.089150496
177	0xbd1e62d5	-0.038668472
178	0x3d7b6539	0.06137583
179	0x3d2ca264	0.042147055
180	0x3dd75736	0.10514681
181	0x3de54c89	0.111962385
182	0xbc4b9c98	-0.012427472
183	0x3e151853	0.1456006
184	0x3df31bd4	0.11870542
185	0x3de8b425	0.11362485
186	0xbdefdc22	-0.11711909
187	0xbe28924c	-0.16462058
188	0x3dc2d28b	0.09512814
189	0xbdd091b4	-0.10184041
190	0xbd953cdb	-0.07286998
191	0xbc9d1d17	-0.01917891
192	0xbd89ca6e	-0.067280635
193	0xbc895f96	-0.016769212
194	0x3e2e9acd	0.1705124
195	0x3e10b85b	0.14132826
196	0x3d955c2d	0.07292972
197	0xbe0c29ee	-0.1368787
198	0xbda649d1	-0.08119548
199	0x3e29b4cf	0.16572879
200	0xbdc63e7b	-0.09679886
201	0xbe0483a6	-0.12940845
202	0xbd65e353	-0.056124996
203	0x3e288867	0.16458283
204	0xbd56b6c6	-0.0524204
205	0x3e23e412	0.1600497
206	0x3d4a5168	0.04939404
207	0xbe2add48	-0.16685975
208	0x3e1b303a	0.15155116
209	0x3dc924af	0.0982145
210	0xbd1791a9	-0.037004147
211	0xbe22bccb	-0.15892331
212	0xbcbefeb8	-0.023314819
213	0xbdae6629	-0.08515579
214	0xbc80eeeb	-0.015738925
215	0x3b38c6bd	0.002819463
216	0x3e16b47e	0.1471729
217	0xbcc1dbbf	-0.023664353
218	0xbbb5bdae	-0.005546293
219	0xbd8bce9e	-0.068265185
220	0xbdefb9ce	-0.11705361
221	0x3c3b4acd	0.011431408
222	0x3dc23cba	0.09484239
223	0xbd76da92	-0.06026704
224	0x3dea6e8c	0.114468664
225	0xbe276a5f	-0.16349171
226	0xba0a8e06	-0.00052854454
227	0x3dda5dd4	0.106624275
228	0xbe28cd49	-0.1648456
229	0x3d7c80dc	0.061646327
230	0x3c14170c	0.009038698
231	0x3a11f4bd	0.000556778
232	0xbdede11c	-0.11615202
233	0xbe2cc708	-0.168728
234	0x3d6644e3	0.05621804
235	0xbcae7868	-0.021297649
236	0xbe187d22	-0.14891484
237	0xbdb7fd0e	-0.08983813
238	0xbb900d57	-0.0043961215
239	0x3db99a7f	0.09062671
240	0xbe2a9eb6	-0.16662106
241	0xbe12f619	-0.14351691
242	0x3dfb6280	0.12274647
243	0xbe20204a	-0.15637317
244	0x3d5bf2f9	0.053698514
245	0xbddc38c0	-0.10753012
246	0xbd721961	-0.059106234
247	0x3e104d8a	0.14092079
248	0xbc970707	-0.018435968
249	0xbe0bc758	-0.13650262
250	0x3d988c7d	0.07448671
251	0xbe190be4	-0.14945942
252	0x3dc05df8	0.09392923
253	0x3dc6f8ec	0.09715447
254	0xbdda1b4c	-0.10649738
255	0xbe2879cb	-0.1645271

fc1.bias f4 [256]
0	0xbdd0253b	-0.10163351
1	0xbc8e1e4f	-0.017348437
2	0xbe01d211	-0.1267779
3	0x3e14ea9b	0.1454262
4	0xbd9e5cbb	-0.07732531
5	0x3c41153c	0.011784848
6	0xbd5e3275	-0.05424734
7	0xbd7dde91	-0.061979834
8	0x3e13afb4	0.14422494
9	0xbd9ede65	-0.07757262
10	0xbe13a712	-0.14419201
11	0x3e1ef5a1	0.15523387
12	0xbdb80ed1	-0.08987201
13	0x3dd9b8db	0.106309615
14	0x3e0f6314	0.14002639
15	0x3e1aa7c7	0.15103064
16	0x3e214cb9	0.15751924
17	0xbdc14a64	-0.09438017
18	0x3d878a5d	0.066181876
19	0x3e1c553c	0.1526689
20	0x3de6c1eb	0.11267456
21	0xbcadc755	-0.021213213
22	0xbd323a7e	-0.043512814
23	0x3dd26d66	0.10274772
24	0xbdb726f1	-0.08942974
25	0xbd9b83a3	-0.07593467
26	0xbd15b7fb	-0.03655241
27	0xbda73063	-0.08163526
28	0x3b852c08	0.004064087
29	0x3e04f6da	0.12984791
30	0x3e25209f	0.16125725
31	0xbd91799d	-0.07103274
32	0x3ddbc7a0	0.10731435
33	0xbd9fe668	-0.078076184
34	0x3d1eb6ac	0.03874843
35	0x3e05a37f	0.1305065
36	0x3da4d6e6	0.08048801
37	0x3defd580	0.11710644
38	0xbd826c54	-0.06368318
39	0x3d8493e4	0.064735204
40	0x3e17b8ad	0.14816542
41	0xbdfd3ada	-0.12364741
42	0x3cf0c338	0.029389963
43	0xbcea0ccd	-0.028570557
44	0x3d84796d	0.06468473
45	0xbe2c935a	-0.16853085
46	0xbe046b40	-0.12931538
47	0x3e115c9f	0.14195488
48	0x3dabaa1d	0.08382056
49	0xbc17598f	-0.009237661
50	0xbe0e34ae	-0.13887283
51	0x3e20e5e6	0.157127
52	0x3d4990e1	0.049210433
53	0x3de65228	0.11246139
54	0xbcdf5eb0	-0.02726683
55	0xbd1ad6eb	-0.037802618
56	0xbc45fa1e	-0.012083558
57	0x3da758fd	0.0817127
58	0xbd7fa724	-0.062415257
59	0xbdcd1ed4	-0.100156456
60	0x3d40d398	0.04707679
61	0x3e189bef	0.14903234
62	0xbd4a835b	-0.049441677
63	0x3d863d30	0.06554639
64	0x3e2c9544	0.16853815
65	0x3b6c3efa	0.003604828
66	0x3e05a044	0.13049418
67	0x3ca35b12	0.019940887
68	0x3d936b5b	0.07198211
69	0xbdd5147b	-0.10404297
70	0xbe1ecafc	-0.1550712
71	0xbdeefe89	-0.116696425
72	0xbdf0c063	-0.11755445
73	0xbe0c5acc	-0.13706511
74	0x3d9e2c64	0.077233106
75	0xbe144c10	-0.1448214
76	0x3dc319d0	0.09526408
77	0x3c1ac0f2	0.009445416
78	0x3df3dfbc	0.11907908
79	0x3c83f084	0.016105898
80	0xbdbc9cb2	-0.09209575
81	0x3e1d878b	0.15383737
82	0xbaecf04e	-0.0018076987
83	0x3e162e54	0.1466611
84	0x3e0efba6	0.13963184
85	0xbbc57e4c	-0.0060270187
86	0x3e1d04cb	0.1533386
87	0xbcee92c3	-0.029122716
88	0x3e097a02	0.13425449
89	0xbd5fcf7d	-0.054641236
90	0xbd668daa	-0.056287445
91	0xbd1eec29	-0.03879944
92	0x3e1b0506	0.15138635
93	0x3d874c6f	0.066063754
94	0xbe0ba68c	-0.13637751
95	0xbe203eda	-0.15648976
96	0x3d2f6ead	0.042830158
97	0x3e2c3292	0.16816166
98	0xbca81277	-0.020516617
99	0x3bffb1ec	0.0078031924
100	0x3e11d04e	0.14239618
101	0xbe02a1c3	-0.1275702
102	0xbc225c91	-0.009909765
103	0x3d8fd12a	0.07022317
104	0x3de40875	0.111344256
105	0xbda1d1cb	-0.07901343
106	0xbe2e825f	-0.1704192
107	0xbdb6dbbd	-0.089286305
108	0x3d1c50d6	0.03816303
109	0xbcde4396	-0.027131837
110	0x3e1d594c	0.15366095
111	0x3e024d6f	0.12724851
112	0xbe2bbc5a	-0.16771069
113	0x3dcb68e8	0.09932119
114	0xbce62844	-0.028095372
115	0xbdcc2941	-0.09968806
116	0xbd56362c	-0.052297756
117	0x3e03982f	0.12851022
118	0x3e148e6c	0.14507455
119	0xbdb0a8a0	-0.08625913
120	0xbe1ff1ef	-0.15619634
121	0xbd86ac0a	-0.065757826
122	0x3dd8c792	0.1058494
123	0x3db5882c	0.08863863
124	0x3de3a727	0.11115866
125	0x3cf0c176	0.029389124
126	0x3e20bde0	0.15697432
127	0xbd42c319	-0.04754934
128	0x3d552e7e	0.05204629
129	0xbd9c012d	-0.07617412
130	0x3db13b94	0.08653942
131	0xbc0424de	-0.00806543
132	0x3dcca74e	0.09992848
133	0x3d6a6ae4	0.057230845
134	0x3d5b2054	0.053497627
135	0x3e0e85f5	0.13918288
136	0xbcfa6e49	-0.030570166
137	0x3d97c0ff	0.07409858
138	0xbdae5111	-0.08511556
139	0xbd37d8ad	-0.044884373
140	0xbd8c5536	-0.0685219
141	0xbd8ea563	-0.06965139
142	0xbd8f4bd6	-0.069968864
143	0xbdabfb83	-0.083975814
144	0x3d4d50a6	0.05012574
145	0xbcd7f754	-0.026363052
146	0x3e23e6dd	0.16006036
147	0x3db50841	0.08839465
148	0xbc910cbf	-0.017706273
149	0xbd2ebe29	-0.04266182
150	0x3dbab448	0.09116417
151	0x3e1265b1	0.14296605
152	0xbd9c4f01	-0.07632256
153	0x3db561c1	0.08856536
154	0x3e16dfb6	0.14733776
155	0x3cd29a39	0.025708305
156	0x3d5741e2	0.052553065
157	0xbd3c7dad	-0.04601829
158	0xbe1314f7	-0.14363466
159	0xbdd0ace3	-0.101892255
160	0x3e2d3226	0.16913661
161	0xbd60655c	-0.054784164
162	0x3dcf4834	0.101211935
163	0xbd8e2d30	-0.069422126
164	0x3a3aa222	0.00071194966
165	0xbd9a9915	-0.07548729
166	0xbdbe1e3f	-0.09283113
167	0x3cc264fd	0.023729796
168	0xbd9b5469	-0.07584459
169	0x3d135dbe	0.03597807
170	0xbe1ccf63	-0.15313487
171	0x3d9e9fd7	0.07745331
172	0xbd4f6c3a	-0.050640322
173	0xbddfdd8b	-0.10930928
174	0xbd35b917	-0.04436597
175	0x3c3e83b6	0.011628082
176	0xbe114473	-0.14186268
177	0xbe26941f	-0.16267441
178	0x3e2d1d21	0.16905643
179	0xbd88b55d	-0.06675217
180	0xbd5924d8	-0.053013653
181	0x3df9503a	0.12173505
182	0x3e20882c	0.15676945
183	0xbcdef36a	-0.027215678
184	0xbcbf6e1b	-0.023367932
185	0xbdd475ca	-0.10374029
186	0x3e2b43cd	0.16725083
187	0xbd44c93d	-0.04804348
188	0xbe26e40e	-0.16297933
189	0xbcef2af7	-0.029195292
190	0x3cce195e	0.02515858
191	0x3c929859	0.01789491
192	0xbdf058a7	-0.11735659
193	0x3e03f911	0.1288798
194	0x3e0729f9	0.13199605
195	0x3dfa1b71	0.12212265
196	0x3da613c9	0.081092425
197	0xbe2426a3	-0.16030364
198	0xbdc0a51c	-0.09406492
199	0x3dfeeaee	0.12447153
200	0x3dbc6bcf	0.0920025
201	0x3d22840e	0.03967672
202	0xbcd6d456	-0.026224297
203	0x3dd91b0c	0.10600862
204	0xbca010d8	-0.019539282
205	0x3b98bf90	0.004661508
206	0xbde2978a	-0.1106406
207	0x3d87e6c2	0.066358104
208	0xbdbaf21b	-0.09128209
209	0x3e245fe5	0.16052206
210	0xbe167f12	-0.14696911
211	0x3df00b80	0.117209435
212	0xbd573959	-0.052544925
213	0x3e1fad38	0.15593421
214	0xbb26e519	-0.0025466143
215	0xbdf3bbb8	-0.11901039
216	0xbd6658de	-0.056237094
217	0x3d2ef6c2	0.042715795
218	0xbdcfa942	-0.10139705
219	0xbd280252	-0.041017838
220	0x3dd939cc	0.10606727
221	0x3d44706c	0.047958776
222	0xbdb39b85	-0.08769897
223	0xbde806ff	-0.113294594
224	0x3df41653	0.119183205
225	0x3da3e761	0.080031164
226	0x3cb3770e	0.021907356
227	0xbd883f30	-0.06652677
228	0xbde49ee4	-0.111631185
229	0xbdb17e98	-0.08666724
230	0xbb36cb1a	-0.0027892054
231	0x3e0d085d	0.13772722
232	0xbde975a3	-0.113993905
233	0x3dfd4832	0.12367286
234	0xbcdd8238	-0.027039632
235	0x3e270bf3	0.16313152
236	0xbe24061c	-0.16017956
237	0x3e0cc44d	0.13746758
238	0x3e16a83e	0.14712617
239	0x3bd8ab71	0.0066122343
240	0xbdbb088d	-0.0913249
241	0xbe181c10	-0.14854455
242	0xbd6c1552	-0.05763752
243	0x3e07dd34	0.13267976
244	0x3d6ffc6e	0.058590345
245	0x3dfd7852	0.12376465
246	0x3b29caa9	0.0025908148
247	0xbdbb6b16	-0.091512844
248	0xbb826299	-0.003979039
249	0x3ce4b4d8	0.027918264
250	0xbdbb8f74	-0.09158221
251	0xbe17fab8	-0.14841735
252	0x3d1f06df	0.038824912
253	0x3deef889	0.11668498
254	0x3d81464c	0.06312236
255	0xbe1655cc	-0.14681166

fc2.weight f4 [256, 256]
0	0x3c808cb0	0.015692085
1	0xbd08f0b4	-0.033432677
2	0x3d0f3aac	0.034968063
3	0x3d503f4c	0.050841615
4	0x39b48600	0.00034432113
5	0xbd2733de	-0.04082095
6	0xbd1822fe	-0.037142746
7	0xbd1125a0	-0.035436273
8	0x3cda378c	0.026637815
9	0xbccce400	-0.025011063
10	0xbd252706	-0.04032042
11	0xbceafec4	-0.028685935
12	0xbcde2df0	-0.027121514
13	0xbb64b1c0	-0.0034895986
14	0xbba6bce0	-0.0050884336
15	0x3d7ed5ba	0.062215544
16	0xbd629ce6	-0.05532541
17	0x3d56e052	0.052460022
18	0x3c5384c0	0.012910068
19	0x3d26cdac	0.040723488
20	0xbaf3ff80	-0.0018615574
21	0xbd42918e	-0.047502093
22	0xbd4e3c46	-0.05035045
23	0xbd7e5be8	-0.062099367
24	0x3d25c758	0.040473312
25	0xbc7d5ab0	-0.015463516
26	0xbd5327f4	-0.051551774
27	0x3d691990	0.056909144
28	0xbd011e3c	-0.031522974
29	0xbcf9a514	-0.030474223
30	0xbcb7b5e4	-0.0224256
31	0xbbf37c90	-0.0074306205
32	0x3b078860	0.002068065
33	0xbd54a648	-0.05191639
34	0xbc25a9c8	-0.01011128
35	0x3ca5ffe4	0.02026362
36	0x3d03c646	0.03217151
37	0x3c667710	0.014066473
38	0xbc678bd0	-0.014132455
39	0x3d5ae928	0.05344501
40	0xbd0b3804	-0.033988968
41	0x3cb34ffc	0.021888725
42	0x3cbb2a04	0.022847183
43	0x3c98cfc8	0.018653765
44	0x3d40178c	0.046897456
45	0xbc2173c0	-0.009854257
46	0xbc851e08	-0.016249672
47	0x3d479ddc	0.04873453
48	0x3d067238	0.03282377
49	0xbd6df106	-0.058091186
50	0x3b16f180	0.0023032129
51	0x3b5adbc0	0.0033395141
52	0xbc9865bc	-0.018603198
53	0x3d76cfe8	0.06025687
54	0x3cabe6ac	0.020984016
55	0xbd50c24e	-0.050966553
56	0xbd641fd8	-0.05569443
57	0x3d464306	0.048403762
58	0xbd286b6c	-0.04111807
59	0xbd49b1e6	-0.049241923
60	0x3c1bee20	0.009517223
61	0x3c894720	0.016757548
62	0xbb894490	-0.0041890815
63	0xbd0f4cdc	-0.03498541
64	0x3d10c1ca	0.03534106
65	0x3cca4770	0.024692267
66	0xbccd1040	-0.025032163
67	0x3d3614aa	0.0444533
68	0xbced1974	-0.028942801
69	0xbd38ab2a	-0.04508511
70	0x3ba795f0	0.0051143095
71	0x3d4d0a0e	0.050058417
72	0xbd648a48	-0.055795938
73	0x3b8aefe0	0.004240021
74	0xbd1be95e	-0.038064353
75	0x3cd01ff0	0.025405854
76	0x3cf15254	0.029458202
77	0xbc2a0db8	-0.010379247
78	0x3d263262	0.040575393
79	0x3c836478	0.016039118
80	0x3d75d706	0.060019515
81	0xbccc15b8	-0.0249127
82	0xbd76e41e	-0.060276143
83	0x3d1ceda0	0.038312554
84	0xbd39d486	-0.045368694
85	0xbb68ddc0	-0.0035532564
86	0xbc8aae50	-0.016928822
87	0x3d66e0d0	0.05636674
88	0xbc7eda20	-0.015554935
89	0xbc130660	-0.008973688
90	0x37c66000	2.3648143e-05
91	0x3d673d46	0.05645492
92	0x3c50f458	0.012753569
93	0xbc9a5440	-0.018839002
94	0x3d004984	0.03132011
95	0xbce63a7c	-0.02810406
96	0x3d135470	0.035969198
97	0x3c41b218	0.011822246
98	0xbb40e620	-0.002943404
99	0xbd0ef3ea	-0.034900583
100	0xbd742344	-0.059603944
101	0x3b552780	0.0032524765
102	0xbb2fe740	-0.0026840717
103	0x3cb968fc	0.022633068
104	0x3c8f377c	0.017482512
105	0xbd18220a	-0.037141837
106	0x3d237fe4	0.039916888
107	0x3d7efeae	0.0622546
108	0xbd632a3c	-0.0554602
109	0xbc56f990	-0.013121024
110	0x3d647840	0.05577874
111	0xbb65fc20	-0.0035092905
112	0xbcd22c10	-0.025655776
113	0xbd6d67ac	-0.057960197
114	0x3d306f94	0.04307516
115	0x3c91bfe8	0.017791703
116	0xbd5d512a	-0.054032482
117	0x3c2fafd8	0.010723077
118	0xbcf75ad0	-0.03019467
119	0xbd6a9118	-0.05726728
120	0x3d6cae08	0.057783157
121	0x3a5f3580	0.0008514747
122	0xbd46b2c0	-0.048510313
123	0x3d3154f6	0.043293916
124	0x3d5053e2	0.050861247
125	0x3d345ef0	0.044035852
126	0xbcbd7204	-0.023125656
127	0x3d39368a	0.045218028
128	0x3cb40ee0	0.02197975
129	0xbd1e934c	-0.038714692
130	0x3d5748b2	0.052559562
131	0xbd02f0c0	-0.03196788
132	0xbd50b688	-0.050955325
133	0x3d738c4c	0.05945997
134	0xbb9897a0	-0.004656747
135	0x3c9901f4	0.01867769
136	0x3d10caa0	0.03534949
137	0x3d0c3b9a	0.034236528
138	0xbd30818e	-0.043092303
139	0x3cea652c	0.028612696
140	0x3d3c8a10	0.046030104
141	0x3cc20aec	0.023686849
142	0xbd265b80	-0.040614605
143	0x3d726cf8	0.059185952
144	0xba5da600	-0.0008455217
145	0xbd18d434	-0.037311748
146	0xbbaeebb0	-0.0053381547
147	0xbcad6208	-0.021164909
148	0xbb9e8670	-0.0048378035
149	0x3d3a86a4	0.04553856
150	0xbd2f5e10	-0.042814314
151	0x3d312cee	0.04325574
152	0x3cf9c4b0	0.030489296
153	0x3cb61c98	0.022230431
154	0x3d75bd0e	0.05999475
155	0xbb94e110	-0.004543431
156	0xbc9811f8	-0.018563256
157	0x3d7e6990	0.06211239
158	0xbc4c74d0	-0.012479022
159	0x3c140c80	0.009036183
160	0xbce4b948	-0.02792038
161	0x3c87c47c	0.016573183
162	0xba6baf80	-0.000899069
163	0x3ce42428	0.027849272
164	0x3d75ad44	0.059979692
165	0x3c614da8	0.013751425
166	0xbb52b380	-0.0032150447
167	0xbd4d29e0	-0.050088763
168	0x3d283dca	0.04107455
169	0xbd1caafa	-0.038248993
170	0xbb35b620	-0.0027726963
171	0x3d70f4d8	0.05882725
172	0xbc7b3238	-0.015331797
173	0xbd4eefb8	-0.050521582
174	0xbcebbd0c	-0.028776668
175	0x3d184b8e	0.03718143
176	0xbc474560	-0.012162536
177	0xbd03b4d6	-0.03215488
178	0xbca376f4	-0.019954182
179	0xbb630f00	-0.0034646392
180	0xb9fb8d00	-0.00047979504
181	0x3d69ddfe	0.057096474
182	0x3d745200	0.059648514
183	0x3b9fb910	0.004874356
184	0x3b8b2920	0.004246846
185	0xbb5d7080	-0.003378898
186	0x3d2567a4	0.040382043
187	0xbd5c2b4e	-0.053752236
188	0xbc2a3678	-0.010388963
189	0x3cb6e610	0.0223265
190	0xbcc9f7e8	-0.024654344
191	0x3c95eedc	0.018302374
192	0xbbcf0420	-0.0063176304
193	0x3d40d9da	0.04708276
194	0x3c1ce630	0.009576365
195	0xbd09f4f8	-0.033680886
196	0xbd0d7f42	-0.03454519
197	0xbc14c218	-0.009079479
198	0xbb7e4c60	-0.0038802847
199	0xbceb3890	-0.028713495
200	0xbca635ac	-0.020289265
201	0x3d3c4cde	0.045971744
202	0x3cb4ba78	0.022061571
203	0xbc2b44c0	-0.010453403
204	0xbd42176e	-0.047385626
205	0xbc780038	-0.015136771
206	0xbd6de9fc	-0.058084473
207	0x3d4c94b6	0.04994651
208	0x3948ea00	0.00019160658
209	0x3c7480b0	0.01492326
210	0x3d5a0b12	0.053233214
211	0x3d11291e	0.035439603
212	0x3ba9ec70	0.0051856562
213	0x3d499dbc	0.049222693
214	0x3d5bb722	0.053641446
215	0xbbdd1690	-0.0067470744
216	0x3cfe0714	0.031009234
217	0xbd09edd6	-0.033674084
218	0xbcada268	-0.021195605
219	0xbd217a3e	-0.03942322
220	0xbbc9d4c0	-0.006159395
221	0x3d0d5516	0.034504972
222	0xbd357a70	-0.04430622
223	0xbc835218	-0.016030356
224	0xba563400	-0.0008171201
225	0xbd38ca58	-0.045114845
226	0xbd6411a2	-0.05568088
227	0xbd0bce4a	-0.03413228
228	0x3d4b366c	0.049612448
229	0x3cbd6ffc	0.023124687
230	0x3d174634	0.036932185
231	0xbd59ecd4	-0.053204373
232	0x3cb0f5b4	0.021601535
233	0x3c928074	0.017883517
234	0x3c44f028	0.012020148
235	0x3b355b80	0.0027672946
236	0x3d14c5bc	0.036321387
237	0x3d39d53a	0.045369364
238	0x3c768a10	0.015047565
239	0x3d777080	0.060410023
240	0xbd4a9710	-0.04946047
241	0xbd44c96e	-0.04804366
242	0xbd2bd65a	-0.04195247
243	0x3ba3e8e0	0.005002126
244	0xbc3d8f00	-0.011569738
245	0x3c517958	0.012785278
246	0xbd6cec16	-0.057842337
247	0x3c0ac770	0.008470401
248	0x3bd21d10	0.006412156
249	0xbd550a10	-0.05201155
250	0xbd29c772	-0.04144997
251	0xbd5e0096	-0.054199778
252	0x3cab9c1c	0.020948462
253	0xbc3c20b8	-0.01148241
254	0xbbb0f820	-0.0054006726
255	0xbd1d737c	-0.038440213

fc2.bias f4 [256]
0	0xbd592228	-0.05301109
1	0x38662000	5.4866076e-05
2	0xbc8c3160	-0.017113388
3	0x3d5983a4	0.053104058
4	0x3d14a300	0.03628826
5	0xbd7a71ce	-0.06114369
6	0xbd118fc0	-0.03553748
7	0xbcca4fd8	-0.024696276
8	0xbd59cbfa	-0.053173043
9	0x3d45d5ee	0.048299722
10	0x3d63bd4e	0.055600457
11	0xbd718658	-0.05896601
12	0xbcf4c188	-0.02987744
13	0x3bc6ef20	0.0060709864
14	0xbb6c3f20	-0.0036048368
15	0x3c902574	0.017595984
16	0xbd648610	-0.055791914
17	0xbcf6b228	-0.030114248
18	0x3d621ea4	0.055205002
19	0x3c869580	0.016428709
20	0x3d3e3510	0.046437323
21	0xbc225140	-0.009907067
22	0x3c407ec0	0.01174897
23	0xbd70fd74	-0.05883546
24	0x3b7d3d80	0.0038641393
25	0xbd4936ea	-0.049124636
26	0x3d636cb4	0.05552359
27	0x3b05eb60	0.0020434484
28	0x3d5b9a16	0.053613745
29	0xbafb8d00	-0.0019191802
30	0x3cde8b30	0.02716598
31	0x3cb4e680	0.022082567
32	0x3bab2940	0.0052234232
33	0x3d17bdca	0.03704623
34	0xbcbafe40	-0.022826314
35	0x3d3f57e8	0.046714693
36	0xbd74933e	-0.059710734
37	0x3c9cdd60	0.019148529
38	0x3cbed088	0.023292795
39	0x3c218a78	0.009859674
40	0xbbffd8c0	-0.007807821
41	0xba111300	-0.0005534142
42	0xbd5a1e8c	-0.053251788
43	0xbcf6c82c	-0.030124746
44	0x3c8122f4	0.015763737
45	0x3bb2df90	0.0054587796
46	0xbcab7348	-0.020928994
47	0xbc396188	-0.011314757
48	0xbc625128	-0.0138132945
49	0xbcf7f360	-0.030267417
50	0x3ccd269c	0.025042824
51	0xbd06e05a	-0.032928802
52	0x3d340558	0.04395041
53	0xba0a9d00	-0.0005287677
54	0xbcbe3e38	-0.023223028
55	0x3c9b8138	0.018982515
56	0xbd42cab8	-0.04755661
57	0x3d2ec68a	0.04266981
58	0xbd3af3ae	-0.045642547
59	0xbcff5178	-0.031166777
60	0x3d12684c	0.035743997
61	0x3d3e35e4	0.046438113
62	0xbccf635c	-0.025315933
63	0x3cf2bd08	0.029631153
64	0x3c2ea748	0.01066
65	0xbc6aa6c0	-0.014321983
66	0x3c93f0d0	0.018059164
67	0xbd1dcf1c	-0.038527593
68	0x3bea0ef0	0.007142894
69	0xbd65db1a	-0.056117155
70	0x3cfd6894	0.030933656
71	0xbca7a3d0	-0.020463854
72	0xbc8ad9a0	-0.016949475
73	0x3d43ecfc	0.047833428
74	0x3d635b1a	0.055506803
75	0x3c0f81e8	0.008758999
76	0x3c8d8334	0.017274477
77	0xbb94f540	-0.0045458376
78	0xbccb1228	-0.024788931
79	0xbd4e520c	-0.050371215
80	0x3cea3dd4	0.028593935
81	0x3d2e58ec	0.04256527
82	0xbd4340a2	-0.04766906
83	0x3d32c27c	0.043642506
84	0x3bf51990	0.007479854
85	0xbb8029e0	-0.003911242
86	0x3c8bb5dc	0.01705449
87	0x3c9bd84c	0.019024037
88	0x3d127c12	0.035762854
89	0xbd43803e	-0.047729723
90	0x3d2643b4	0.04059191
91	0x3d7dab7e	0.061931126
92	0x3cb7c838	0.022434339
93	0xbc969d78	-0.018385634
94	0x3c06bb10	0.00822331
95	0xbd15525e	-0.036455505
96	0xbc468c60	-0.012118429
97	0x3c182840	0.00928694
98	0xbce56ab0	-0.028004974
99	0x3c4e54f8	0.0125935
100	0xbd32329a	-0.04350529
101	0x3aa9df80	0.0012960285
102	0xbc60ca28	-0.013720073
103	0xbad8f6c0	-0.001655303
104	0xbd1e1b38	-0.038600177
105	0x3d6754a6	0.05647721
106	0x3d66e6b4	0.05637236
107	0x3cf8a570	0.030352324
108	0x3c539de0	0.012916058
109	0xbb539820	-0.0032286718
110	0xbd607b80	-0.05480528
111	0xbd7d6ca0	-0.06187117
112	0xbd250950	-0.040292084
113	0x3d043cc8	0.032284528
114	0xbc1b4890	-0.0094777495
115	0x3d54ad90	0.051923335
116	0x3d790fca	0.060806073
117	0x3cab2dd4	0.020895876
118	0x3cb9ee48	0.02269663
119	0xbd45bf92	-0.0482784
120	0x3cd93d64	0.026518531
121	0xbb3254e0	-0.0027211234
122	0xbd515e34	-0.05111523
123	0x3b2896c0	0.002572462
124	0x3cbafae8	0.02282472
125	0x3c29b550	0.01035817
126	0x3ca22254	0.01979176
127	0x3c7ac4d8	0.01530572
128	0x3b4b08a0	0.0030980483
129	0xbca697fc	-0.020336144
130	0x3cba56a4	0.022746392
131	0xbd0eef86	-0.034896396
132	0xbccb3604	-0.02480603
133	0xbd34fe4a	-0.04418782
134	0x3b427460	0.0029671416
135	0x3d1655aa	0.03670279
136	0x3aac0f80	0.0013127178
137	0xbd60d64a	-0.054891862
138	0x3d13893a	0.03601954
139	0x3c02ab88	0.007975467
140	0xbd41d85e	-0.047325484
141	0xbc1f9190	-0.009739295
142	0xbd0d7edc	-0.03454481
143	0xbc8d80f4	-0.017273404
144	0xbd455b54	-0.0481828
145	0xbd36868e	-0.044561915
146	0x3d34face	0.0441845
147	0xbd7c123c	-0.061540827
148	0x3d5b2b76	0.053508244
149	0xbc6d0f50	-0.014468983
150	0xbca48578	-0.020083174
151	0xbbe9e2d0	-0.007137634
152	0xbd010afe	-0.031504624
153	0x3d635578	0.05550143
154	0xbd69ed78	-0.057111233
155	0x3d0fa80a	0.035072364
156	0xbd229da0	-0.039701104
157	0xbc07de28	-0.008292712
158	0xbd5b7e98	-0.053587526
159	0xbd26f436	-0.04076024
160	0x3cb8b4f8	0.02254723
161	0xbcbe32f8	-0.023217663
162	0xbb8285d0	-0.003983237
163	0x3c825cb8	0.015913352
164	0x3cf2c7a4	0.029636212
165	0xbcac2c2c	-0.021017157
166	0x3c7185a8	0.014741339
167	0x3c920490	0.017824441
168	0x3c812354	0.015763916
169	0x3adb9680	0.0016753227
170	0xbc59b8e8	-0.013288714
171	0xbb86bfe0	-0.0041122288
172	0x3cfa066c	0.03052064
173	0x3d461122	0.048356183
174	0xbc49c3e0	-0.012314767
175	0xbc9a2368	-0.018815711
176	0xbb8c4350	-0.004280485
177	0x3cf27028	0.029594496
178	0x3ba50bb0	0.0050367936
179	0x3d10f074	0.035385564
180	0x3d2bce24	0.041944638
181	0xbb1127e0	-0.0022149011
182	0x3d0a7e9a	0.033812143
183	0x3c89e5e4	0.016833253
184	0x3b2a6840	0.002600208
185	0x3d589df0	0.052884996
186	0xbd4f30ca	-0.05058364
187	0xbd615692	-0.0550142
188	0xbc9acbf0	-0.018896073
189	0x3d099fd2	0.033599682
190	0xbd41bf44	-0.047301546
191	0xbd772010	-0.06033331
192	0xbca59690	-0.020213395
193	0x3d29853c	0.041386828
194	0xbd3c2fc6	-0.045943998
195	0xbd0af66c	-0.033926412
196	0xbcacbe94	-0.021086968
197	0xbd5dd934	-0.05416222
198	0xbd5a6662	-0.053320296
199	0x3c8cfb5c	0.017209701
200	0x3ce2d834	0.027690984
201	0xbc81c244	-0.015839703
202	0x3ce98254	0.028504528
203	0x3c9bfff4	0.019042946
204	0x3d7f2ba8	0.062297493
205	0xbc58e3f8	-0.013237946
206	0x3c731b10	0.014837995
207	0x3d249686	0.040182613
208	0xbd5b2a14	-0.053506926
209	0xbcaee67c	-0.021350138
210	0xbcb15914	-0.021648921
211	0xbb8d1500	-0.004305482
212	0x3ab55140	0.0013833418
213	0xbd2d9696	-0.042379938
214	0x3ce9a374	0.028520323
215	0x3d77c470	0.06049007
216	0xbcf330fc	-0.029686444
217	0x3d1fd8b2	0.039025016
218	0xbd0ab5ba	-0.033864714
219	0x3cba39bc	0.022732608
220	0xbd2c3374	-0.042041257
221	0xbc24a470	-0.010048971
222	0x3cdb4034	0.026764013
223	0xbd7b8434	-0.061405376
224	0x3cb64edc	0.0222544
225	0x3c80561c	0.01566606
226	0x3cca45d0	0.024691492
227	0x3c03a070	0.008033857
228	0x3d126758	0.035743088
229	0xbc54a328	-0.012978353
230	0xbcaad138	-0.020851716
231	0x3d3067a8	0.043067604
232	0xbd4d05f8	-0.05005452
233	0xbd7e29b0	-0.062051475
234	0x3c0386e0	0.008027762
235	0x3d36dada	0.044642307
236	0xbd68b7de	-0.056815974
237	0x3a3c0280	0.00071720034
238	0x3c6fba40	0.014631808
239	0xbd2c5216	-0.04207047
240	0x3d5dd050	0.05415374
241	0x3be19990	0.006884761
242	0xbc053038	-0.008129172
243	0xbc8df8a4	-0.017330475
244	0x3d0d4462	0.034489043
245	0x3d62d3e6	0.055377863
246	0xbd54f15e	-0.051988
247	0xbcfeaee8	-0.031089261
248	0xbcb15e74	-0.021651484
249	0xbd1fdc18	-0.039028257
250	0xbb6c2b80	-0.003603667
251	0xbd541dda	-0.05178628
252	0x3a4b9980	0.0007766709
253	0x3d623c06	0.055233024
254	0xbd743802	-0.059623726
255	0x3d767822	0.06017316

fc3.weight f4 [256, 256]
0	0xbd2ea8bc	-0.042641386
1	0xbceef02c	-0.029167257
2	0x3b44fee0	0.0030059144
3	0x3cb23414	0.021753348
4	0x3d055d8a	0.03255991
5	0x3d7a3424	0.06108488
6	0xbd1bf408	-0.038074523
7	0xbd5df316	-0.054186903
8	0x3bcdb100	0.0062772036
9	0x3d0d0612	0.034429617
10	0x3d6dcb36	0.058055125
11	0xbd7ec3c4	-0.062198415
12	0x3b888270	0.00416594
13	0x3d0cb1e2	0.03434933
14	0x3ba74ca0	0.00510557
15	0x3c5bef68	0.013423778
16	0xbb892ef0	-0.0041865036
17	0x3d387de0	0.04504192
18	0x3d70572e	0.05867689
19	0xba8ffac0	-0.0010984764
20	0x3d38ddca	0.04513339
21	0x3bd19ca0	0.006396845
22	0x3ceb8148	0.02874817
23	0xbd0a0566	-0.033696555
24	0xbc3d4ed0	-0.011554435
25	0x3d12de5a	0.035856582
26	0x3c8f5f30	0.017501444
27	0x3bbfdb40	0.005854994
28	0x3bf3aaf0	0.007436149
29	0xbcd7aaf4	-0.026326634
30	0xbd760248	-0.06006077
31	0x3c63d860	0.013906568
32	0x3c053780	0.008130908
33	0x3bd64b50	0.0065397397
34	0xbca2211c	-0.019791178
35	0x3d4b1170	0.049577177
36	0xbcc55d8c	-0.024092458
37	0x3c39d600	0.0113425255
38	0xbd626044	-0.055267587
39	0xbc459060	-0.012058347
40	0xbc3bda30	-0.011465594
41	0xbc8ed360	-0.017434776
42	0xbd13ec2c	-0.036113903
43	0xbb00faa0	-0.0019680634
44	0xbcd8f9b4	-0.026486255
45	0xbd7789dc	-0.060434207
46	0x3d3e1dca	0.046415128
47	0x3d527a92	0.051386423
48	0xbd641c92	-0.05569131
49	0xbc80b6ac	-0.015712105
50	0x3d15c222	0.036562093
51	0x3d1a5e02	0.03768731
52	0x3cbc0f3c	0.022956483
53	0x3d2c5cb8	0.04208061
54	0xbb882cd0	-0.0041557327
55	0xbd583c8e	-0.052792124
56	0x3d57e9d6	0.052713238
57	0xbd24213e	-0.040070765
58	0x3c94ee84	0.01818014
59	0x3a4c2880	0.00077880174
60	0xbd4634e0	-0.04839027
61	0x3cc5f694	0.02416543
62	0xbd65d3a2	-0.056110032
63	0xbd040b18	-0.032237142
64	0x3cbff788	0.023433462
65	0xbcf97d48	-0.030455247
66	0xbd2a1cba	-0.041531302
67	0xbcaf3fe0	-0.021392763
68	0x3d18d624	0.037313595
69	0x3c5af998	0.013365172
70	0xbd3ce8f0	-0.046120584
71	0x3d7a0294	0.061037615
72	0xbd551104	-0.05201818
73	0xbd1d40a6	-0.03839173
74	0x3d01e1ac	0.031709358
75	0x3c1ab890	0.009443417
76	0x3d461eda	0.048369266
77	0xbd27f554	-0.041005448
78	0xbc736348	-0.014855213
79	0xbcc50e34	-0.024054624
80	0xbd144ffe	-0.0362091
81	0x3b908f60	0.004411623
82	0x3b0c2780	0.0021385849
83	0xbd29fa30	-0.041498363
84	0xbc54fea8	-0.013000168
85	0xbc1c8a08	-0.009554394
86	0x3d0dc99c	0.034616098
87	0x3d42bc84	0.047543064
88	0x3cc55e6c	0.024092875
89	0xbd73d768	-0.0595316
90	0xbd16e37c	-0.03683804
91	0x3c2b2878	0.01044666
92	0x39c00300	0.0003662333
93	0x3bcf2b10	0.006322272
94	0x3d3f8ac6	0.046763204
95	0xbb0efe20	-0.002181895
96	0xbd527e9c	-0.051390275
97	0xbd0f0da4	-0.034925118
98	0x3d1e5dd6	0.038663708
99	0x3d7fd7f8	0.062461823
100	0x3d4de45a	0.0502666
101	0xbce070cc	-0.027397536
102	0x3d189e9c	0.037260637
103	0x3ce8f08c	0.028435014
104	0xbc641598	-0.013921164
105	0x3cf91e9c	0.030410103
106	0xbd3c17aa	-0.045921005
107	0xbcd8e524	-0.02647645
108	0x3c0c6138	0.008568101
109	0xbc75f4d0	-0.015011981
110	0x3cc16808	0.023609176
111	0x3cab70e4	0.020927854
112	0x3d3479da	0.04406152
113	0xbbeba0b0	-0.0071907863
114	0xbc4e3890	-0.012586728
115	0x3d02eedc	0.031966075
116	0xbc90b690	-0.017665178
117	0x3af63bc0	0.0018786117
118	0xbb8f0590	-0.004364677
119	0x3cfe1614	0.031016387
120	0x3b8fd0f0	0.004388921
121	0x3d25748e	0.04039436
122	0x3b756320	0.0037443116
123	0x3d1b9be4	0.037990466
124	0x3c0b9340	0.008518994
125	0x3d67ad18	0.05656156
126	0xbd52726a	-0.051378645
127	0xbc79b0c8	-0.015239902
128	0xba440880	-0.0007478073
129	0xbd350bc2	-0.044200666
130	0xbca325e0	-0.019915521
131	0x3d6d2c56	0.05790361
132	0xbd5e0e8c	-0.05421309
133	0x3d053af8	0.03252694
134	0xbce5afc0	-0.028037906
135	0x3d3be2fa	0.04587076
136	0x3d5c3dc6	0.05376985
137	0x3d13016e	0.035890035
138	0xbd785314	-0.060626104
139	0x3c397a48	0.011320658
140	0xbd29157e	-0.041280262
141	0xbbc47040	-0.0059948266
142	0xbc062590	-0.008187667
143	0xbcc81a14	-0.024426498
144	0x3bf5b890	0.007498808
145	0x3b9f8870	0.0048685595
146	0x3c057768	0.008146144
147	0xbc922e64	-0.017844386
148	0x3d110ab0	0.035410583
149	0x3d64aaf8	0.05582711
150	0xbc2ff318	-0.01073911
151	0xbd4bcbb0	-0.0497548
152	0x3c63c268	0.0139013305
153	0x3d6fe3ce	0.05856686
154	0xbd0460a4	-0.032318726
155	0x3d7e4836	0.062080584
156	0xbcc0564c	-0.02347865
157	0xbb25eb80	-0.002531737
158	0xbc627eb8	-0.013824157
159	0x3c209678	0.0098015
160	0x3d0e24e0	0.034703135
161	0x3c831e44	0.016005643
162	0x3c388000	0.011260986
163	0x3c35d0b8	0.011097126
164	0xbd17632c	-0.036959812
165	0x3c422e10	0.0118518025
166	0x3c80dc54	0.01573006
167	0x3d42cb26	0.04755702
168	0xbd4a17d0	-0.049339116
169	0x3c2b6798	0.01046171
170	0xbcc3085c	-0.023807697
171	0xbc82025c	-0.015870266
172	0x3c8b6f40	0.017020822
173	0x3bebdb60	0.0071977824
174	0xbd51954a	-0.051167764
175	0x3cc48558	0.023989365
176	0x3d73679e	0.05942499
177	0xbcb60130	-0.022217363
178	0x3c99aae8	0.018758252
179	0xbd232ef0	-0.039839685
180	0xba6a1c00	-0.0008930564
181	0x3be4ae50	0.0069787875
182	0xbc879598	-0.016550824
183	0x3d29b990	0.04143673
184	0xbd7b7398	-0.061389536
185	0x3cfd87c8	0.030948535
186	0xbc907b50	-0.017636925
187	0x3c1d3318	0.009594701
188	0x3a0c6300	0.00053553283
189	0x3bd61ba0	0.006534055
190	0xbd1432fa	-0.036181428
191	0x3d7942c4	0.06085469
192	0x3d165820	0.036705136
193	0x3d6563f8	0.05600354
194	0xbd3c70a4	-0.04600586
195	0xbd04e6be	-0.032446615
196	0xbbf04330	-0.007332228
197	0x3d75f7e4	0.06005086
198	0xbd086abe	-0.033304922
199	0x3d0593d4	0.032611683
200	0x3ce49b04	0.027905948
201	0xbcf2d578	-0.029642805
202	0x3cfb2698	0.030658051
203	0xbd1dac94	-0.03849466
204	0x3d09388e	0.0335012
205	0xbc81afc4	-0.015830882
206	0xba204500	-0.00061137974
207	0x3c9e8ea8	0.019355133
208	0x3d6db2f6	0.058032
209	0xbcd162d4	-0.02555982
210	0xbcb18788	-0.021671072
211	0x3d5b4c1e	0.053539388
212	0x3d7a9070	0.061172903
213	0xbd1a3bf6	-0.03765484
214	0xba92cb80	-0.0011199564
215	0xbcdd3898	-0.027004525
216	0xbcdf7d7c	-0.027281515
217	0xbd0a0eb2	-0.03370542
218	0x3d5f84de	0.05457007
219	0xbc9e9e28	-0.019362524
220	0xbd0ea914	-0.034829214
221	0xbc92d080	-0.017921686
222	0xbd3c4a9e	-0.045969598
223	0x39963200	0.00028647482
224	0x3cbc2f90	0.022971898
225	0xbd2011c0	-0.039079428
226	0xbc413e30	-0.011794612
227	0x3d142a40	0.036173105
228	0x3d13656a	0.035985388
229	0x3ad0cd00	0.0015930235
230	0xbc831640	-0.01600182
231	0xbcbaee9c	-0.022818856
232	0xbc41a3a8	-0.011818804
233	0xbc6e6cf0	-0.01455234
234	0x3c3eb428	0.011639632
235	0x3d32d276	0.043657742
236	0x3c82cca8	0.015966728
237	0xbc01be00	-0.007918835
238	0xbc931f84	-0.017959364
239	0x3d5e3c42	0.054256685
240	0x3d647ed8	0.05578503
241	0x3d603174	0.054734662
242	0xbcd95290	-0.026528627
243	0x3c80bb28	0.015714243
244	0xbd40ee5a	-0.04710231
245	0x3cd9eb58	0.026601478
246	0x3d447358	0.047961563
247	0x3d41ee46	0.047346376
248	0xbc1ed200	-0.009693623
249	0x3d3d12a8	0.04616037
250	0x3d4ca5ba	0.049962737
251	0xbd020dce	-0.031751446
252	0x3cb2d778	0.02183126
253	0x3c00b178	0.007854812
254	0x3d11658e	0.03549724
255	0xbcd55b30	-0.026044458

fc3.bias f4 [256]
0	0xbd2cc170	-0.042176664
1	0xbd1196e8	-0.035544306
2	0x3d70091a	0.05860243
3	0x3d30055c	0.04297386
4	0xbd0cddb4	-0.03439112
5	0xbcd016dc	-0.025401525
6	0x3cb2e918	0.021839663
7	0x3d56567c	0.05232857
8	0x3d416a6c	0.047220632
9	0x3c8979f0	0.016781777
10	0xbd61cc0c	-0.055126235
11	0xbcc1f124	-0.023674555
12	0xbd1dcc78	-0.038525075
13	0xbd5ebe22	-0.054380544
14	0xbd543282	-0.05180598
15	0xbd10c7b4	-0.0353467
16	0x3d54ab78	0.051921338
17	0x3cb98310	0.022645503
18	0x3d3cc766	0.0460886
19	0x3d0a285e	0.033729903
20	0x3b98bdc0	0.004661292
21	0xbc172e70	-0.00922738
22	0x3abfd440	0.0014635399
23	0xbce96c98	-0.028494164
24	0xbd469556	-0.04848226
25	0xbbd624b0	-0.006535135
26	0x3d4f7ee4	0.05065812
27	0xbd1b6304	-0.037936226
28	0x3c1f13e0	0.009709328
29	0xbce7ec38	-0.02831088
30	0x3c9c6990	0.019093305
31	0x3d66c422	0.05633939
32	0xbd77c8d6	-0.060494266
33	0x3cd27c34	0.02569399
34	0xbced237c	-0.028947584
35	0x3d0cc17a	0.0343642
36	0xbd6a136c	-0.05714743
37	0xbca6b9cc	-0.020352267
38	0xbbfeaf60	-0.007772371
39	0xbcdeef48	-0.027213708
40	0xbd38fef2	-0.04516501
41	0x3d4771e4	0.0486926
42	0x3d00602e	0.031341724
43	0x3c03f098	0.0080529675
44	0xbd7d2822	-0.06180585
45	0xbd01c3b6	-0.031680785
46	0xbcede370	-0.029039115
47	0x3c9355fc	0.017985336
48	0x3bd695e0	0.006548628
49	0x3d7d103a	0.061783053
50	0x3d486b2e	0.04893034
51	0x3c9f6cac	0.019460998
52	0x3bd6a1a0	0.006550029
53	0x3c65a0c8	0.014015384
54	0x3b876940	0.00413242
55	0xbd688f60	-0.056777358
56	0x3d1a9ca2	0.037747033
57	0x3d50571e	0.05086433
58	0xbcb8dac4	-0.022565253
59	0xbd7d690a	-0.06186775
60	0x3d059598	0.032613367
61	0xbd3d934e	-0.04628306
62	0xbd58614a	-0.052827157
63	0xbd535d4e	-0.051602654
64	0xbb5f2dc0	-0.0034054369
65	0xbd28226e	-0.04104846
66	0x3d51e4f8	0.051243752
67	0x3d53895a	0.05164466
68	0x3caa3b0c	0.020780109
69	0x3cea26d8	0.028582975
70	0x3ca06ca8	0.019583061
71	0x3cde4428	0.027132109
72	0xbd3210a4	-0.0434729
73	0xbd476b64	-0.0486864
74	0x3bef7760	0.007307932
75	0xbce59628	-0.028025702
76	0xbca52f84	-0.020164259
77	0xbd2c6882	-0.042091854
78	0xbd5aee5a	-0.053449966
79	0x3cbdacec	0.023153745
80	0xbd6d5450	-0.057941735
81	0x3ccb6790	0.024829656
82	0x3b8fa150	0.0043832436
83	0xbb922d40	-0.0044609606
84	0xbc51e988	-0.012812026
85	0x3cb924a4	0.02260048
86	0xbca21328	-0.019784525
87	0x3d30ee4c	0.043196008
88	0x3d681346	0.056659006
89	0xbc85a360	-0.016313255
90	0xbd073b9e	-0.03301584
91	0x3d52c576	0.051457845
92	0x3d727d24	0.059201375
93	0xbbd440b0	-0.006477438
94	0x3b1bb5a0	0.002375938
95	0xbd735bce	-0.059413724
96	0x3c34e4b0	0.0110408515
97	0x3d57548a	0.052570857
98	0x3d4c9b76	0.049952947
99	0x3d60a4ca	0.054844655
100	0x3ca3f5ec	0.020014726
101	0x3d4e2cf0	0.050335824
102	0xbce00604	-0.027346618
103	0x3c5504d8	0.013001643
104	0xbce11068	-0.027473643
105	0xbd3b0ec4	-0.04566838
106	0xbd6173ec	-0.055042192
107	0xbd4d8cc4	-0.050183073
108	0x3cdbc840	0.026828885
109	0x3c62a818	0.013834022
110	0xbc900a18	-0.017582938
111	0x3d67ae1a	0.05656252
112	0x3d6cda8c	0.05782561
113	0xbcd50994	-0.026005544
114	0xbc98e2c8	-0.018662825
115	0xbc49ddd8	-0.012320958
116	0x3c68ef00	0.014217138
117	0x3d3193d4	0.04335387
118	0x3d320416	0.043460928
119	0x3d7c3b8a	0.06158022
120	0xbd10bfc6	-0.03533914
121	0xbcf4b694	-0.029872216
122	0xbc2ff1f0	-0.010738835
123	0x3d3eff00	0.046629906
124	0xbcb14a44	-0.021641858
125	0xba438300	-0.000745818
126	0xbd7778bc	-0.060417876
127	0x3d6954b8	0.05696556
128	0x3cce6b08	0.02519752
129	0x3b13b840	0.0022540241
130	0x3d127484	0.03575565
131	0x3d000a44	0.03125979
132	0xbd06f6b0	-0.032950103
133	0xbd48290a	-0.048867263
134	0x3d18b2d0	0.037279904
135	0x3d443f0e	0.047911696
136	0xbd4c764a	-0.049917497
137	0x3d5b7c6c	0.053585455
138	0x3d7afa10	0.061273634
139	0xbce2f360	-0.02770394
140	0x3d58a784	0.05289413
141	0xbcdb2a60	-0.026753604
142	0xbc7a4bf8	-0.015276901
143	0xbd305654	-0.04305108
144	0xbd5d9a0c	-0.05410199
145	0xbd61d0e6	-0.05513086
146	0x3cbb4074	0.022857882
147	0x3c14d848	0.009084769
148	0xbd4f2c90	-0.050579607
149	0x393d6e00	0.00018065423
150	0x3b130360	0.0022432432
151	0xbc756268	-0.014977075
152	0x3b40b2e0	0.0029403493
153	0x3d7b806e	0.061401777
154	0x3d40226c	0.046907827
155	0xbd11a560	-0.035558105
156	0x3cdaacfc	0.026693814
157	0xbd104fbe	-0.035232298
158	0x3d1f019a	0.038819887
159	0x3ce3ac98	0.02779226
160	0x3ca48864	0.020084567
161	0xbd2fb9ec	-0.04290192
162	0xbc94ca90	-0.018162996
163	0xbcd19fb0	-0.02558884
164	0xbd3372e6	-0.043810748
165	0x3d4bdd32	0.049771495
166	0x3b09f3e0	0.0021049902
167	0xbd6ac4b8	-0.057316512
168	0xbd2adcc4	-0.041714445
169	0xbcdc304c	-0.026878498
170	0xbd75e34c	-0.06003122
171	0x3d4fefa4	0.05076565
172	0xbd3b34da	-0.0457047
173	0x3c2a2ee0	0.010387152
174	0x3d497446	0.049183153
175	0xbd7249b4	-0.05915232
176	0xbd551db8	-0.052030295
177	0xbce09f2c	-0.027419649
178	0xbbc959b0	-0.006144725
179	0xbb0a5b20	-0.0021111444
180	0xbcca1f04	-0.024672993
181	0xbd190f34	-0.037368014
182	0xbbd49bf0	-0.0064883158
183	0xbd4f43b4	-0.050601676
184	0xbd6acdb8	-0.057325095
185	0xbb756860	-0.0037446246
186	0x3d1e7c90	0.03869301
187	0xbd29e09a	-0.041473962
188	0xbc28f058	-0.010311209
189	0x3d64263c	0.055700526
190	0x3d204578	0.03912875
191	0xbca85348	-0.020547524
192	0x3d5f7184	0.054551616
193	0xbc02ae20	-0.007976085
194	0x3d169dfa	0.036771752
195	0x3c5c0650	0.013429239
196	0x3d153768	0.036429793
197	0xbcc11914	-0.023571528
198	0x3bc523c0	0.0060162246
199	0xbcf32fb4	-0.029685833
200	0x3d3efdbe	0.046628706
201	0xbc9976c0	-0.018733382
202	0xbd1fc444	-0.039005533
203	0xbd4dbf84	-0.05023147
204	0xbd127a4a	-0.035761155
205	0xbc94e8c0	-0.01817739
206	0x3d79f9ee	0.061029367
207	0x3cf65e04	0.030074127
208	0xbba72530	-0.0051008686
209	0x3cdcf6b4	0.026973106
210	0xbcdb3b60	-0.02676171
211	0x3d295db8	0.041349143
212	0x3d16cfaa	0.036819138
213	0xbd3bd04c	-0.045852944
214	0xbc249668	-0.010045625
215	0xbd2a5ab2	-0.0415904
216	0x3cab919c	0.020943455
217	0xbd1dd426	-0.0385324
218	0xbd2fa324	-0.042880192
219	0x3ce2f6c4	0.027705558
220	0xbccd4904	-0.02505923
221	0xbc710a40	-0.014711916
222	0xbd6e9884	-0.05825092
223	0xbd3424dc	-0.043980464
224	0x3d4c0566	0.049809836
225	0xbd5b6bf2	-0.05356974
226	0x3c917cc8	0.017759696
227	0x3cc87e98	0.024474427
228	0x3c774c98	0.015093945
229	0xbc587528	-0.013211526
230	0xbd380f2a	-0.044936337
231	0xbcde4128	-0.027130678
232	0xbcc20540	-0.023684144
233	0xbd50445e	-0.05084645
234	0x3c86d74c	0.016460083
235	0x3c922438	0.017839536
236	0x3bc229e0	0.005925402
237	0x3d08d70a	0.033408202
238	0xbd2366a6	-0.039892815
239	0xbd2c1ac4	-0.042017713
240	0xbbc85350	-0.0061134472
241	0x3b7ee1c0	0.0038891882
242	0x3b9dfe60	0.0048215836
243	0x3cd242a8	0.02566655
244	0xbce164f8	-0.027513966
245	0xbcced390	-0.025247365
246	0xbd1e47dc	-0.03864275
247	0x3d43e4d4	0.04782565
248	0xbd506276	-0.05087515
249	0xbd4861ea	-0.048921503
250	0x3b17a100	0.0023136735
251	0x3ba24bf0	0.0049529
252	0xbc2d1210	-0.0105633885
253	0x3d05a71a	0.032630064
254	0x3c856a10	0.016285926
255	0xbd26247e	-0.040562145

fc4.weight f4 [5, 256]
0	0x3cf3af9c	0.029746823
1	0x3d0501f6	0.032472573
2	0xbd53a038	-0.05166647
3	0xbc5def78	-0.013545863
4	0x3d44446a	0.047916807
5	0x3d3b691c	0.045754537
6	0x3d2fa844	0.04288508
7	0x3d7da74a	0.061927117
8	0x3bbe2a60	0.0058033913
9	0x3d618a92	0.05506379
10	0xbcbfba88	-0.023404375
11	0x3c4f11b8	0.012638502
12	0xbccd5368	-0.025064185
13	0xbd7ba28e	-0.06143432
14	0x3c330f88	0.010928996
15	0x3d6aa838	0.057289332
16	0x3c033f48	0.008010693
17	0xbce404f4	-0.027834393
18	0x3c0c6c38	0.008570723
19	0x3c97da70	0.018536776
20	0x3d442968	0.04789105
21	0xbcdd84a8	-0.027040794
22	0x3d021bea	0.031764902
23	0xbc346228	-0.01100973
24	0xbb626600	-0.003454566
25	0xbd16d806	-0.03682711
26	0xbd5a5b82	-0.053309925
27	0x3bae5270	0.005319886
28	0xbcbb1b14	-0.02284006
29	0xbd6d27ee	-0.057899408
30	0x3d7eedda	0.06223855
31	0x3d64fb50	0.055903733
32	0x3c3155f0	0.010823712
33	0x3ca19438	0.019723997
34	0x3c597508	0.013272531
35	0x3ca41b10	0.020032436
36	0x3d27961c	0.04091464
37	0x3d735ae0	0.059412837
38	0xbc9a9494	-0.018869676
39	0x3d27b5e6	0.040944956
40	0xbd1eb3b2	-0.03874559
41	0x3d12cb72	0.03583855
42	0xbcf8cf88	-0.030372396
43	0xbc44e9a0	-0.012018591
44	0xbca8116c	-0.02051612
45	0xbcde4928	-0.027134493
46	0x3d142f88	0.03617814
47	0xbccdccb8	-0.025122032
48	0x3cdf277c	0.027240507
49	0xbcaa7780	-0.020808935
50	0x3d4b4300	0.049624443
51	0x3d13001a	0.03588877
52	0x3d5bd79e	0.053672425
53	0x3ce6949c	0.028147034
54	0x3c9195e0	0.017771661
55	0x3c205378	0.0097855255
56	0xbb0d7d00	-0.0021589398
57	0x3d5582fe	0.052126877
58	0xbc202b58	-0.009775959
59	0xbd21462c	-0.03937356
60	0xbd69e0d2	-0.05709917
61	0xbd189cb6	-0.037258826
62	0x3d07c764	0.033149138
63	0x3cafdba4	0.021467037
64	0xbc2bc238	-0.010483317
65	0xbb96db40	-0.0046037734
66	0x3cf14b24	0.029454775
67	0xbd54362a	-0.051809467
68	0xbd7b955e	-0.061421745
69	0xbd6b023a	-0.05737517
70	0xbd124376	-0.035708867
71	0x3c72e6f0	0.014825568
72	0xbd30701a	-0.04307566
73	0x3c292430	0.010323569
74	0xbd51a260	-0.051180243
75	0x3ca5c070	0.020233363
76	0xbc97195c	-0.01844471
77	0x3c9c3ff8	0.019073471
78	0xbd381c56	-0.0449489
79	0xbbd2bfa0	-0.006431535
80	0x3d517d7c	0.05114506
81	0xbd2eea6e	-0.04270404
82	0x3d637854	0.055534676
83	0xbcae9274	-0.021310069
84	0x3d364dae	0.044507675
85	0x3d489bae	0.048976593
86	0x3cb84a20	0.022496283
87	0x3cf5d860	0.030010402
88	0x3d563dae	0.052304916
89	0xbc5bd3e0	-0.013417214
90	0x3cc9b448	0.024622098
91	0xbc85bf4c	-0.016326569
92	0x3d426276	0.04745718
93	0x3cff57e4	0.03116984
94	0xbd740608	-0.059576064
95	0xbbf56290	-0.007488556
96	0xbc869948	-0.016430512
97	0x3d492b6e	0.049113683
98	0x3d113b7a	0.035457112
99	0xbd7081fc	-0.058717713
100	0xbc25db00	-0.010123014
101	0xbc31b2b0	-0.010845825
102	0xbccd9284	-0.025094278
103	0xbb9b0b50	-0.004731573
104	0xbd28cee0	-0.041212916
105	0x3c71fe08	0.014770038
106	0xbc125e40	-0.008933604
107	0x3b783e40	0.00378789
108	0xbd3ccb90	-0.04609257
109	0xbd61e006	-0.055145286
110	0xbd468ece	-0.048476033
111	0x3d16cd96	0.036817156
112	0x3c629f30	0.013831899
113	0x3d0e6932	0.03476829
114	0xbc5355f0	-0.012898907
115	0x3d4621be	0.048372023
116	0x3d6a97cc	0.05727367
117	0x3c950b0c	0.018193744
118	0xbd671b18	-0.056422323
119	0x3d2c8070	0.042114675
120	0x3c7e2d60	0.015513748
121	0x3d08d6da	0.033408023
122	0xbd55a6c6	-0.052161
123	0xbc33ff50	-0.010986164
124	0x3d1e7506	0.03868582
125	0x3d28a2b8	0.041170806
126	0x3d532c4c	0.051555917
127	0xbcdc1728	-0.02686651
128	0x3cd7c728	0.026340082
129	0xbd4ce69e	-0.05002462
130	0xbc08f3e0	-0.008358926
131	0xbcd80ff8	-0.026374802
132	0x3d416c3a	0.047222354
133	0x3d51366c	0.05107729
134	0x3c5dc200	0.013535023
135	0xbcf99f10	-0.030471355
136	0x3d2b706c	0.04185526
137	0x3d6a9124	0.057267323
138	0x3d146c30	0.03623599
139	0x3d095064	0.033523932
140	0x3c011298	0.007877968
141	0x3ce44e30	0.027869314
142	0x3cd1997c	0.025585882
143	0x3d1899e6	0.037256144
144	0x3d3f415a	0.046693183
145	0x3d74be18	0.0597516
146	0xbc916524	-0.017748423
147	0xbd636afa	-0.055521943
148	0x3d0b077e	0.033942692
149	0x3d38db58	0.045131058
150	0x3cbcbe28	0.023039892
151	0x3d539b96	0.05166205
152	0xbd74d852	-0.05977661
153	0x3d3f36d8	0.046683162
154	0x3ca12dec	0.019675218
155	0xbc723e88	-0.014785416
156	0xbd2e4b9a	-0.042552568
157	0x3d7c534a	0.06160287
158	0xbd41ec4c	-0.04734449
159	0xbcff9a24	-0.03120143
160	0x3d54e94a	0.051980294
161	0xbd32bc8a	-0.043636836
162	0x3c9be240	0.019028783
163	0x3cc702c4	0.024293311
164	0xbc8b8a3c	-0.017033689
165	0x3d3f9eee	0.046782427
166	0x3d79d582	0.060994633
167	0x3bae7d60	0.0053250045
168	0xbd5457c0	-0.051841497
169	0xbcc8d3b0	-0.024515003
170	0xbcc4543c	-0.023965947
171	0xbd7bf022	-0.061508305
172	0x3d5cc33e	0.053897135
173	0xbc754ba0	-0.014971644
174	0xbd5765de	-0.052587382
175	0xbcff3334	-0.031152345
176	0x3c874cf4	0.016516186
177	0xbc38dcd8	-0.011283122
178	0x3cf89a94	0.030347146
179	0x3d575892	0.0525747
180	0xbc28eb18	-0.010309957
181	0xbd4e21f2	-0.05032534
182	0xbc788428	-0.015168227
183	0xbd2c123e	-0.042009585
184	0xbc318cc0	-0.01083678
185	0x3d5a78fc	0.053338036
186	0x3d3db3fa	0.046314217
187	0x3d1935aa	0.037404694
188	0x3c337a78	0.010954492
189	0xbd31a12e	-0.043366604
190	0xbc8cc14c	-0.017182015
191	0xbcd134cc	-0.02553787
192	0xbcec13bc	-0.028818004
193	0x3cf404d4	0.029787458
194	0x3d15aff2	0.036544748
195	0x3d1be05a	0.038055755
196	0xbd426554	-0.047459915
197	0xbc007eb8	-0.007842712
198	0x3d469794	0.0484844
199	0xbca9a13c	-0.020706765
200	0xbd5fec38	-0.054668635
201	0x3d5f4010	0.054504454
202	0xbd08b194	-0.033372477
203	0xbc572ca8	-0.0131332055
204	0x3ccd8f7c	0.025092833
205	0xbd0e21be	-0.034700148
206	0x3d688d36	0.056775294
207	0x3cea5e48	0.02860941
208	0x3d219430	0.039447963
209	0x3d3bb294	0.045824602
210	0xbcc4df20	-0.024032176
211	0xbc7ad660	-0.0153099
212	0x3d521142	0.05128599
213	0xbc7fe3b8	-0.015618257
214	0xbce29e30	-0.02766332
215	0xbd30d5ce	-0.04317265
216	0x3d6c57aa	0.05770079
217	0xbcdd0e28	-0.02698429
218	0x3d2882a0	0.0411402
219	0xbd5482da	-0.051882602
220	0xbd664c24	-0.056224957
221	0xbcaa52a8	-0.020791367
222	0xbd78ec54	-0.060772255
223	0xbbd5b080	-0.0065212846
224	0x3c4ce4b8	0.012505703
225	0xbbf4c1d0	-0.0074693933
226	0xbca9f348	-0.020745888
227	0x3d3c6d66	0.046002768
228	0xbd1a76f2	-0.03771109
229	0x3d33f304	0.04393293
230	0x3d6f8e56	0.05848535
231	0xba799980	-0.00095214695
232	0xbd023b22	-0.031794675
233	0x3c959c48	0.018262997
234	0xbccf2350	-0.025285393
235	0x3c512628	0.012765445
236	0x3c014328	0.007889546
237	0xbd68757c	-0.056752667
238	0x3d4dd1f8	0.05024907
239	0xbd648c28	-0.055797726
240	0xbd2a3f9c	-0.04156457
241	0xbcbf555c	-0.023356132
242	0x3d54fa5e	0.05199658
243	0xbd26d1f6	-0.040727578
244	0x3cd09188	0.02546002
245	0x3bb24bf0	0.0054411814
246	0x3ae6fd40	0.0017623082
247	0xbc548f08	-0.012973554
248	0x3bd85800	0.0066022873
249	0xbce7f344	-0.02831424
250	0xbb4869c0	-0.003058061
251	0xbcdc38ec	-0.026882611
252	0xbcd79004	-0.02631379
253	0xbd3a8066	-0.045532607
254	0xbcf6899c	-0.030094914
255	0x3d0b35e0	0.033986926

fc4.bias f4 [5]
0	0x3d727a98	0.059198946
1	0xbd47ba70	-0.048761785
2	0xbb97b050	-0.0046291724
3	0xbd24fcf6	-0.040280305
4	0xbd3a76f2	-0.04552359
