mlp_weights/map_2_Q.pt (torch, 561792 bytes, 8 tensors)

fc1.weight f4 [256, 26]
000000 fb 67 8e 3f e3 e5 69 3e 09 97 4b bf a2 5a 84 bf
       1.1125482 0.22841601 -0.79527336 -1.0340159
000010 16 bf e6 3e 8c 90 b3 be ea 1f ff 3e db 70 34 bf
       0.45067662 -0.35071218 0.49829036 -0.70484704
000020 67 ef 13 be 86 2a e8 bd b8 3b 20 3e 37 a3 e2 3d
       -0.14446793 -0.11336236 0.15647781 0.11066287
000030 ea f2 49 3e 77 23 90 3c 59 c6 b1 be 7f b0 84 be
       0.1972157 0.017595036 -0.3472164 -0.25915906
000040 a5 ae 08 bf ed 4e 08 3e e5 55 25 3e f8 b9 7f 3e
       -0.53391486 0.13311358 0.16146047 0.24973285
000050 93 98 be bd 0d 68 12 be f0 0d c1 ba 22 e9 b5 be
       -0.09306445 -0.14297505 -0.0014728885 -0.3552943
000060 4f cf a6 be d7 e3 cb be cc 67 67 3e 1d a6 50 3e
       -0.3258004 -0.39822266 0.22598189 0.20375867
000070 30 60 55 3f e3 de 82 c0 12 5d 0e 3e 9f 27 ef bb
       0.83349895 -4.089708 0.13902691 -0.0072984244
000080 e2 de b9 bd 72 c7 97 3e 97 51 b2 be 1a d5 6c be
       -0.09075715 0.29644352 -0.34827873 -0.23128167
000090 9f ad 24 3d 34 8c 4a bd 83 61 02 3e 3e 72 7d 3e
       0.04020464 -0.049450114 0.1273251 0.24750611
0000a0 c8 eb 43 3d ab 3a 9b 3d 8d c1 41 3d b3 d6 df 3d
       0.04783228 0.075795494 0.047303725 0.109296225
0000b0 54 34 bc bc c9 62 6f 3b db ef be 3d 05 4b ae bd
       -0.02297417 0.0036527386 0.093230926 -0.085104026
0000c0 47 e6 3f 3d 8f c5 7a 3d 00 11 ba 3d d5 89 af 3d
       0.04685047 0.061223563 0.09085274 0.08571211
0000d0 df 88 a7 bf 6f 01 47 3e 46 6d 97 3f db ce 01 3f
       -1.3088645 0.1943414 1.1830223 0.5070626
0000e0 51 f7 30 3f fe 96 8c bf 41 06 b6 be ab 7a dc 3b
       0.69127375 -1.0983579 -0.35551646 0.0067284903
0000f0 8e 4f 50 be 1f 84 aa be 2a 95 bf be 83 fb 38 3e
       -0.20342848 -0.33303925 -0.3741849 0.18064694
000100 a2 cb d3 3e 71 2e e8 3d 8a 65 ae be 9b 41 1c be
       0.41366297 0.11336983 -0.34061843 -0.15259402
000110 53 c7 8d be fe 1e 0b 3d fc fd d8 bd ff f3 96 3d
       -0.27691135 0.033965103 -0.10595319 0.07370757
000120 04 5d 9c be c4 d2 20 bf 24 99 22 bf a9 72 35 be
       -0.30539715 -0.628216 -0.63514924 -0.1771952
000130 da 19 e6 bc 19 5a 8c be 1f 9b 0a bd d7 1f 13 be
       -0.028088499 -0.2741249 -0.03383934 -0.14367615
000140 82 c1 0f bd fd 17 3b 3d db bc 9e bd 6c bc f4 bd
       -0.035096653 0.045677174 -0.07750865 -0.11950001
000150 55 64 81 3d af 7e 10 be 8f cd 36 3e 03 2b 23 3d
       0.06317965 -0.14110826 0.17851852 0.03983594
000160 b6 35 e2 bc 16 a1 c6 bd 03 12 40 3e e5 81 47 be
       -0.027613502 -0.096986935 0.18756871 -0.19483145
000170 7b bb a1 3d 95 c8 dd bc 0d 85 c5 bd 8f 9f 21 be
       0.07897087 -0.027073184 -0.09644518 -0.15783523
000180 74 cf 46 3e 44 09 b2 3d d2 20 89 bd 37 03 a9 3c
       0.19415075 0.086931735 -0.06695713 0.020631416
000190 da 11 2f be f7 be 56 3c c7 89 69 3c 59 82 e0 bd
       -0.17096654 0.013107053 0.01425404 -0.10962362
0001a0 3e d2 80 3f 1f 62 b6 bf 45 3f 9e be 84 96 f4 bf
       1.0064161 -1.4248694 -0.30907646 -1.9108434
0001b0 35 63 ed 3e 6b c5 dd 3e 5e ae e1 be 56 5c 8a be
       0.4636475 0.4331468 -0.44078344 -0.27023572
0001c0 ea 50 36 3f 22 f7 6d 3f b2 75 bd 3f 92 1b b4 3d
       0.71217215 0.9295522 1.4801543 0.08794321
0001d0 eb 4f 52 be 49 64 12 be 71 0c b6 be c4 6a d3 be
       -0.20538299 -0.14296068 -0.35556367 -0.41292393
0001e0 5c f9 a7 bf 31 cf 3a be e5 15 a7 be 30 4c a7 be
       -1.3122973 -0.182431 -0.32633892 -0.32675314
0001f0 5b 18 15 be ce 0e 0b bb 9e bd 6f be dc 21 f2 3d
       -0.14560072 -0.002121854 -0.23412177 0.118228644
000200 9a c6 0c 3d b7 65 ce 3d 54 51 16 3c bd 37 02 3f
       0.03436909 0.10077994 0.009174664 0.508663
000210 8d 82 8d bf e1 ee 7f 3f 56 f7 cc 3d 09 b5 03 bf
       -1.1055466 0.99973875 0.10008113 -0.5144811
000220 93 0f 77 3e 4c 26 91 be 69 a7 1e 3d eb 9b 6c bd
       0.24127035 -0.2834953 0.038733874 -0.057765882
000230 61 92 ca 3d ba ad 1b bd a1 43 e1 be ea 8e 2e 3d
       0.09891201 -0.038007475 -0.4399691 0.042616762
000240 dd 18 cc be 2f 14 f7 be cc 27 b0 bc d8 ad 4f be
       -0.3986272 -0.48257586 -0.021503352 -0.2028116
000250 35 2f c7 3c 58 49 0b 3e 22 57 12 3e 2b fb ba bc
       0.024314502 0.13602197 0.14291051 -0.022824844
000260 da ad 0f 3e 25 b5 d9 be bb ff ec be 9f 1c 47 bd
       0.14031163 -0.42521015 -0.46288857 -0.04861128
000270 7f 4b a4 bf b3 88 05 c0 b8 a7 bf 3f 18 df 30 c0
       -1.283554 -2.0864685 1.4973059 -2.7636166
000280 7e 01 e9 3c 52 6f 86 bd 52 45 58 3e 0b 82 17 bf
       0.028443094 -0.065642014 0.21120194 -0.59182805
000290 c0 8d 86 3f 8c a6 88 3f 24 86 97 3e d5 ac cb 3d
       1.0512009 1.0675826 0.2959453 0.099450745
0002a0 19 37 44 be 2c f3 32 bd 92 f1 97 3e 17 1c 0b 3d
       -0.19161643 -0.043688938 0.2967649 0.033962335
0002b0 1a 9a 7f bd 9f 40 ba 3c 46 d8 35 3d 9a 21 3d 3d
       -0.062402822 0.022735892 0.044395708 0.046174623
0002c0 c4 97 96 3e d7 e8 b5 bc aa f8 09 be 6a 33 64 be
       0.29412663 -0.022205753 -0.13473764 -0.22285238
0002d0 c6 c5 19 bd 98 b8 85 be dc 98 46 be c8 c9 5c bc
       -0.037542127 -0.26117396 -0.19394249 -0.013475843
0002e0 75 f0 d6 be 1f ee 8f bf a6 ff 78 be 31 60 80 3d
       -0.4198033 -1.1244544 -0.24316272 0.06268347
0002f0 82 e2 1d bf c5 a7 87 be ea 7a f0 3d d4 5c 8b 3d
       -0.6167375 -0.26495185 0.11742194 0.06804815
000300 43 8c f0 3c 5f 2b d2 3e 87 b0 e0 3e 31 bd 2e 3e
       0.029363757 0.41048715 0.4388468 0.17064358
000310 c4 26 97 bd c5 7a 33 be 2d 17 2d bf e4 4b 0c bf
       -0.07380441 -0.17527302 -0.6761349 -0.548033
000320 f6 4e 15 bf a5 9c 03 be 5d 77 e7 3e f5 77 5a 3e
       -0.5832361 -0.12852724 0.45208254 0.21334822
000330 0e 93 df 3e 93 bc 66 3b 68 db 74 bd b5 ed 8c be
       0.4366688 0.0035207614 -0.059779555 -0.27525106
000340 09 c4 90 bd f7 2a 91 be 43 93 19 be c7 f8 9e 3d
       -0.07068641 -0.28353092 -0.14997582 0.07762294
000350 2e a1 07 3d 35 2a a7 be 6c 74 a6 be 26 5b 23 bf
       0.033112697 -0.3264939 -0.32510698 -0.63810956
000360 36 f7 bc 3e 76 53 b6 3e 88 4f 6e 3e 62 1b 55 bd
       0.36907357 0.3561055 0.23272526 -0.052028067
000370 5d 9f 9b 3d eb b6 e6 3d e9 1e a5 be 0c 78 86 be
       0.075987555 0.112653576 -0.32250145 -0.26263463
000380 75 c3 66 be 1f 9f ed 3d 9c 00 f8 bd 19 15 ff 3d
       -0.22535498 0.116026156 -0.12109491 0.12455196
000390 89 cb 19 be 36 5c 22 3d 87 72 40 be 19 be ad 3c
       -0.15019049 0.03963872 -0.18793689 0.02120881
0003a0 9b 0f 1b bd 74 ba aa bd 7b 36 07 3f 03 1c 1c bf
       -0.03785668 -0.08336344 0.52817506 -0.6098024
0003b0 c6 ea ef 3e 90 a4 8b bf cd 3a 30 3e 4e 74 56 bc
       0.46858805 -1.0909595 0.1720993 -0.013089253
0003c0 8c ab a0 be 7f e7 70 3c 47 b9 e6 bd e3 c7 5f 3b
       -0.3138088 0.0147036305 -0.112658076 0.0034146241
0003d0 e4 20 8b be 53 9c ff be 3f 3d ef be 82 7e b5 be
       -0.2717353 -0.49923953 -0.46726415 -0.3544808
0003e0 44 06 73 be 4b f9 d3 be 65 a4 f4 be 9c 90 de bd
       -0.23732859 -0.41401133 -0.47781673 -0.10867426
0003f0 96 b8 b9 bd 45 23 8b 3a eb f7 5c be dc 76 13 bf
       -0.0906841 0.001061537 -0.21578948 -0.5760324

fc1.bias f4 [256]
000000 15 e6 ce bd ea 17 26 3d 95 56 2d bd 4e 6a d1 bb
       -0.101024784 0.04055015 -0.0423189 -0.0063908463
000010 c8 93 ef be 15 34 00 3e 3d 29 6a 3d 90 f3 82 be
       -0.46792436 0.12519868 0.057168234 -0.25576448
000020 98 6e d6 3c 18 4c 58 3c 44 84 aa 3d 1a 42 bb bd
       0.026175782 0.013201736 0.08326009 -0.09143467
000030 e0 d9 1e 3e 49 80 d5 3e 67 ee 3f be f1 41 9d 3d
       0.155128 0.41699436 -0.18743287 0.07678593
000040 9b 52 9a bd 70 08 65 be 74 29 18 bd 1c c1 9e be
       -0.07535287 -0.223665 -0.037148908 -0.31006706
000050 65 ef 39 be e7 ff 41 be 9f 4e 6f be 14 a2 20 be
       -0.18157728 -0.18945275 -0.23369835 -0.15686828
000060 16 c5 f9 bc b3 71 0f 3e da 9e 19 3d 45 47 59 be
       -0.030489486 0.14008217 0.03750501 -0.21218593
000070 9d 79 59 be 61 8d 49 be 8a 6c 6b be c1 98 6d 39
       -0.21237798 -0.19682838 -0.22990623 0.00022658987
000080 b8 c6 93 be cb bf 0a 3c 7b 3d 80 bd 08 cc 8a be
       -0.28862548 0.008468579 -0.062617265 -0.27108788
000090 d1 2b 26 3d c8 c4 88 3e 68 40 dd 3c 90 e2 cf be
       0.04056913 0.26712632 0.02700825 -0.4060254
0000a0 6c 75 5b be 10 7c 27 be 17 c0 1f bd 37 14 01 3e
       -0.21431512 -0.1635592 -0.03900155 0.12605368
0000b0 f2 c1 7d be be 23 07 ba e8 2a 44 be 00 12 a7 3d
       -0.24781016 -0.00051551673 -0.19156992 0.0815773
0000c0 72 af 0c 3e 1a 79 c3 bd 81 d4 ba be ef 2c 48 be
       0.13738802 -0.09544583 -0.36490253 -0.19548391
0000d0 1b 2c 4d be 18 d9 f5 bd c4 26 da be 26 78 20 be
       -0.20036356 -0.12004298 -0.426077 -0.15670833
0000e0 cb f0 3e be 04 e1 80 be f8 08 83 3e ac a1 96 be
       -0.18646543 -0.25171673 0.2559278 -0.2942022
0000f0 ce 5d 8b 3d fe 4b 2b 3d 83 21 35 3d 16 e8 bf 3e
       0.06805001 0.04182052 0.044221412 0.37481755
000100 1c ac e3 bc e0 de ae be c0 95 d2 3c ed ea e7 3d
       -0.02779203 -0.34154415 0.025706172 0.113241054
000110 51 46 f6 3c 2e bb d0 bc 58 f3 09 3d 50 42 32 be
       0.030062826 -0.02547988 0.033679336 -0.17408109
000120 b5 00 7e be 95 94 ac be 5b b2 80 bc a9 be 62 3e
       -0.24804957 -0.3370711 -0.015710047 0.22143044
000130 5a 42 19 be 4a e3 df 3d da 43 9a 3c f3 5b a1 3d
       -0.14966717 0.10932024 0.018831182 0.07878866
000140 7a cc 75 3e a6 79 90 be 7a 87 8e 3c b3 6c 95 be
       0.24003783 -0.2821781 0.017398585 -0.29184493
000150 43 21 71 be 7c fd 65 3d fd 87 21 be 0c 7d 5e be
       -0.23547845 0.056149945 -0.15774532 -0.21727389
000160 3b a4 6d 3e a8 8e 6c bd 6b 34 d1 bc fb d2 63 be
       0.2320718 -0.057753235 -0.02553769 -0.22248451
000170 ad e7 92 3e 17 8a 2c be 4c 27 4c bd b6 d2 75 be
       0.2869238 -0.16849552 -0.049842164 -0.24006161
000180 e3 8e 09 3e f0 9c 6d 3d ce 5b b4 be 12 9e 72 bd
       0.13433413 0.058010995 -0.3522629 -0.05923278
000190 94 c9 cd bd 85 3c 00 bd fc 2d 84 be 0e 10 f4 bd
       -0.100482136 -0.031307716 -0.25816333 -0.11917125
0001a0 02 3e 6a 3d ad 7a 35 be 26 14 60 bc 83 2b 47 3e
       0.05718804 -0.17722578 -0.013676679 0.19450192
0001b0 81 6b a7 3d 86 81 b8 bc df ea 1b 3e ba af ad 3e
       0.081748016 -0.0225227 0.15226315 0.3392313
0001c0 b1 31 4a bd 71 12 38 be 18 96 f4 3d b2 8c 3e bd
       -0.049363796 -0.17975785 0.119426906 -0.046520896
0001d0 fe 17 ed be b0 89 ad 3d 67 d1 29 3b c4 2b 26 be
       -0.46307367 0.084735274 0.0025912167 -0.16227633
0001e0 a1 14 ed 3d 93 98 0c 3e 22 b0 fb 3d f4 3c 51 be
       0.115762 0.13730077 0.12289454 -0.20433408
0001f0 57 a9 40 be 0e af f1 bc e0 c6 be bd cd 93 f3 3d
       -0.18814598 -0.029502418 -0.09315276 0.11893425
000200 bd 41 0a 3e 95 85 70 be cb 82 17 3d f2 a8 0f be
       0.1350164 -0.23488458 0.03698997 -0.14029291
000210 f5 13 11 bd 93 6f 0a be 6f 0d bc bc b9 d1 37 bd
       -0.035419423 -0.13519125 -0.022955624 -0.04487774
000220 c7 51 11 3e 1d 1d 41 3c ba b1 ff 3c 19 45 92 be
       0.14191352 0.011786726 0.031212676 -0.28568342
000230 f6 9f a4 bd b1 55 b1 be 69 50 1c be 11 a6 e3 3d
       -0.08038323 -0.3463569 -0.15265049 0.11115659
000240 0b 43 d2 bd 6f 9c d1 bd b8 73 b3 39 47 6f 9f 3d
       -0.10266694 -0.102349155 0.00034227758 0.07784896
000250 ed a8 91 3c 18 7e 8c be 5f a4 95 3e b1 23 c8 3c
       0.017780745 -0.27439952 0.29226968 0.024431081
000260 14 5d 97 3c 3d 43 54 be da 76 9e be 5f 4c e2 bd
       0.018477 -0.20728774 -0.30950052 -0.11049723
000270 85 bf ee 3d a8 48 1d be 2a 3d 84 3e 3e 2e 88 3e
       0.11657623 -0.15359747 0.25827914 0.2659778
000280 35 1c a0 bc 73 fd a5 bd c9 79 1a 3e 77 15 4c 3c
       -0.0195447 -0.08104982 0.1508552 0.0124562895
000290 c9 dd c5 bc f1 69 15 3e 04 a9 fa 3c 66 82 cd bd
       -0.024153607 0.14591195 0.030598171 -0.10034637
0002a0 c4 c3 91 bd 84 d1 de bd d2 19 06 3d 8b 53 23 bd
       -0.071174175 -0.10879806 0.032739468 -0.039874595
0002b0 2c 98 fb be bc da b3 be 48 2a 76 be d5 11 9b bd
       -0.49139535 -0.3512782 -0.24039567 -0.075717606
0002c0 3b ee 8b 3e 0f 37 eb 3c 24 8a bb 3d df c2 88 bc
       0.27330193 0.028712777 0.091572076 -0.016694484
0002d0 cb 4e 3d 3e 1e 12 9e 3a 37 18 17 3d ff c0 2d be
       0.18487088 0.0012059843 0.036888327 -0.16968153
0002e0 ea 19 5a be d1 f8 c9 bd 4d c3 86 3d c1 67 32 3e
       -0.21298948 -0.09861911 0.065802194 0.17422391
0002f0 ec 6d 96 bd 85 52 a9 3b 2c 3d b1 bd 98 cd 76 3c
       -0.07345185 0.005167308 -0.08654246 0.015063666
000300 53 f0 71 be 5e 3b 95 bd 40 cb ea 3d 28 b1 aa bd
       -0.23626833 -0.07286714 0.11464548 -0.08334571
000310 64 18 68 be 63 e2 3c 3e 0f a7 1c be dd 0a cc bd
       -0.22665554 0.18445735 -0.15298103 -0.099630095
000320 16 fd 89 3e a2 c0 e7 bd 78 18 6d bd 48 37 13 3e
       0.26950902 -0.11316039 -0.057884663 0.14376557
000330 62 50 b5 3e fe 13 83 bd 8e 61 2f be d1 32 05 bc
       0.3541289 -0.064002976 -0.17127058 -0.008129791
000340 2b 8f 1e 3d 21 62 d0 be b4 50 4a be f6 a0 8c be
       0.038710754 -0.40699866 -0.19757348 -0.27466553
000350 e2 41 dd bd ec c2 95 be f8 67 df 3d 8f ca 9d be
       -0.10803582 -0.29250276 0.10908502 -0.30818602
000360 4a d9 10 bf df db 40 be 4f 1f 13 be f6 d6 91 be
       -0.56581557 -0.18833874 -0.14367412 -0.28484315
000370 76 00 b0 3d cb c4 d3 3d 3f 88 0b be 73 e7 21 3d
       0.08593838 0.1034027 -0.13626193 0.039527368
000380 0f 5b d2 3e 1b 0f 59 3e 04 df 4d 3e 73 53 99 3e
       0.41085097 0.21197169 0.20104605 0.2994648
000390 e5 15 f8 bd ba ba e4 bd e3 d2 7f bc 0c 86 2a be
       -0.12113551 -0.11168428 -0.015614244 -0.16652697
0003a0 72 39 0e 3e 96 73 b4 bd a8 04 6d be c1 af 11 bf
       0.13889101 -0.08811109 -0.23146307 -0.56908804
0003b0 f9 dd 91 bd 66 bb 33 3e 26 6e 96 bd 5f 98 8a 3d
       -0.07122416 0.17551956 -0.07345228 0.06767344
0003c0 1b 24 b6 3e c2 ce 38 3d 7b 1b 6c be f3 3e b3 be
       0.3557442 0.045119055 -0.23057358 -0.35008964
0003d0 61 49 e1 3c 6a b4 b8 3d 60 4f e6 bd 44 ac 59 be
       0.02750081 0.09018786 -0.11245608 -0.2125712
0003e0 4c ef 94 bc 33 8a 86 be 33 36 c7 3b fa 89 27 3e
       -0.018180512 -0.26277313 0.006079459 0.16361228
0003f0 b4 50 32 3e 6d c3 d3 be 84 c0 3d be bc 5e 1b bd
       0.17413598 -0.41360036 -0.1853047 -0.037932143

fc2.weight f4 [256, 256]
000000 aa 9b 40 3f da 88 bc be dc 91 fd be fa f2 12 3d
       0.75237525 -0.3682316 -0.49525344 0.03587625
000010 10 f3 20 be a9 13 30 bd 22 dc 2a 3f ce 20 2b 3e
       -0.15717721 -0.0429875 0.66742146 0.16711733
000020 9b fa 02 be d6 1e 19 3f 5e 1c 1b be b8 6f 98 bd
       -0.12790911 0.59812677 -0.1514754 -0.07443184
000030 2c d0 27 bd dd ac 29 3e 52 06 59 3d 1a db 75 3e
       -0.040970013 0.16569848 0.052984543 0.24009362
000040 e0 92 71 3e 35 91 d1 bf 38 97 7b bc 11 8a f0 3c
       0.23591185 -1.6372439 -0.015355878 0.02936271
000050 b1 bc 6d 3e 4b d2 76 bc 59 8a 72 3e 66 b7 61 bf
       0.23216511 -0.015064786 0.23685588 -0.8817047
000060 13 12 84 be df f2 b5 3e dd 0a fb 3c a7 16 50 be
       -0.2579504 0.35536858 0.030644828 -0.20321141
000070 a9 e4 2e bf 9a 56 58 3e bd ae 30 3b 76 21 33 3f
       -0.6831766 0.21126786 0.002695962 0.6997293
000080 da 2f 5f bd 20 a1 2f bb 3d 9e 7e bd bc 4f fa 3d
       -0.054488994 -0.002679892 -0.062162627 0.122222394
000090 ea e9 84 be 58 e9 0b 3f 66 49 10 bf 35 95 77 be
       -0.25959712 0.5465293 -0.56362 -0.24178012
0000a0 2d 06 14 3f dd 53 c4 be 67 f8 80 bf e4 c0 8c bb
       0.57821923 -0.38345233 -1.0075806 -0.0042954553
0000b0 c1 c3 fa bc ee c7 7c 3e 6c 20 57 be f5 5f 46 3f
       -0.03061092 0.24685642 -0.21008462 0.7749017
0000c0 6d 61 67 3e 08 ae 1a bd d0 99 50 3e 23 23 c0 3e
       0.22595759 -0.037763625 0.20371175 0.37526807
0000d0 73 da 3a bf e9 a1 7f be dc f5 e5 be 7a 7d 20 bf
       -0.7298958 -0.24964108 -0.44914138 -0.6269146
0000e0 41 53 44 bd 94 02 96 3c e7 d9 06 3f d8 0f e5 3e
       -0.04793096 0.018311776 0.5267624 0.4473865
0000f0 b9 62 1c be 1f 61 e2 bd 7d ab b8 3a dd 14 87 3e
       -0.15272035 -0.11053681 0.0014089193 0.26383105
000100 a8 93 1a c0 27 1b cf 3e 9a e1 1d bf bc 96 29 bf
       -2.4152622 0.40450403 -0.61672366 -0.6624563
000110 25 cc 7a be c1 6f 00 bd ce f3 b5 3e 08 c9 a8 3e
       -0.24491937 -0.031356577 0.3553757 0.32965875
000120 ca 17 63 3d 8d 23 28 3d bd 98 76 bf fa e1 0f be
       0.05544261 0.04104953 -0.9632681 -0.14051047
000130 e4 ce 2b 3e b1 ff bd 3e af 48 85 3d bc 0d 9b be
       0.16778141 0.3710914 0.06508004 -0.30283916
000140 5c fb 24 be b9 b1 20 bf 8d 89 a2 bc 5f 77 9a 3d
       -0.16111511 -0.62771183 -0.01984098 0.075422995
000150 74 ef b7 bd d3 e0 fa be 9b 8b a2 bd c9 75 c9 3e
       -0.08981219 -0.48999652 -0.07936784 0.39347675
000160 4a 6a 96 be 4c f4 b5 be b4 87 a7 be a5 1c c3 3e
       -0.29377967 -0.35537946 -0.3272072 0.38107792
000170 42 56 c8 3d 90 1e 4c 3d 4b aa e9 3d 74 18 a4 3e
       0.09782077 0.049833834 0.11409434 0.32049906
000180 c5 ae 76 3e 8e 7f 45 bf 7d ad 97 3e 1d b4 21 3d
       0.24090107 -0.7714776 0.2962455 0.03947841
000190 58 81 94 be b0 68 0b be fb 4e bf bf bb 40 20 bf
       -0.2900493 -0.13614154 -1.4945978 -0.6259877
0001a0 87 c9 a9 bd 70 cd b6 be e7 ac f7 3e de 76 84 3e
       -0.082903914 -0.3570361 0.48374102 0.25871938
0001b0 d4 86 d2 be c0 37 36 3c e2 15 c6 be a0 7e 84 3e
       -0.4111849 0.01112169 -0.3868857 0.25877857
0001c0 37 e0 43 bd 21 ae fe bb 29 6b 07 bf 81 03 df 3e
       -0.04782125 -0.0077722226 -0.5289789 0.4355736
0001d0 5b 3a 3c be 0b c3 19 3c 7b 7b a1 be 21 9e 4e bf
       -0.18381636 0.009384881 -0.3153952 -0.80710036
0001e0 dd d5 63 bf d7 35 86 bd 1c e0 06 be 9e 09 12 3d
       -0.88998204 -0.06553238 -0.13171428 0.035653703
0001f0 f4 6a 08 be 33 4f 5c 3e cf e2 e2 3e bb 21 01 be
       -0.1332205 0.21514587 0.44313666 -0.12610523
000200 97 fa fe 3e 75 f2 1c 3c 1b 26 93 bc c2 5b 27 bd
       0.4980056 0.009579291 -0.017962506 -0.04085899
000210 54 80 d8 be e0 62 cc 3d aa 2f d7 be c8 fa 2a bf
       -0.42285407 0.099797964 -0.42028552 -0.6678891
000220 0a 4a c1 be 42 c6 df 3d d3 69 30 3c c2 21 28 3e
       -0.377518 0.109264866 0.010767418 0.16419128
000230 68 ef a2 bc 56 66 37 3e 4f 87 a0 bf 1a d0 fe be
       -0.019889548 0.17910132 -1.2541293 -0.49768144
000240 58 8e 64 be 73 e9 95 bc cc 32 56 bf c9 79 3c bf
       -0.22319925 -0.018299794 -0.8367126 -0.7362333
000250 15 09 b7 3e 81 0e 6b 3d d6 2e bd bd a8 27 4c 3d
       0.35749117 0.05738688 -0.09237449 0.049842507
000260 5a 35 cf 3e 85 04 b2 be bf ea 2e bf 6f fc 4c bc
       0.40470392 -0.34769073 -0.68326944 -0.012511357
000270 47 78 03 c0 5d 4e 1b 3f b0 11 aa be df ec 62 3e
       -2.0542161 0.6066645 -0.3321662 0.22160672
000280 47 3e 23 3f fe 43 0d bd 46 f5 a1 3b 75 b1 8a 3d
       0.637669 -0.03448867 0.004942569 0.067721285
000290 2b 60 64 be bb a2 dd bd f6 66 3b bd 6b 06 0d 3f
       -0.2230231 -0.10822054 -0.045752488 0.5508792
0002a0 2a 73 a3 be b8 f5 4e bb 9e a9 8d bd 14 39 17 3e
       -0.319238 -0.0031579565 -0.069171175 0.14767867
0002b0 80 4d 3e bf 08 a4 a4 bd e6 d6 9b 3c 65 83 aa 3d
       -0.74337006 -0.08039099 0.01902337 0.08325843
0002c0 13 b2 28 be 02 df 55 bf 74 8a 43 3d de f0 be 3d
       -0.1647418 -0.8354341 0.04773946 0.093232855
0002d0 31 ce 88 3f b8 b1 79 bd 24 e3 a3 3e 08 99 a6 be
       1.0687925 -0.0609605 0.32009232 -0.3253863
0002e0 3b 0d c8 bb d1 c0 3b be dc 40 4e bd a1 19 ff 3d
       -0.006105093 -0.18335272 -0.050354823 0.1245606
0002f0 d1 18 19 3e ec a0 2d bf 2b 67 87 bd 24 24 55 be
       0.14950873 -0.6782367 -0.066114746 -0.20814568
000300 ae c7 15 be 51 db c7 3e e5 a9 8f bf e2 9e 0f 3f
       -0.14626953 0.39034513 -1.1223723 0.5610181
000310 4b e9 af 3b bf 1a be 3d d1 aa d8 bd e4 0d 69 3e
       0.005368387 0.09282445 -0.10579456 0.22759205
000320 42 7d 40 bf a4 6a 76 3e e5 0c 17 3e d2 a9 7d 3e
       -0.7519113 0.24064118 0.14751013 0.24771813
000330 82 71 42 3d a1 85 5b be a5 df 0f 3f 93 3c 29 3d
       0.04747153 -0.21437694 0.5620063 0.041317534
000340 29 81 72 bf d0 0b dc bd 66 ad 84 3d 1c 2b 86 bd
       -0.9472833 -0.107444406 0.064783856 -0.06551191
000350 11 47 72 3e 77 a6 3d be c4 da 0d be 1d 34 99 bf
       0.23659922 -0.18520533 -0.13852984 -1.1969029
000360 cb b1 bf be 31 f2 3e be bf e5 3b 3d 5b 9a f4 3e
       -0.37440333 -0.18647076 0.0458734 0.47774014
000370 b1 a3 b1 be c6 50 49 3e a6 0e bb be ec 34 fc 3c
       -0.346952 0.19659719 -0.36534613 0.030786954
000380 c5 26 c0 bd 66 e0 09 bf b9 00 e0 3d c3 0e 4b 3e
       -0.09382395 -0.5385803 0.10937638 0.1982985
000390 b3 95 91 bd b7 c7 d9 bd d9 a2 cf be 2e 6a 9d 3e
       -0.07108631 -0.10633796 -0.4055393 0.3074507
0003a0 e8 e1 16 3f 2f 01 6d 3d d8 26 6a bd 1c 41 99 bf
       0.58938456 0.057862457 -0.05716595 -1.1972995
0003b0 93 99 1a 3e ca 16 71 bd 74 f0 08 bd 73 67 7c bf
       0.15097646 -0.058859624 -0.03343244 -0.9859535
0003c0 92 32 b7 bd f7 3b 12 bf 0b 8d 34 bf 3b 2c 4b bf
       -0.089451924 -0.5712275 -0.70527714 -0.79364365
0003d0 99 69 49 3e ca a1 29 be a8 16 05 3f 57 17 03 3f
       0.19669189 -0.16565624 0.51987696 0.5120749
0003e0 6b 23 a8 3f 2c 12 a9 3e 64 be 13 bf c5 2f 10 3f
       1.3135809 0.33021677 -0.5771239 0.5632289
0003f0 a1 59 8e 3e 40 2e ec be 06 6d e6 be 7f 10 b7 3e
       0.27802756 -0.46129036 -0.45005053 0.35754773

fc2.bias f4 [256]
000000 47 f8 dd 3e 5b 4c 60 3e 4c 6e 25 bd fc 73 0d 3f
       0.43353483 0.21904127 -0.04038839 0.55255103
000010 2b 59 3d bd 42 e2 e2 3e 9d ec e4 3e 38 86 31 bc
       -0.046227615 0.44313246 0.44711772 -0.010835223
000020 4c 7e 84 bd 71 20 85 3e 1c ca 8f 3e 49 7e df bc
       -0.06469402 0.26001313 0.28083885 -0.027281897
000030 b2 62 07 3f a1 0d 65 3e 08 65 2c 3f fd 5e b3 3e
       0.5288497 0.2236848 0.6734166 0.35033408
000040 31 ab 6e be 4b d7 f5 3e 42 a8 48 bd 99 0d 68 3e
       -0.23307492 0.48015818 -0.04898859 0.22661437
000050 f1 2a 34 3e dc e5 2c 3f fa d9 8c 3c 24 75 a2 bd
       0.17594506 0.6753824 0.017193783 -0.07932499
000060 ca 67 bd 3e 7a 49 0a bc 2a c2 29 bd 24 e6 f2 bd
       0.36993247 -0.00844037 -0.041444935 -0.11860302
000070 ca af 23 bd dd 5f df bd 21 2c 09 bd cb 31 fe b9
       -0.039962567 -0.10906956 -0.03348935 -0.00048483754
000080 f2 a5 08 bd ba 21 f7 3e 66 d4 f3 3e b8 73 cb bd
       -0.033361383 0.4826792 0.47622985 -0.09934181
000090 8a 79 a9 3e 80 8b 0b 3f 0f 91 e5 be 97 3b 03 3f
       0.3310054 0.54509735 -0.44837233 0.512628
0000a0 ed 1f a0 3c 7c b3 4c 3e 36 3b 7f bd be a0 9f bd
       0.019546473 0.19990343 -0.062312327 -0.07794331
0000b0 10 7c df 3a cc 08 8e bd 0a 4f 13 3e ba ba f1 3e
       0.0017050523 -0.069352716 0.1438562 0.47212774
0000c0 4b cd 67 bc 06 d3 a6 bd 0b e8 28 3f 7b fa a4 bd
       -0.014148067 -0.08145718 0.6597907 -0.08055588
0000d0 55 07 52 bd 9d 4d f0 bd e4 aa d8 3e e0 ae 24 3f
       -0.051276524 -0.117335536 0.4231788 0.6432934
0000e0 71 0a ec bd 6a e1 27 3f 66 f0 ed 3e 0b 64 d0 bd
       -0.11525429 0.6557833 0.46472472 -0.10175332
0000f0 bf a5 18 3f 7a 68 a5 3e 29 64 d3 3e ca 65 37 3c
       0.5962791 0.32306272 0.41287354 0.011193702
000100 15 e5 98 3e b0 db bc bd d4 40 41 bc 24 eb 1e bd
       0.29862276 -0.092215896 -0.011795241 -0.038798466
000110 36 5a 59 bd a5 dc 1b bd 63 17 3e 3c 33 e9 33 3b
       -0.053064547 -0.03805222 0.0116022555 0.002745223
000120 2f 3f 86 bd 73 48 15 3f 93 84 4d 3e 3f fc 2f bd
       -0.0655502 0.58313674 0.20070104 -0.04296517
000130 3f 85 1b bd 53 db 40 3e e4 1f 12 bd 8f 68 b5 3e
       -0.03796887 0.18833666 -0.035674945 0.35431334
000140 9e 59 c5 bd 67 d2 81 bd 5c bc 1d be c9 21 7e 3e
       -0.09636234 -0.06338959 -0.15403885 0.24817576
000150 dd 18 cb 3d 07 8a 0c 3f 66 1a 6d 3f 25 99 2f bd
       0.09916852 0.54898113 0.92618406 -0.04287066
000160 69 6f af 3e d7 2e 91 bc 3a c9 1c 3e f4 65 e5 bc
       0.34264687 -0.01772253 0.15311137 -0.028002717
000170 0e 21 79 3e cc 1b cc bd 52 05 f0 3e f8 b4 04 bf
       0.24329016 -0.09966239 0.4687906 -0.51838636
000180 45 b9 a2 bd 04 fa fc 3e 08 72 a2 3a 7c db c6 3e
       -0.079454936 0.49409497 0.0012393603 0.38839328
000190 1c 9e 8e bd 84 5c 29 3c d9 d8 4d bd 43 c4 33 bd
       -0.06963751 0.010336999 -0.05025563 -0.04388834
0001a0 ac 01 e7 bd 6c 45 e9 3e 74 7b c8 3e bf 2e 0a 3f
       -0.11279616 0.45560777 0.39156687 0.5397758
0001b0 b9 e9 f8 bc db af 01 be 76 a1 a7 bd 9b 6c 28 bd
       -0.030384885 -0.1266474 -0.08185093 -0.0411192
0001c0 55 30 18 3f 42 e4 97 3e be d8 9c bd 08 b5 0c bd
       0.5944875 0.29666334 -0.07658528 -0.034352332
0001d0 0a 1a 1f 3f a3 0b b6 bd 19 5e f2 3e d9 ec cd 3e
       0.6214911 -0.08888938 0.47337416 0.40219763
0001e0 f5 2d cf bd 2d f3 66 3f 71 eb 8e 3e 80 33 9a 3e
       -0.101161875 0.90214807 0.27914003 0.30117416
0001f0 bb 0d 90 bd bd 08 3b 3f b0 ec d7 bd dd bc 42 3d
       -0.07033869 0.7306021 -0.105431914 0.047543395
000200 78 6a b6 3e b5 3c a7 3e 45 2d a0 bd 4e 9a 6d 3d
       0.35628104 0.32663503 -0.078211345 0.058008485
000210 fd ef a0 3e 2b a5 12 3f 61 ed bd bc 8b 5d 3a bb
       0.31433097 0.57283276 -0.02318448 -0.0028437104
000220 37 c5 08 bd 8f 47 41 3e 28 3e d6 3e 1c af 63 3e
       -0.033391204 0.18874954 0.41844296 0.22234768
000230 9a 10 1a 3f c8 9f b0 3d 64 76 b2 bd 7c 46 b1 3e
       0.6018158 0.08624226 -0.087139875 0.34624088
000240 b2 93 23 bd 2d d7 86 3d 22 93 84 3e 16 21 cd 3e
       -0.039935775 0.0658401 0.25893503 0.40064305
000250 e0 14 f4 bd f5 98 2e bd f8 fd cc bd 6b 5c 16 bd
       -0.11918044 -0.04262634 -0.10009378 -0.03670923
000260 7e 38 37 3f eb fe 1f bd 0d f4 0a be ac 09 ec bd
       0.71570575 -0.039061468 -0.1356966 -0.11525282
000270 9d 30 2a bd 02 e1 3d 3f 60 2f 82 3e 0d 98 44 bd
       -0.041550267 0.7417146 0.2542677 -0.04799657
000280 04 8f d2 bc 85 94 3e bd 10 8c d5 3e 7c f0 91 bd
       -0.02570296 -0.046528358 0.41708422 -0.07125947
000290 39 a2 be 3e 9c 09 44 bd d5 9a ef bd 11 bf 19 bd
       0.3723314 -0.047860727 -0.11699454 -0.03753573
0002a0 41 6d dd 3e 24 12 fd 3e 5d 03 87 3e 2d 4a 34 3f
       0.43247417 0.49427903 0.26369753 0.70425683
0002b0 05 1a 10 bd 62 9e 55 3e ef ea 85 bc 50 2c 73 3c
       -0.035181064 0.208612 -0.016347377 0.014842108
0002c0 c3 f8 aa be d0 43 01 3c c5 a1 39 be 9c c3 65 3c
       -0.33392915 0.007889703 -0.18128116 0.014023688
0002d0 db 43 4b be 31 fe 0c 3f fc 7a c3 be 51 26 0d 3e
       -0.19850104 0.55075365 -0.38179767 0.13784148
0002e0 5a b4 97 bd f2 83 c4 3e 69 9a 74 bc 25 b0 84 3e
       -0.07407446 0.38381916 -0.014929392 0.25915638
0002f0 98 2e 00 3f 4a 78 00 bd 57 ed 76 3e f6 a1 28 3e
       0.50071096 -0.031364717 0.24113975 0.16468033
000300 06 29 e6 bc 4f da 1d 3f 4b e1 89 3e 89 80 8c bd
       -0.028095733 0.6166124 0.26929697 -0.06860454
000310 4d 72 5d 3f 62 f4 03 3c 7b 1c 91 3e b7 c8 87 3e
       0.86502534 0.008053871 0.2834204 0.2652032
000320 13 a6 0d 3f f0 e2 86 be 17 87 73 bd 04 2e 10 bd
       0.55331534 -0.26345015 -0.059455004 -0.035200134
000330 90 f4 94 3f e3 9b 2c bd 94 75 7e 3f a2 7f c3 3e
       1.1637135 -0.042140853 0.9939816 0.38183314
000340 63 38 51 be 9d ad 47 3f 03 58 0b be 4e 98 ef bd
       -0.20431666 0.7799929 -0.13607793 -0.11698972
000350 c3 93 91 bd fc 80 7a 3f 42 94 ac bb ae 5a af 3e
       -0.071082614 0.97853065 -0.005266697 0.3424887
000360 28 d0 0c 3f 36 a2 c6 bc 0e b1 77 3f 7c a7 90 3e
       0.5500512 -0.02424727 0.9675454 0.2825278
000370 28 64 bc 3e 08 4b ba bd 93 0f 15 3f 5e 61 8f 3d
       0.36795163 -0.09096342 0.5822689 0.07000993
000380 74 11 99 bc 5b a1 b5 bd 0d ef 4a 3e 6a 0d 90 bc
       -0.01868508 -0.08868667 0.19817753 -0.017584521
000390 a3 fa 63 3c 8d ad 24 3e bf b1 d1 3e 08 d6 c6 3e
       0.013914737 0.1608183 0.40955922 0.38835168
0003a0 b3 1f fc 3e fb 34 80 bc 45 10 09 bd 0b b8 b2 bd
       0.49242935 -0.015650263 -0.03346278 -0.0872651
0003b0 8a 4b 3d 3d 64 7d c0 3e 8d 68 cb 3e 43 57 ad 3e
       0.046214618 0.37595665 0.39728203 0.33855638
0003c0 13 73 04 3e 56 7d 20 bd bb 93 62 bd 48 89 89 3e
       0.12934522 -0.03918203 -0.055316668 0.2686255
0003d0 07 00 eb 3e 54 77 50 bd bc 0e 76 3e 78 28 10 3f
       0.45898458 -0.05089505 0.24029058 0.5631175
0003e0 99 d8 07 bd 6c 69 aa bc c8 a5 cb 3e 3f c8 f8 bd
       -0.033165548 -0.020802222 0.3977492 -0.12147569
0003f0 f0 6c 60 3c 35 a8 0e bd 82 03 c8 3e 59 ba 20 3e
       0.013697848 -0.034828383 0.39065176 0.15696086

fc3.weight f4 [256, 256]
000000 fd 64 12 3f f5 d9 49 bf 96 b0 3e 3d 96 20 a5 3e
       0.57185346 -0.788482 0.046555124 0.32251424
000010 2f 35 a4 bd 26 ed 44 bd 08 34 ab bd cf cf 4b bc
       -0.080179565 -0.048077725 -0.083595335 -0.012439682
000020 e2 ec 86 bd 18 ae 71 3d d5 28 ae bf d5 01 50 3c
       -0.065881506 0.05900392 -1.3606211 0.012695749
000030 77 ad ea bc 55 84 7d bf c6 d3 bb 3d ea cc cf 3e
       -0.028647168 -0.9903005 0.09171252 0.40586025
000040 e3 e0 1b 3e 48 9e ce 3d ab 5a 37 3d 10 e3 77 be
       0.15222506 0.100887835 0.044764202 -0.24207711
000050 64 ab a5 3e 62 a7 35 3f 21 29 6c 3e 91 dd 93 3d
       0.32357323 0.7095853 0.23062564 0.07219995
000060 27 56 73 3e d0 1a 6b 3d 34 5b ee 3b fe e0 a6 bd
       0.23763333 0.057398617 0.007274056 -0.081483826
000070 05 e5 88 3c d5 01 ea 3c 18 0e 2f 3d 5a cd 18 3d
       0.016710768 0.028565327 0.04273805 0.037305214
000080 68 80 1e 3c ea 4d 16 3e c5 cc 09 bf 0b ca 85 3c
       0.009674169 0.1467816 -0.5382808 0.016331693
000090 4c d9 b8 bd 0d 40 30 bf 0f 1f 14 be f4 17 2b bf
       -0.09025821 -0.68847734 -0.14464973 -0.66833425
0000a0 53 70 c1 bb 8b fa 10 3d 88 fd 76 bc 64 2d b4 bd
       -0.0059032827 0.035395186 -0.015075095 -0.0879772
0000b0 8e da 2a bd 48 6c 04 3d a6 b5 bf be 88 67 b0 bd
       -0.041712336 0.032329828 -0.37443274 -0.08613497
0000c0 d3 c0 f9 3b 57 97 30 3d 0c 0a 0f 3f ef e9 9f 3b
       0.0076218634 0.04311308 0.55874705 0.004880182
0000d0 89 3d 82 3b 14 5a 11 3d e6 50 82 3d f9 66 5c be
       0.0039746207 0.035486296 0.063630864 -0.21523656
0000e0 da 5b ac bc 00 16 0b 3f 1b 3b 7b 3f 09 3d 7b 3d
       -0.021039892 0.54330444 0.9813706 0.061337505
0000f0 a3 d1 3d be a5 a1 26 3e 76 81 53 bd 22 63 71 3d
       -0.18537001 0.162726 -0.051637135 0.05893243
000100 87 3b 71 3e e0 63 3b bd 66 4a 71 bd 7b e6 5d c0
       0.23557864 -0.045749545 -0.058908843 -3.4671924
000110 43 0b 92 bd 3b 4c 5d 3c 14 9a 32 bd ee 32 5b bd
       -0.07131054 0.013506944 -0.04360397 -0.053515367
000120 2d f9 4a bf 4c 45 b7 3d f4 0a 00 c0 be f3 06 bc
       -0.7928646 0.08948764 -2.0006685 -0.008236824
000130 be bc 5f be 2c c4 5f 3d 5c b5 a2 3c ff 52 c3 3e
       -0.21849343 0.054630443 0.01986187 0.38149258
000140 d8 db 8a bf 1b c6 ca 3b b6 e8 c8 39 cb 8d de be
       -1.0848341 0.006188167 0.00038320356 -0.43467554
000150 1e ba 85 3b 51 5a ab 3b a6 2d 2a 3e 50 71 3c bd
       0.004081025 0.0052292724 0.16618976 -0.0460065
000160 d5 41 c5 3e b8 c2 be bf ed a0 ab bd f4 19 0e bb
       0.38526788 -1.4903173 -0.083803035 -0.002168295
000170 1d 69 aa 3e cf e5 76 3b 42 22 55 3f 76 a4 85 bc
       0.3328332 0.0037673598 0.832554 -0.016313773
000180 0f 65 d1 3c 0b 52 70 be 64 23 3d bd fb 8c c7 3e
       0.025560884 -0.23468797 -0.04617633 0.38974747
000190 79 f0 35 bd 8f 4a c0 bc 89 32 dd bb 81 bc b6 3d
       -0.044418786 -0.023473052 -0.006750409 0.08922673
0001a0 45 15 8f 3e f9 1b 2b bd 1d 02 27 3e d0 c6 8e be
       0.27945915 -0.041774724 0.163094 -0.27886057
0001b0 90 d1 de bb 57 44 93 bd 7d 76 11 3d 41 31 79 bd
       -0.006799884 -0.07190769 0.03551339 -0.060837988
0001c0 6d ae a8 3e fa 99 4b 3e 3e fe 03 bd cc 7b f8 bc
       0.32945576 0.19882956 -0.032224886 -0.030332468
0001d0 86 2b ba 3e c1 7c f0 3c a5 0f 29 be 3d ca 1b 3e
       0.3636133 0.029356362 -0.16509874 0.15213867
0001e0 b5 49 87 3d b4 c1 07 be 6c c7 b8 3e aa d3 07 3f
       0.066058554 -0.13257486 0.36089647 0.5305735
0001f0 e8 e3 cb bf 7a d1 9a be 31 61 62 bd c5 c7 83 3e
       -1.5928926 -0.30237943 -0.05526847 0.2573835
000200 c0 31 b9 3e 4e f6 2f 3f 3b 8e 96 bd 08 8e c3 be
       0.3617077 0.68735206 -0.07351347 -0.381943
000210 a6 17 7c 3e 7c 2a 09 3f 60 7c 07 3d f2 a6 05 3d
       0.24618396 0.5358045 0.033077598 0.032629915
000220 70 42 3e 3c 33 71 20 3e b1 e8 84 3e b3 29 f8 3e
       0.01161252 0.15668182 0.2595878 0.48469314
000230 28 71 e5 3e e7 37 fc 3e 6a ef 76 3c c5 40 f4 3d
       0.44812894 0.492614 0.015071729 0.11926416
000240 15 ee 34 bd 00 a1 59 3e 1c 01 05 bf fe 6a 49 bc
       -0.044172365 0.21252823 -0.5195482 -0.012293575
000250 bc 8d 20 3d dd 5b 7c bb 0e 31 81 3d 5f b2 ae bb
       0.03919767 -0.0038506903 0.063081846 -0.005331322
000260 5b b9 8f 3e 37 69 5d 3d e2 65 49 bd f4 4d 9d bd
       0.28071102 0.05405542 -0.04916943 -0.07680884
000270 a9 75 84 bd 4a 41 56 bd 8f a5 51 bd eb 92 60 bd
       -0.064677544 -0.05230836 -0.05118328 -0.054827612
000280 90 2c 8f 3b 75 a5 e2 3c ef c3 9f 3d 66 20 94 bd
       0.004369326 0.027666787 0.07801043 -0.07232742
000290 b7 8b 50 bf 22 0e 41 3d ca 56 26 bc 46 15 5b 3a
       -0.8146319 0.04713262 -0.010152528 0.0008357357
0002a0 38 4b a6 3f b3 f4 d0 bc 60 b2 5c bf 9b 12 d9 3c
       1.2991705 -0.025507307 -0.8620968 0.02649813
0002b0 70 21 cb bc 64 88 1b 3e e5 86 9e bd 5c cc 07 3d
       -0.024796218 0.15188748 -0.07740573 0.033153877
0002c0 1f 28 0c bf 21 f7 b0 bc 07 ae ae be 3b 49 b0 3c
       -0.5474872 -0.021602215 -0.34117147 0.021519294
0002d0 eb a7 4c bc 6a 8a 8b 3e 2a c8 db bf 1b 37 54 be
       -0.012491207 0.2725404 -1.717046 -0.20724146
0002e0 1b 8e d1 bc ff bd 27 3f 4d e2 96 3d 06 2d d9 3d
       -0.025580456 0.65524286 0.07367382 0.10604291
0002f0 d4 98 44 3c ad af b8 bc 82 93 11 3f db 55 2d 3e
       0.011999328 -0.022544706 0.56865704 0.16927283
000300 33 35 97 3d 77 e6 74 3f 8d ee 29 bf b9 8f b1 bc
       0.07383194 0.9566416 -0.66379625 -0.021674978
000310 cf 57 cc 3e 74 99 c7 bc a8 48 b5 be 45 50 82 bf
       0.39910743 -0.024365164 -0.35406995 -1.0180746
000320 4b c6 ac bd ec a2 3c bf f5 01 7f 3d 88 67 d9 bc
       -0.08436259 -0.736861 0.062257726 -0.026538625
000330 d8 88 2c bc 8a 84 13 bd 0a e8 0f 3f 5d be 18 be
       -0.010530673 -0.03601507 0.5621344 -0.14916368
000340 90 75 72 be 7c 5b 02 be 4f a8 01 be e7 59 1a 3d
       -0.23677659 -0.12730211 -0.12661861 0.037683394
000350 56 e9 12 3d cc a4 13 bd 32 85 51 bf 0e 9d 25 bf
       0.035867058 -0.036045834 -0.81843865 -0.6469277
000360 8f c5 32 3f 97 f4 14 3d 39 c3 96 3d 81 bc 0b be
       0.698327 0.03636607 0.073614545 -0.13646127
000370 5a 06 8a 3e ed d8 36 bd a9 b5 05 3f 51 54 a2 3e
       0.2695797 -0.04464047 0.52230316 0.31704953
000380 cd 58 37 3c 75 00 9f bc a1 58 ce be 8c 2b 36 bd
       0.011190605 -0.019409398 -0.40301993 -0.044475123
000390 8c 43 c1 3d b7 9a a6 3e c7 40 6c ba e4 00 5d bf
       0.09436712 0.32539913 -0.0009012338 -0.86329484
0003a0 ab f8 98 3e fa b0 31 bd ee 11 2b 38 f3 b9 51 bd
       0.2987722 -0.04338167 4.0786275e-05 -0.051202726
0003b0 4e 39 28 3f fe 89 5c be ec 93 33 3e 89 6a 19 3e
       0.6571244 -0.21537015 0.17536896 0.14982046
0003c0 e1 da 14 be 59 09 81 3d 2c 6e 2c bd d6 33 b1 3f
       -0.1453662 0.06300611 -0.042097256 1.3843944
0003d0 61 40 f1 3e cf ce 78 bd 32 d2 23 3f 37 bb cc be
       0.4711943 -0.060744103 0.6399261 -0.39986584
0003e0 c8 d6 2d 3d 36 60 1c bd 42 37 e2 be 0d 1c 9f 3c
       0.04244116 -0.03817769 -0.44182783 0.019422555
0003f0 32 b1 0b 3c 23 1e ca 3c b6 ae e3 3d 00 a8 7a 3c
       0.008526133 0.024672573 0.11117308 0.015298843

fc3.bias f4 [256]
000000 87 72 d4 3f ea ce 52 3f 98 a2 e4 bd b0 a1 be 3b
       1.6597451 0.82346976 -0.11163825 0.0058176145
000010 89 6a 87 bf d4 04 93 bd f5 b5 95 3f 4b a6 27 bf
       -1.0579387 -0.07178655 1.1696154 -0.6548812
000020 d3 a4 33 be d4 c4 bf bd dd f3 2b bd ea f5 6b be
       -0.17543344 -0.09363714 -0.041980613 -0.23043028
000030 a7 3d 2d 3f dd bb 49 3f b2 4f 45 ba 83 09 df 3f
       0.676722 0.7880228 -0.0007526829 1.7424778
000040 52 c6 7b 3e 6d 30 f2 3e b8 ab bb bd 51 a3 91 3f
       0.24587372 0.4730257 -0.09163612 1.1377965
000050 28 9b 7d 3f 95 e2 2b 3f e6 76 44 bd 75 69 74 3f
       0.99064875 0.6714261 -0.047964953 0.95473415
000060 07 88 ac bc 20 7a 5f bd 5d 15 c0 bd 88 89 28 3d
       -0.021060957 -0.054559827 -0.09379075 0.041146785
000070 4d a0 46 bf 65 aa e6 3f e0 7e b0 3f 73 98 c4 bd
       -0.7758835 1.802075 1.3788719 -0.0959939
000080 03 be 60 3e eb c0 db be e4 2d 5e 3f b6 fd 9e bd
       0.21947484 -0.42920622 0.86788774 -0.07763235
000090 2c 53 04 3f 8a da b9 ba ea cd cf bd a0 0c 2b be
       0.5168941 -0.001417951 -0.10146697 -0.16704035
0000a0 32 94 e2 be 14 36 91 3e 4f b0 27 3c 16 c3 bc 3d
       -0.4425369 0.2836157 0.010234906 0.09216897
0000b0 d8 d7 d5 3f 40 c6 9b 3b 5d e3 a9 bd 61 37 01 40
       1.6706495 0.004753858 -0.08295319 2.019005
0000c0 f2 46 a8 3e 94 98 d1 3f 70 04 63 3f 97 ac 62 bd
       0.32866627 1.6374688 0.88678646 -0.055340376
0000d0 8f 4e be bd 0b 00 bd bb a0 87 35 3e 40 af 4c bc
       -0.092923276 -0.0057678274 0.17727518 -0.012492955
0000e0 0d 75 25 3f fd 64 53 3f b2 7a a7 3f 9f 65 7a 3e
       0.6463173 0.8257597 1.3084319 0.24452828
0000f0 73 e4 ca bc 77 b6 b9 bd e0 89 81 bd b1 8c 09 bd
       -0.024767136 -0.090680055 -0.06325126 -0.03358144
000100 19 d3 69 be 17 59 21 bc f3 42 b2 bc 0f ef 65 bd
       -0.22834434 -0.009847901 -0.02176044 -0.056136187
000110 d7 e4 db bd ed 54 98 bb e3 12 1b bd 18 bb a4 bd
       -0.10737007 -0.004648796 -0.03785981 -0.08043498
000120 7c 51 8c 3f 58 b4 7f 3f e9 f3 f6 bc a4 a5 c6 3e
       1.0962367 0.9988456 -0.030145602 0.3879825
000130 2c 52 b2 bd dd 94 9e bd 45 e8 17 3f 24 f1 c0 3c
       -0.08707079 -0.07743237 0.5933879 0.023552485
000140 2a fe a8 be c4 7b 36 3e 0c 45 06 3e da da b8 3e
       -0.33006412 0.1782065 0.13112277 0.3610447
000150 5b bb d5 3f 75 27 aa 3f 52 5d 5f 3f ff 1d 27 bf
       1.6697801 1.3293291 0.8725177 -0.65280145
000160 0b 97 1e 3f 82 10 94 bd 60 17 51 3f 29 5f fe 3f
       0.61949223 -0.07229711 0.8167629 1.987279
000170 c8 0e 91 3f 87 22 41 3c 08 eb 8a 3e 27 f9 84 3f
       1.1332636 0.011788017 0.2713244 1.0388535
000180 be c8 96 3e 5a c0 5a bb 43 54 60 bf cb 16 fc bd
       0.2945003 -0.003337881 -0.87628573 -0.12309035
000190 6d b5 2e 3f c8 b5 c6 bc 86 0e b7 3e a6 32 9d 3f
       0.68245584 -0.024256602 0.35753268 1.2281082
0001a0 f1 7f ce 3e f3 75 f1 3e 59 cb 4b 3f 5c df 18 3e
       0.40331987 0.471603 0.7960716 0.14928955
0001b0 35 f8 bd bd c3 00 7f 3a 0e d1 12 bd f9 c0 d3 3f
       -0.09275857 0.00097275915 -0.0358439 1.6543266
0001c0 f1 5d 0b bd 86 ad be 3c 8f 3e 91 bd b2 4d 88 bd
       -0.034025136 0.023276102 -0.0709201 -0.06655444
0001d0 f6 39 3c 3f 82 8e 61 3c b3 5d 8e 3f 61 95 6e bd
       0.7352594 0.013766887 1.1122345 -0.058247928
0001e0 6f ae 84 3c 35 ce 64 bd d6 47 c9 3f 96 b1 bc bd
       0.016196458 -0.055860717 1.5725048 -0.09213559
0001f0 66 0d a3 bd 35 2f 50 3f 4e 02 ea bd 0c a9 ce bd
       -0.0796154 0.8132203 -0.11426221 -0.10090837
000200 ba 30 2d bd e0 83 d7 bd 46 da 24 bd bb d4 3d 3e
       -0.042282797 -0.105232 -0.040247224 0.18538181
000210 44 36 41 be 0e f4 0a bd af 2f 28 bd 82 de 99 3f
       -0.18868357 -0.033924155 -0.0410611 1.2021029
000220 d9 e5 56 bc cf 0a c1 3f 85 4e f8 bd d3 d2 60 3c
       -0.013116323 1.5081424 -0.121243514 0.013722139
000230 c6 97 23 bd e4 4a a5 bd 0e 3b 5e bd 2e 95 79 bc
       -0.039939664 -0.08070925 -0.054255538 -0.015233321
000240 eb 5b 6b bd d2 e1 9a ba 8c 5a c9 be 97 27 15 3d
       -0.057460707 -0.0011816567 -0.39326894 0.03641471
000250 72 ed a7 be 6f 4f 07 bd 6c d6 62 3f 56 fa 80 3b
       -0.32798344 -0.03303474 0.8860843 0.0039360924
000260 19 05 da 3f 52 17 10 3f bc 04 b0 bc a4 70 84 3f
       1.7032806 0.56285584 -0.021486633 1.0346875
000270 ca 44 6b bf b1 53 e3 3e ef 3d 49 bd 7f 7c 16 bd
       -0.9190184 0.4439979 -0.04913133 -0.036739822
000280 ad 50 24 3e 28 e3 b2 bc 7f 1b 6c be 28 74 91 bc
       0.160464 -0.021836832 -0.23057364 -0.017755583
000290 20 47 ea bc e2 96 0b bc b0 ae 43 bd 64 63 f5 3c
       -0.028598368 -0.00851986 -0.047774017 0.02995462
0002a0 00 b7 f1 3c 5f b1 f0 bd cc 7f f7 3e 22 14 d4 bd
       0.029506207 -0.11752581 0.4833969 -0.103554025
0002b0 8d bb 92 bd bd 45 4e 3f c3 61 7f bd b2 4a 2f bf
       -0.07164679 0.8057516 -0.062349092 -0.6847335
0002c0 2e 21 c8 bd 86 1a 62 bd 69 22 09 bd 54 c8 9c bd
       -0.097719535 -0.055201076 -0.03348008 -0.07655397
0002d0 27 33 4e bd b0 4f 02 be bb 51 46 bd dd 85 15 bf
       -0.05034175 -0.12725711 -0.048417788 -0.58407384
0002e0 55 03 bf 3e df bf f1 bb 4c 86 e3 bd 23 56 4d ba
       0.3730723 -0.007377609 -0.111095995 -0.0007832965
0002f0 11 db 62 bd 21 c3 57 3f da 4d e4 3f 1f 99 d2 bd
       -0.0553847 0.8428212 1.7836258 -0.10283112
000300 3e 2c 82 bf d7 72 d9 bd f3 90 a9 3f 98 0d 51 3f
       -1.0169752 -0.10617607 1.324736 0.8166137
000310 c7 98 36 3f 0b b0 b5 bd 78 12 58 3f e7 8a 84 bc
       0.7132687 -0.08871468 0.8440318 -0.016179515
000320 cf da e0 3f 04 13 01 be 1a 34 6b bf 88 99 d8 bc
       1.7566775 -0.1260491 -0.91876376 -0.026440397
000330 19 75 f1 3f b5 cd 92 3e 6c e3 d5 3e 73 06 6a 3f
       1.886386 0.28672567 0.41775072 0.9141609
000340 a5 24 8a 3c 4c 23 14 3f 82 73 e4 3c 4a 3c 51 3f
       0.016863177 0.5786636 0.02788711 0.8173262
000350 a8 e9 90 3f d6 88 88 3f 05 e9 25 3f 9a a7 1e bd
       1.1321306 1.0666759 0.64808685 -0.038734056
000360 dc 6b dd bc 85 39 ff 3e a2 0b ef bd 52 3e 03 3f
       -0.02702897 0.4984857 -0.11672141 0.5126697
000370 94 c7 4c 3c 99 be 41 bd ec 3a 53 bc 39 cf c9 bd
       0.012498755 -0.04730091 -0.012892466 -0.09853978
000380 0e e9 6d 3f 68 08 ed 3e 4c 59 d9 3f 58 58 ed 3f
       0.9293374 0.46295476 1.6980376 1.8542585
000390 3c e0 c5 3c c2 60 9d bd d6 ce 09 be 8d d8 2e bd
       0.024154775 -0.07684471 -0.13457808 -0.042686988
0003a0 fd 4b 38 3e 74 93 ea bc 6f 1b 3b bf ae ed 2e 3f
       0.17997737 -0.028634764 -0.73088735 0.6833142
0003b0 ae 08 d1 bd 6a f1 9f bc 89 6d f6 bb 75 6f d5 bd
       -0.10206734 -0.019524295 -0.007520382 -0.10421649
0003c0 73 ec 00 3f bd 0d bf 3d d9 d1 16 3f 5b 1b 94 3f
       0.5036079 0.09328792 0.5891395 1.1570848
0003d0 66 f5 bd bc 4a 22 c6 3e a9 e6 96 bc c2 4d eb bc
       -0.023188304 0.38698035 -0.018420534 -0.028723601
0003e0 b6 be 00 be ae ee 8a 3f f7 e6 e1 3f ea 21 c6 3e
       -0.1257275 1.0854089 1.764861 0.3869775
0003f0 12 91 f6 3e bb 22 86 bd ca dc 4e bf 8b 40 d0 3f
       0.48157555 -0.06549593 -0.8080565 1.6269697

fc4.weight f4 [5, 256]
000000 94 b4 1b bf 93 a0 96 bf 59 03 af 3c 0d c8 89 bc
       -0.60822415 -1.1767753 0.021363901 -0.016819024
000010 ab 4a 76 3d c3 c8 ca 3b ea 25 35 be d6 15 ce 3e
       0.060129803 0.0061884834 -0.17690244 0.40251034
000020 fc af bb be a5 3c 33 3d d6 c7 b6 3b 77 9c 3e be
       -0.36657703 0.043759007 0.0055780215 -0.18614374
000030 2c 6e e4 bd 69 11 37 bf 8c ef 17 3f d7 5c 12 be
       -0.11153826 -0.7151094 0.59349895 -0.14293228
000040 c8 c1 b8 be 88 cc 35 3e 48 37 64 3c 35 f0 88 3e
       -0.36085343 0.17753804 0.013929196 0.26745763
000050 7c 44 4d be 59 4f b0 3d 29 09 e8 bc 30 86 b2 3d
       -0.20045656 0.08608884 -0.02832468 0.087170005
000060 25 f4 73 3c ed 2c 71 be 72 ae 5c 3b 54 ed 42 bf
       0.014889752 -0.23552294 0.0033673313 -0.76143384
000070 2e 8c 8c 3e d6 58 62 be c5 7f 7e 3c a3 0d d9 3b
       0.274507 -0.221042 0.015533392 0.00662394
000080 f4 71 f3 3e a5 b1 4c 3e 10 7e 30 bf 3a 42 0e bd
       0.47547877 0.19989641 -0.68942356 -0.034731127
000090 e6 2a 1d bd 97 11 fa bc 6d 16 3d 3c 5d 36 39 3d
       -0.03837099 -0.030525966 0.011540991 0.04521786
0000a0 40 f0 be 3d be c9 05 3e 9c 11 2f bd 95 b2 1f 3f
       0.09323168 0.1306524 -0.042741403 0.6238187
0000b0 d8 c3 a3 bd b7 3c 9f be 24 31 4d bc 78 fe 8c be
       -0.079963386 -0.3110101 -0.012523923 -0.27537894
0000c0 53 5f 65 3e 55 10 99 bc c2 da 72 be 9d 54 a3 3b
       0.22399645 -0.018684546 -0.23716262 0.004984452
0000d0 e4 68 89 3c bf 5c a6 bc 1a 67 d2 3f 3b 15 35 bc
       0.016773649 -0.020307897 1.6437714 -0.011052425
0000e0 33 39 b8 be 38 4a c6 be 51 a9 24 bd c7 1a 74 bc
       -0.3598114 -0.387285 -0.040200535 -0.014898962
0000f0 d5 f5 71 3c cc 76 ac 3e d5 dd 45 3b 45 e2 20 3c
       0.014768084 0.33684385 0.0030192037 0.009819572
000100 50 1e 38 3d 7b 75 ba 3a 20 45 1d 3c 12 96 03 3d
       0.044950783 0.0014225686 0.009599 0.03212554
000110 3d c8 87 3d 76 2e 02 bd 95 37 0f 3a d2 cc 99 3d
       0.06629989 -0.03178259 0.00054632995 0.075097695
000120 36 2a ce 3e 39 4d 1b bf 7d 50 5d 3d 10 1d a7 3f
       0.4026658 -0.6066471 0.054031838 1.3055744
000130 0e f1 60 3d 75 6c 39 bc 97 0a e9 be 86 97 0b bd
       0.054917388 -0.011317362 -0.45515892 -0.03408005
000140 35 82 85 3f 99 4a 29 bd 25 5b 15 3f 33 80 e1 3f
       1.0430361 -0.041330907 0.583422 1.7617248
000150 0d 25 2a bd dc bf 20 3d da ea ab 3a 19 6e 23 3f
       -0.04153924 0.03924547 0.0013116256 0.6383987
000160 fe 50 9f 3e 86 73 de 3c b0 40 9f bd 1a c4 97 be
       0.3111648 0.027154695 -0.0777601 -0.296418
000170 98 5e ea be b3 d2 07 3d 6b 71 0c 3f c1 60 a3 be
       -0.45775294 0.033159923 0.5486056 -0.31909755
000180 f1 83 32 3f 12 b7 d4 3c 82 d6 46 3f 87 8c 4c bc
       0.69732577 0.025966201 0.7767106 -0.012484676
000190 7e 5a 36 3f 1e b1 cb 3c ea 65 4d be 13 4f 21 3d
       0.7123183 0.02486473 -0.20058408 0.03938205
0001a0 a5 c1 d5 3d dc 4b 7a 3d e1 6a 3a be 54 39 6d be
       0.104373254 0.0611075 -0.18204834 -0.231664
0001b0 b1 7b a1 3d 8c 80 13 bc 50 71 c5 3c 4c 3c b8 bd
       0.078849204 -0.009002816 0.024101883 -0.08995876
0001c0 c8 19 0e bd ae 80 ca bc 19 e8 6b bd 6f 33 b1 3c
       -0.034692556 -0.024719562 -0.057594392 0.02163097
0001d0 b1 04 8f bd 8a 4e bd 3c 04 84 24 bf de e9 bb bc
       -0.06983317 0.02310874 -0.6426394 -0.022938665
0001e0 09 40 0e bd 7d be 4e 3c b8 8d f9 bd 80 89 24 3d
       -0.034729037 0.012618658 -0.12185234 0.040170193
0001f0 57 2a 26 bd 55 e4 73 3c 3d d9 3c 3d ac ae 16 3d
       -0.040567722 0.014885982 0.046105612 0.036787674
000200 93 28 fd 3c 5b 7e 1e bd 3d 47 79 bc 1b a5 c3 be
       0.030903136 -0.03869472 -0.015214738 -0.38211903
000210 bc 7c 71 bc 7e b8 08 be 59 a1 19 3d df c5 69 be
       -0.014739212 -0.13351628 0.03750739 -0.22829388
000220 b7 52 42 3c 3b 02 09 bf 1e d1 7e 3d 38 e1 02 3d
       0.011860541 -0.5351903 0.06221115 0.031953067
000230 61 07 39 3d 80 04 ba 3c 1e ca 53 3d b7 ca 88 3c
       0.045173053 0.022707224 0.051706426 0.016698224
000240 58 c4 d4 3c 2d be f3 3c dd 50 6b 3e f7 82 61 bd
       0.02597253 0.029753769 0.22980066 -0.05505654
000250 91 ee 1d 3f 27 37 86 bb 8a 60 16 3c 83 ee ab bc
       0.6169215 -0.00409593 0.00917829 -0.020987755
000260 6b 34 42 bf 31 1d 9f bd 86 a2 13 3d 54 e3 27 bd
       -0.75861233 -0.0776924 0.036043666 -0.04098828
000270 55 4f 9d 3e 77 54 28 bf 38 f3 45 3c a7 53 e9 3b
       0.30724588 -0.65753883 0.012081914 0.007120568
000280 43 74 e2 3e d2 c4 37 3c 28 11 bd 3f d7 31 96 bd
       0.44229326 0.011216359 1.4770861 -0.07333725
000290 81 ac 74 bc 4b c0 6e 3c 44 56 18 3d c8 c4 54 3d
       -0.014933706 0.014572213 0.037191644 0.051945478
0002a0 b4 44 02 3d d6 ed e1 3c 6d 62 45 bf 40 4d fc 3b
       0.0318038 0.02757923 -0.7710331 0.0076996386
0002b0 ec 2d 50 3d 1b 77 df 3d 16 d7 19 bb 9f 58 80 3f
       0.050825045 0.109113894 -0.0023474148 1.0027045
0002c0 51 04 b3 be 52 2f b4 3c 4e a5 3d 3d 36 6e 37 3d
       -0.3496423 0.02199522 0.046300225 0.04478284
0002d0 00 ec 10 3d dc dd db 3c c9 bc 15 3d 96 5f 0f 3e
       0.035381317 0.02683919 0.036556993 0.14001307
0002e0 a8 3d 63 3d 04 44 04 3d 45 8f cc 3b e8 e3 03 3c
       0.05547872 0.032291427 0.006242665 0.008049943
0002f0 4d 76 7e bd 88 86 0e be 78 d6 03 be 90 49 ed 3b
       -0.06212454 -0.13918507 -0.12874782 0.0072414353
000300 3d 8e 69 be 66 fe 99 bc 97 5a ed be c9 bd 50 3f
       -0.22808166 -0.018798064 -0.46358177 0.8153959
000310 27 52 9b bf 27 c8 0c bd a6 45 94 bd be e0 0d bb
       -1.2134446 -0.034370568 -0.07239847 -0.002164885
000320 16 28 fb bd 59 c7 15 3e 45 0e 0a 3e a8 77 e2 bc
       -0.12263505 0.14626826 0.13482006 -0.027644947
000330 22 71 72 be 9a 4c fb 3e 13 ee 49 bf 5f fc 47 be
       -0.23675969 0.4908188 -0.788789 -0.19529866
000340 cd cd 9c 3b af 4e 02 bf 9a 65 20 3d f9 65 6e be
       0.0047852756 -0.5090131 0.039159395 -0.23281087
000350 93 99 b5 bc 92 18 54 bf 36 80 e9 bc eb d0 c7 bd
       -0.022167956 -0.8284999 -0.028503519 -0.09756645
000360 4d b6 ba 3d be c0 67 be 72 37 d1 bd 73 69 37 be
       0.09116802 -0.22632119 -0.102156535 -0.1791132
000370 46 b1 da 3a 83 f0 fc 3a de 3d 30 bc 3b 59 c3 3c
       0.0016684912 0.0019297752 -0.010756938 0.02384626
000380 8a cc 16 3f f7 19 4a be 23 cb 93 bd b3 7b 60 be
       0.5890585 -0.19736467 -0.0721648 -0.21922188
000390 90 50 82 be 65 0b da 3c 7c ff 54 bd a5 74 51 3b
       -0.2545209 0.026616761 -0.05200146 0.0031960395
0003a0 a0 54 73 be b8 b4 a6 bb 34 77 e5 3e 2d 73 29 bf
       -0.2376275 -0.0050874613 0.44817507 -0.6619137
0003b0 b0 86 95 3b ea 14 7c bc 9b 0a 25 3e f2 2e d3 bc
       0.004563175 -0.015385846 0.16117327 -0.025779221
0003c0 7a d4 b5 3e 30 d3 8b be 77 8b 69 3d 5d 60 d6 3e
       0.3551367 -0.2730956 0.05701777 0.41870394
0003d0 9c 21 72 bd 0b f2 07 3f 6f ba 0e bd ff 0b b9 bc
       -0.059114084 0.53103703 -0.034845766 -0.022588728
0003e0 0b 92 8f 3c c4 9c 14 bf c0 c2 2f be 0f f9 82 bf
       0.017525693 -0.58051705 -0.17164135 -1.0232257
0003f0 12 c1 e6 be b1 6a 05 3d 97 45 a3 3e e3 9c 1e be
       -0.45069176 0.032572452 0.3188903 -0.15489535

fc4.bias f4 [5]
000000 69 52 bb bf 8f 0e bc bf 67 ca be bf a4 85 96 bf
       -1.4634525 -1.4691943 -1.4905518 -1.1759534
000010 48 e6 a8 bf
       -1.3195276
