mlp_weights/map_1_Q.pt (torch, 555648 bytes, 8 tensors)

fc1.weight f4 [256, 20]
0	0xbd7d9581	-0.061910156
1	0x3f769852	0.9632617
2	0xbf93563c	-1.1510692
3	0xbf8dd763	-1.1081356
4	0x3df4c65b	0.11951896
5	0xbe3b34ec	-0.18281907
6	0xbe04029e	-0.12891623
7	0x3f145fa7	0.57958454
8	0xbdd4d775	-0.10392658
9	0x3cf2461a	0.029574443
10	0x3f0aa594	0.541589
11	0x3de4a3fa	0.111640885
12	0xbe9c49cd	-0.30525056
13	0x3e09f68b	0.13472955
14	0xbf584e98	-0.84494925
15	0x3e772f99	0.24139251
16	0x3d9b5e23	0.075863145
17	0x3dbed228	0.09317428
18	0x3ed1fc6c	0.41012895
19	0x3ebb4bfb	0.36581406
20	0xbee9ca79	-0.45662287
21	0x400f7d93	2.2420394
22	0xc036dc64	-2.8572016
23	0xc077386b	-3.8628185
24	0xbe485ac8	-0.1956588
25	0xbe4f0dda	-0.20220128
26	0xbe218c4e	-0.15776178
27	0xbf709643	-0.9397928
28	0x3f43c06f	0.76465505
29	0x3f5369c3	0.82583255
30	0x3eea9c42	0.4582234
31	0xbf1cb85d	-0.61218816
32	0xbef403b0	-0.47659063
33	0xbe516ca7	-0.20451604
34	0x3de97b3e	0.1140046
35	0xbda2b09a	-0.0794384
36	0xbe43ce2a	-0.19121614
37	0x3e8f1631	0.27946618
38	0x3e794ff5	0.24346907
39	0x3e563451	0.20918395
40	0x4020b9b3	2.5113342
41	0x3eaa6cd5	0.33286157
42	0xbf8379ec	-1.0271583
43	0xc00194a2	-2.0246968
44	0x3e103407	0.14082347
45	0xbe6fdcac	-0.23424023
46	0x3e47f8c0	0.19528484
47	0xbf136d0c	-0.5758827
48	0xbf0c47ee	-0.54797256
49	0xbe40db91	-0.18833758
50	0x3d2c0a55	0.04200204
51	0x3db62e04	0.088954955
52	0xbec8ecb9	-0.39243105
53	0xbe22e7ee	-0.15908787
54	0xbf02214a	-0.50832045
55	0xbf1dd673	-0.6165535
56	0xbf688069	-0.9082094
57	0xbf01e31f	-0.50737184
58	0xbe21a9d6	-0.15787444
59	0xbef4742e	-0.47744888
60	0xbe3d4e01	-0.18486787
61	0x3eaaf35d	0.33388796
62	0xbe2cca9e	-0.16874167
63	0x3e4f329d	0.20234151
64	0xbfb8aaa0	-1.4427071
65	0xbf94a68c	-1.1613326
66	0x3fb4f40f	1.4136981
67	0x3f9494a7	1.1607865
68	0x3d8afdd1	0.06786693
69	0x3d975e83	0.073910736
70	0xbc635c82	-0.013877036
71	0xbd37ce47	-0.044874456
72	0x3e146f37	0.1449555
73	0xbd1f070a	-0.038825072
74	0x3dd49eab	0.10381826
75	0xbcd6580d	-0.026165033
76	0xbc364fe6	-0.011127448
77	0xbddec0f3	-0.10876646
78	0x3dd31830	0.10307348
79	0x3dad73f3	0.08469381
80	0xbfa8ea38	-1.3196478
81	0xbd52aaf0	-0.05143255
82	0x3f2dd7f6	0.67907655
83	0x3fb2d691	1.397173
84	0xbeec8ba9	-0.46200302
85	0xbd9e142f	-0.077186935
86	0xbea1ce23	-0.31602582
87	0xbe147953	-0.14499407
88	0xbeda54bd	-0.42642775
89	0xbe910067	-0.2832062
90	0xbe5f475a	-0.21804562
91	0xbe33db76	-0.17564186
92	0x3b851be1	0.0040621613
93	0xbe808543	-0.2510167
94	0xbe039388	-0.12849247
95	0xbec3fbb3	-0.3827797
96	0xbdced64e	-0.10099469
97	0xbe6d1bed	-0.23155184
98	0xbd9f956d	-0.077921726
99	0xbe46fcdf	-0.194324
100	0x3f8a6556	1.0812175
101	0xbfddda7d	-1.7332302
102	0x3f9864ad	1.1905724
103	0x3f411a18	0.7543044
104	0xbdb4bb6d	-0.08824811
105	0xbf8827b1	-1.0637113
106	0xbca97935	-0.020687679
107	0x3f83113e	1.0239637
108	0x3ed2a0d6	0.41138333
109	0x3e88c421	0.26712134
110	0xb97a0116	-0.00023842262
111	0xbe0a2b91	-0.13493182
112	0xbe960dd6	-0.2930743
113	0xbee94c5e	-0.45566076
114	0xbe6632d0	-0.22480321
115	0xbd158736	-0.0365059
116	0x3d34326d	0.043993402
117	0xbcd06095	-0.025436679
118	0x3d305589	0.043050323
119	0x3dac13fb	0.084022485
120	0x3f99b412	1.2008078
121	0x3eefe96a	0.46857768
122	0xc0334751	-2.8012278
123	0xc05fd08c	-3.4971037
124	0x3d34a393	0.04410131
125	0xbf11dea3	-0.5698034
126	0xbeb61a2b	-0.3556684
127	0x3f2ce0bc	0.6753042
128	0x3f6666ff	0.9000091
129	0x3f7777b5	0.96667033
130	0x3f044d83	0.51680773
131	0x3d35dcc5	0.044399995
132	0x3dbc9cb6	0.09209578
133	0xbe418000	-0.18896484
134	0xbe81af96	-0.25329274
135	0xbf0ce153	-0.5503132
136	0xbeeaa749	-0.45830753
137	0xbe968774	-0.29400218
138	0xbd26476c	-0.040595457
139	0xbdd944f1	-0.10608853
140	0xc003e857	-2.061056
141	0x3f990450	1.1954441
142	0xc024b09e	-2.5732799
143	0x40446269	3.0685065
144	0xbf0bb736	-0.5457643
145	0xbeefb12d	-0.46814862
146	0x3f45117c	0.76979804
147	0x3e842def	0.25816295
148	0x3d984f2b	0.07436975
149	0xbd07cfbe	-0.033157103
150	0xbda6dc72	-0.08147515
151	0xbce462c9	-0.027879136
152	0x3b25ed42	0.0025318419
153	0x3e2869b4	0.16446573
154	0x3dcc1e2b	0.099666916
155	0xbd5a5c60	-0.053310752
156	0x3da71d35	0.08159868
157	0x3c7079c3	0.014677468
158	0x3d839c2b	0.06426271
159	0x3e0a811c	0.13525814
160	0x3eadc027	0.33935663
161	0x3ea0c7f4	0.31402552
162	0x3e531c4c	0.20616263
163	0x3e413ba2	0.18870404
164	0xbf1bf035	-0.609134
165	0xbf1ca275	-0.6118539
166	0xbf4e12ae	-0.8049725
167	0xbe357727	-0.17721234
168	0xbd7624ad	-0.06009357
169	0x3da253ad	0.07926116
170	0x3f9aa52f	1.208166
171	0xbef87d6d	-0.48533192
172	0xbcdab245	-0.026696334
173	0xbe568a45	-0.20951183
174	0xbeb0920b	-0.34486422
175	0xbee39b08	-0.44454217
176	0xbe258875	-0.16165335
177	0x3e2fb94f	0.17160533
178	0x3eb4958d	0.35270348
179	0x3dd98d9a	0.106227115
180	0x3c637e81	0.013885141
181	0x3e056987	0.13028537
182	0xbf0adb57	-0.54240936
183	0xbe82de98	-0.2556045
184	0xbdaf8d2b	-0.085718475
185	0xbdff8ca3	-0.12477996
186	0xbee0e58e	-0.43925136
187	0xbd82036e	-0.063483104
188	0x3d843068	0.06454545
189	0x3d87f027	0.06637602
190	0xbcc3b45e	-0.023889717
191	0xbe5e6eb7	-0.21721922
192	0xbdc32a3c	-0.0952954
193	0xbeb8c407	-0.36087057
194	0xbe233883	-0.15939526
195	0xbe9969d8	-0.29963565
196	0xbe832860	-0.2561674
197	0x3c06a916	0.008219024
198	0xbdc10a20	-0.09425759
199	0xbdfe7118	-0.12423915
200	0x3e058dbb	0.13042347
201	0xbd021c14	-0.03176506
202	0x3e4d5019	0.20050086
203	0xbe376ed8	-0.17913377
204	0xbd5e76eb	-0.054312628
205	0xbe3e1311	-0.18561961
206	0xbdf57f3f	-0.11987161
207	0xbd9af5b1	-0.07566393
208	0x3c49198d	0.012274158
209	0xbe175ff6	-0.147827
210	0xbcb1d227	-0.021706654
211	0xbe10283c	-0.14077848
212	0xbdff6cdc	-0.12471935
213	0xbd0c358f	-0.034230765
214	0xbdd7c20d	-0.10535059
215	0xbc6b7238	-0.014370494
216	0x3e325b25	0.17417581
217	0xbe618005	-0.22021492
218	0x3e4e0c30	0.20121837
219	0xbda814f7	-0.08207124
220	0x3df6b9a1	0.12047125
221	0x3f2bc630	0.67099285
222	0xbed3833b	-0.41311058
223	0xbef60163	-0.48047933
224	0xbe29625e	-0.1654143
225	0xbbfa803c	-0.0076446813
226	0xbc73bf83	-0.014877203
227	0xbd2ab7d2	-0.04167921
228	0xbdc90301	-0.09815026
229	0xbeefa467	-0.46805117
230	0xbe9a1b2f	-0.30098864
231	0xbdef90a6	-0.116975114
232	0xbec340a9	-0.3813527
233	0xbdb370f5	-0.08761779
234	0xbe1cd5cd	-0.15315934
235	0xbe0c505d	-0.13702531
236	0xbe8bdb27	-0.27315637
237	0xbde32d91	-0.110926755
238	0x3d1ddca8	0.038540512
239	0xbee74d41	-0.45176128
240	0x3f3bd8e4	0.73377824
241	0xbeab5866	-0.3346588
242	0x3e022539	0.12709512
243	0xbfd98fa9	-1.6996967
244	0xbf2d0e8d	-0.6760033
245	0xbd421d55	-0.047391254
246	0xbfab1e56	-1.3368633
247	0xbf12284b	-0.5709273
248	0xbee1d504	-0.4410783
249	0xbe124d3b	-0.14287274
250	0xbf067037	-0.52514976
251	0xbdbab423	-0.091163896
252	0xbd7245b5	-0.05914851
253	0xbdcf100b	-0.10110482
254	0x3e07be83	0.13256268
255	0x3d8fca83	0.07021048

fc1.bias f4 [256]
0	0x3f8d7942	1.105263
1	0xbeb0ef46	-0.3455755
2	0xbe96b9af	-0.2943854
3	0xbedc1abe	-0.42989153
4	0xbe768a90	-0.24076295
5	0xbeeeee45	-0.4666616
6	0xbec0b315	-0.3763663
7	0xbed20d8f	-0.4102597
8	0x3d80dd01	0.06292153
9	0xbe7fded0	-0.2498734
10	0xbe5743c3	-0.21021943
11	0xbef7bc9f	-0.48386094
12	0xbe935ac1	-0.28780177
13	0xbd38822b	-0.045046013
14	0x3ef38e01	0.47569278
15	0x3d176a99	0.036966894
16	0x3cf26807	0.02959062
17	0xbf09b571	-0.5379248
18	0xbe2aa49d	-0.16664357
19	0x3da5abb2	0.08089389
20	0xbeebdc0a	-0.46066314
21	0xbe857c76	-0.2607152
22	0xbcbd7384	-0.023126371
23	0xbe900017	-0.2812507
24	0x3f170160	0.58986473
25	0xbf198e5a	-0.59982836
26	0xbe7891a7	-0.24274312
27	0xbe52b768	-0.20577776
28	0xbd985ffb	-0.07440182
29	0xbd9308af	-0.07179391
30	0xbe24ed65	-0.16106184
31	0x3f012c37	0.5045809
32	0x3da3a1c9	0.079898424
33	0xbe437477	-0.19087397
34	0xbe81da33	-0.25361785
35	0xbe225af9	-0.15855016
36	0xbed72bb0	-0.42025518
37	0xbdc1073e	-0.094252095
38	0x3ec29167	0.38001558
39	0xbf11966a	-0.5687014
40	0xbe910803	-0.28326425
41	0xbe82f342	-0.25576216
42	0x3e066515	0.13124497
43	0xbe66e4f6	-0.22548279
44	0xbed40c71	-0.41415742
45	0x39c44b70	0.00037440239
46	0xbd45c55d	-0.048283923
47	0x3dc2fd7a	0.09521003
48	0xbe5740e3	-0.21020846
49	0x3f1416eb	0.5784747
50	0xbdb8d834	-0.090256125
51	0xbcb7e16d	-0.022446359
52	0xbe9dffba	-0.30859166
53	0xbdf13b7f	-0.11778926
54	0xbeba24eb	-0.3635629
55	0xbeb8d8ec	-0.36102998
56	0xbea96e77	-0.3309209
57	0xbe25549f	-0.16145562
58	0x3f026dcb	0.5094878
59	0xbecbf079	-0.39831904
60	0xbec8f898	-0.39252162
61	0xbe7760f1	-0.24158074
62	0x3f6616fa	0.8987881
63	0xbe6e6951	-0.23282363
64	0x3ed3b4c8	0.41348863
65	0x3e6918a1	0.22763301
66	0xbdbe900d	-0.09304819
67	0x3f247e09	0.64254814
68	0x3e740695	0.23830636
69	0xbeaddff4	-0.33959925
70	0xbe020cbe	-0.12700173
71	0x3e3f3df1	0.18675973
72	0xbe36c636	-0.17849049
73	0xbea96ea8	-0.33092237
74	0x3d2faa60	0.04288709
75	0x3ebda02c	0.37036264
76	0x3eb4ce03	0.35313424
77	0x3e06ad58	0.13152063
78	0x3ef6bdf3	0.48191795
79	0xbeab7688	-0.3348887
80	0xbe47c14a	-0.19507328
81	0xbef9cad1	-0.4878755
82	0x3f596317	0.84916824
83	0x3d17e233	0.037080955
84	0x3dcf3517	0.10117548
85	0xbe2de0d1	-0.16980292
86	0x3e541bdd	0.20713754
87	0xbea06f9f	-0.3133516
88	0xbe289ef0	-0.1646688
89	0xbe026754	-0.12734729
90	0x3dfa7d4f	0.12230932
91	0x3f3f5dc3	0.74752444
92	0xbd57a238	-0.05264494
93	0xbeb3211a	-0.34986192
94	0x3e60075a	0.21877804
95	0xbfac45eb	-1.3458837
96	0x3ef4c544	0.47806752
97	0xbe0681fd	-0.13135524
98	0xbc19fe8c	-0.009399068
99	0xbe46e1b2	-0.19422033
100	0xbe8372e6	-0.25673598
101	0xbdb39b4d	-0.08769856
102	0xbd048bfe	-0.03236007
103	0xbc147545	-0.009061162
104	0xbc08cf2f	-0.008350178
105	0xbdd46639	-0.1037106
106	0xbe5848c9	-0.21121515
107	0x3d90b258	0.07065266
108	0xbd89b8cd	-0.06724701
109	0xbf198c47	-0.5997967
110	0x3dbecf52	0.09316887
111	0x3f18b12d	0.5964535
112	0x3de70b5e	0.11281465
113	0xbd9384bf	-0.07203054
114	0xbea44f62	-0.32091814
115	0xbe19c410	-0.15016198
116	0x3e735c93	0.23765783
117	0x3e8e06fd	0.27739707
118	0xbcf71359	-0.030160593
119	0x3f844f21	1.0336648
120	0x3da2bc08	0.0794602
121	0xbed9ce5f	-0.4254026
122	0xbf1775b9	-0.59164006
123	0xbf1725fc	-0.59042335
124	0xbf1bdb34	-0.6088135
125	0x3e1ddb18	0.15415609
126	0x3d362848	0.04447201
127	0x3f2fb61a	0.6863724
128	0xbf86f72e	-1.0544183
129	0xbe587e0d	-0.21141835
130	0xbe3dcf4f	-0.18536113
131	0xbb096ccd	-0.0020969391
132	0xbd9515ce	-0.072795495
133	0xbdf869ee	-0.121295795
134	0x3de51c8b	0.11187085
135	0xbe398f5e	-0.18121096
136	0xbe467ae8	-0.19382823
137	0xbe3702cf	-0.17872165
138	0xbe08ae17	-0.1334766
139	0xbea0399f	-0.3129396
140	0x3e97c6ee	0.2964396
141	0xbea4eceb	-0.32212004
142	0xbebfbb93	-0.37447795
143	0x3d6d9fa4	0.058013573
144	0xbdc03841	-0.093857296
145	0xbdb36004	-0.08758548
146	0x3ef4aa0f	0.47785994
147	0x3e9218c1	0.2853451
148	0x3de9992f	0.114061706
149	0xbef4a17d	-0.47779456
150	0xbdeaffe7	-0.11474591
151	0xbe0f17e8	-0.13973963
152	0xbd9f9813	-0.07792678
153	0xbe03a1a9	-0.12854637
154	0x3e7dc037	0.24780355
155	0x3d650c11	0.05591971
156	0xbe7be775	-0.24600013
157	0x3b1b1f4a	0.0023669773
158	0xbddef9b6	-0.10887472
159	0xbe9f516c	-0.31116807
160	0xbf94d6da	-1.1628067
161	0xbdb24e37	-0.087063245
162	0x3cb688f1	0.022282096
163	0x3e327350	0.174268
164	0xbd449764	-0.04799594
165	0x3dd7e6d0	0.10542071
166	0xbf0c5700	-0.5482025
167	0xbea1ff6b	-0.3164018
168	0x3d4b4bb1	0.04963273
169	0x3d1da18f	0.038484152
170	0x3e30382f	0.17208932
171	0xbee032cb	-0.43788752
172	0xbc27ff5c	-0.0102537535
173	0xbf392ddb	-0.72335595
174	0xbf65814a	-0.89650404
175	0x3e80914f	0.25110862
176	0x3e8b5262	0.2721129
177	0x3dffa806	0.1248322
178	0xbd131635	-0.03590985
179	0xbedac972	-0.42731816
180	0xbe7dd2df	-0.24787472
181	0xbdb73189	-0.08944995
182	0xbe6f8d4d	-0.23393746
183	0x3e9c1120	0.30481815
184	0xbe6a9bfe	-0.22911069
185	0x3d3bad27	0.045819428
186	0xbe4dfece	-0.20116732
187	0xbead49de	-0.3384542
188	0xbebcbd48	-0.3686316
189	0x3e36e278	0.17859828
190	0xbec2124b	-0.3790458
191	0xbe93e3aa	-0.2888463
192	0x3e3952d2	0.18098
193	0x3d031b6e	0.03200858
194	0x3e8255d4	0.25456107
195	0xbf1b2f3c	-0.6061895
196	0xbd470ebe	-0.048598044
197	0xbe798b9a	-0.2436966
198	0x3e97f746	0.29680842
199	0xbbb94af6	-0.005654688
200	0xbe0cdfdd	-0.13757272
201	0xbe49002e	-0.19628975
202	0xbe224194	-0.15845329
203	0x3ef6feeb	0.48241362
204	0xbf997032	-1.1987364
205	0xbe7e9cd3	-0.24864511
206	0xbf12bb62	-0.57317173
207	0xbd5af8d6	-0.053459965
208	0xbe1a230b	-0.1505243
209	0x3e94df40	0.29076576
210	0x3f4aba74	0.79190755
211	0x3d2616d7	0.040549126
212	0xbd7635b9	-0.060109828
213	0x3d07f7a9	0.03319517
214	0xbeaccf10	-0.33751726
215	0xbe9df605	-0.3085176
216	0x3c84988c	0.016186021
217	0xbe4254e8	-0.18977702
218	0x3cf64d94	0.030066289
219	0x3d70281b	0.058631998
220	0x3dd97f95	0.106200375
221	0x3f1b710f	0.6071939
222	0xbeadd55a	-0.33951837
223	0x3d3ca018	0.046051115
224	0x3cdf2703	0.027240282
225	0x3efd7647	0.495043
226	0x3e3e41df	0.18579815
227	0xbe963999	-0.2934082
228	0xbd741372	-0.059588857
229	0x3e9e4f94	0.30920088
230	0x3cfb78f9	0.030697333
231	0xbebbadbb	-0.36655983
232	0xbebc0e49	-0.3672965
233	0xbe6e47f2	-0.23269632
234	0xbebdfd43	-0.37107286
235	0xbdc4ec94	-0.09615436
236	0x3ebd560b	0.36979708
237	0x3e7a65e7	0.24452935
238	0xbe4a170a	-0.19735351
239	0xbeef6918	-0.46759868
240	0xbed3e4ba	-0.41385442
241	0xbea5aa3a	-0.32356435
242	0xbe0c0727	-0.13674603
243	0x3ed1cdfa	0.4097746
244	0xbf2fcdbe	-0.6867331
245	0x3df60370	0.120123744
246	0xbeaf1258	-0.34193683
247	0x3eeec1f0	0.46632338
248	0x3dac3499	0.0840847
249	0x3eb0dd96	0.34544057
250	0x3dfcdba6	0.12346582
251	0xbd544d8b	-0.051831763
252	0xbe4e4651	-0.20144011
253	0x3ec1c8ea	0.37848598
254	0x3de6dc5a	0.112724975
255	0xbe436e94	-0.19085151

fc2.weight f4 [256, 256]
0	0x3f5677e5	0.83776695
1	0x3f25c36d	0.6475132
2	0x3e13284f	0.14370845
3	0xc08b8e19	-4.361096
4	0xbf69e027	-0.91357654
5	0x3d84d3ef	0.064857356
6	0xbd13fb82	-0.03612853
7	0x3e82de5a	0.25560266
8	0xbdcab765	-0.09898261
9	0x3ee73096	0.45154256
10	0xbca8bad8	-0.020596907
11	0x3e084f5a	0.1331152
12	0x3e340a45	0.17582043
13	0xbe3ccea2	-0.18438199
14	0x3f0cdac5	0.55021316
15	0xbbd291f0	-0.0064260885
16	0x3df9e3be	0.122016415
17	0xbf02ad08	-0.51045275
18	0x3e5004be	0.20314309
19	0x3e94b482	0.29043967
20	0xbf2a7534	-0.6658509
21	0xbeba25b8	-0.36356902
22	0xbea61786	-0.32439822
23	0x3c183518	0.009290002
24	0x3d4fc1e9	0.050722037
25	0xbf802dfa	-1.0014031
26	0xbe82bbc7	-0.25533888
27	0xbf5ee0d9	-0.8706184
28	0x3cf53ebd	0.029937143
29	0x3d1e39ab	0.038629215
30	0xbee1bf73	-0.44091377
31	0x3db5ada3	0.08871009
32	0xbf7a5dbc	-0.9779928
33	0x3e04f632	0.12984541
34	0xbccc6864	-0.024952121
35	0x3e540aed	0.20707293
36	0x3e000518	0.12501943
37	0xbeb3747a	-0.35049802
38	0xbe50b97f	-0.20383261
39	0x3dcbb91e	0.09947418
40	0xbbac5646	-0.005259308
41	0xbf96e5be	-1.1788862
42	0x3f1ac3ad	0.6045483
43	0x3e49b179	0.19696607
44	0xbe86a203	-0.2629548
45	0x3eb772b4	0.358297
46	0x3e008b97	0.1255325
47	0x3ef569cd	0.47932282
48	0x3c61ecd1	0.013789372
49	0xbe9a8efa	-0.30187207
50	0xbd60cf28	-0.05488506
51	0xbf4a36f2	-0.7899009
52	0xbd9c641c	-0.07636282
53	0x3e762385	0.24036987
54	0xbf7721f7	-0.965362
55	0xbe0c30d2	-0.13690498
56	0xbd096b23	-0.03354944
57	0xbf5f2d72	-0.8717872
58	0x3e6ca98f	0.23111556
59	0x3d946c1c	0.07247183
60	0x3e91e56d	0.2849535
61	0x3d138652	0.03601677
62	0x3f5533b7	0.83282036
63	0xbfc29127	-1.5200547
64	0xbf24ec27	-0.6442284
65	0x3e07cd20	0.13261843
66	0xbcf83b52	-0.030301724
67	0x3da1e986	0.07905869
68	0xbe52632e	-0.20545647
69	0xc04ebb18	-3.2301693
70	0xbcf0572b	-0.02933844
71	0x3ec1d8b8	0.37860656
72	0x3d354524	0.04425539
73	0xbff9b15d	-1.9507252
74	0x3e3c6589	0.18398108
75	0xba8aad4f	-0.0010580214
76	0xbecc9a88	-0.39961648
77	0xbf06b543	-0.52620333
78	0x3cd1814d	0.02557435
79	0x3db08326	0.086187646
80	0x3ea0af76	0.31383866
81	0xbfd3a416	-1.653445
82	0xbd443074	-0.04789777
83	0x3b0ae5bd	0.0021194064
84	0xbcf7af04	-0.030234821
85	0xc03bcaf2	-2.9342618
86	0xbf375b48	-0.7162366
87	0xbe7ddf2c	-0.24792165
88	0xbdbb5706	-0.09147458
89	0x3dc3701b	0.09542867
90	0xbf48187f	-0.7816238
91	0x3e3446cc	0.17605132
92	0x3e97b1b3	0.2962776
93	0x3d0078d7	0.03136524
94	0xbf1d9e0a	-0.61569273
95	0x3eab6809	0.3347781
96	0x3f2edd72	0.6830665
97	0x3d60e6b0	0.0549075
98	0xbc857670	-0.016291827
99	0xbe8bfabd	-0.27339736
100	0xc06f939b	-3.7433841
101	0xbcf09098	-0.029365823
102	0x3d9bdff8	0.07611078
103	0xbdcb11cd	-0.099155046
104	0x3bfa0460	0.007629916
105	0x3e3e2426	0.18568477
106	0xbfbe8196	-1.4883296
107	0x3e759b01	0.2398491
108	0xbe08eb08	-0.13370907
109	0xbed3cb76	-0.41366166
110	0xbf8c750a	-1.0973217
111	0xbec71283	-0.3888131
112	0xbf044ed2	-0.5168277
113	0x3e676bcb	0.22599714
114	0xbfbdfea5	-1.4843336
115	0xbfcbf471	-1.5933973
116	0xbf30afa4	-0.69018006
117	0xbf171cd0	-0.5902834
118	0xbf3f2b0a	-0.7467505
119	0x3f5799a4	0.8421881
120	0x3e9b9a33	0.30391082
121	0xbf08100d	-0.5314949
122	0xbf1e469f	-0.6182651
123	0xbdd75ef0	-0.10516155
124	0x3e85e7fc	0.26153553
125	0xbe249464	-0.16072232
126	0xbe7b9655	-0.24569066
127	0x3e3603cd	0.17774887
128	0x3ec56af5	0.38558164
129	0x3ee32465	0.44363704
130	0x3d9c5bf6	0.07634728
131	0xbf666cbe	-0.9000968
132	0x3c8cfdf9	0.017210947
133	0xbeba0f06	-0.36339587
134	0xbebcc229	-0.36866882
135	0xbeb74f08	-0.35802484
136	0xbf5dd7ae	-0.86657226
137	0xbf87b08c	-1.0600753
138	0xbe22d783	-0.15902524
139	0xbfe6c0bd	-1.8027569
140	0x3ead5d61	0.33860305
141	0x3e9833c5	0.29726997
142	0xbf3de194	-0.7417233
143	0x3ee1c654	0.44096625
144	0x3dc7c47e	0.09754275
145	0xbfa5c191	-1.2949697
146	0x3e065d5a	0.13121548
147	0xc005684b	-2.0844905
148	0x3f09a5d2	0.53768647
149	0x3e0c1817	0.13681065
150	0x3e95759d	0.29191294
151	0xbc67f088	-0.014156468
152	0xbea313da	-0.31851083
153	0xbf0327c7	-0.5123257
154	0xbdc7e3ec	-0.097602695
155	0x3c3d3c22	0.011549981
156	0xbe235e0c	-0.15953845
157	0xbe417e24	-0.18895775
158	0x3cd5f4f7	0.026117785
159	0x3cfbc41d	0.030733163
160	0x3e1ca703	0.15298085
161	0xc05de665	-3.4671872
162	0x3ec2c13b	0.38038048
163	0xbe33c9c5	-0.17557438
164	0xbe16e4cf	-0.14735721
165	0xbfb5ba68	-1.4197512
166	0xbf493214	-0.7859204
167	0x3b62af6a	0.0034589418
168	0x3e27c6f3	0.16384487
169	0xbd982ffe	-0.07431029
170	0xbe35530a	-0.17707458
171	0x3e36322f	0.17792581
172	0xbd5dc2a2	-0.054140694
173	0xbf1af9f1	-0.6053763
174	0xbf82e99c	-1.0227542
175	0x3dd6233c	0.10455939
176	0xbf9fba22	-1.2478678
177	0xbe586b4f	-0.21134685
178	0xbded15dc	-0.11576435
179	0xbe12a4e1	-0.14320709
180	0xbf0a393e	-0.53993595
181	0x3caf8473	0.021425461
182	0xbf177c17	-0.5917372
183	0x3e6f33df	0.23359631
184	0x3e56c1ea	0.2097241
185	0x3f1ff008	0.62475634
186	0xbe5be9b9	-0.21475877
187	0x3df365b3	0.11884632
188	0x3f35b741	0.7098275
189	0x3e2d69b0	0.16934848
190	0x3e02e5af	0.1278293
191	0xbf036ade	-0.5133494
192	0x3e2d87e8	0.16946375
193	0xbbaaf3eb	-0.0052170656
194	0x3eb22014	0.347901
195	0xbf4fed83	-0.8122179
196	0x3e4c16af	0.19930528
197	0xbd0faa2a	-0.03507439
198	0x3db7a37b	0.08966728
199	0x3ea13816	0.31488103
200	0xbdbef678	-0.09324354
201	0xbce6e495	-0.028185168
202	0xbec1ed6d	-0.37876454
203	0xbea78beb	-0.32723936
204	0x3f45941e	0.77179134
205	0xbc3b5eeb	-0.011436204
206	0xbf23e3bb	-0.64019364
207	0x3dfa922c	0.12234911
208	0xbeacdab3	-0.33760604
209	0x3e97c976	0.2964589
210	0x3ea43fe9	0.3208001
211	0x38c7a400	9.519607e-05
212	0xbd2d122e	-0.042253666
213	0x3e8ab4b4	0.2709099
214	0x3e09e7a9	0.13467278
215	0xbf9e9dc1	-1.2391893
216	0x3ed4d894	0.41571486
217	0x3e1f6b84	0.15568358
218	0xbeda6a76	-0.42659348
219	0xbf958610	-1.1681538
220	0x3caaf546	0.020868909
221	0xbd9ebdd6	-0.07751052
222	0xbf620d77	-0.88301796
223	0xbf46cd90	-0.77657413
224	0x3d90bb59	0.07066984
225	0x3e08fc86	0.1337758
226	0xbe3bff82	-0.18359187
227	0x3e8b80c6	0.27246684
228	0x3f09c07c	0.5380933
229	0xbf223fb1	-0.63378435
230	0xbd6517ae	-0.055930786
231	0xbfdaab0a	-1.7083447
232	0xbeebe93a	-0.46076375
233	0xbd09ac14	-0.033611372
234	0xc00589b4	-2.0865297
235	0xbe6be83f	-0.23037814
236	0xbe150669	-0.14553227
237	0x3ebdc761	0.37066177
238	0xbd79afc2	-0.06095863
239	0xbed7f1ea	-0.42176753
240	0xbe76dd7d	-0.24107929
241	0x3bd6fde2	0.006561027
242	0x3f102539	0.563068
243	0xbf5788e9	-0.84193283
244	0x3c84806b	0.016174516
245	0xbf312025	-0.69189674
246	0xbefebf0d	-0.49755135
247	0xbe1b0a0b	-0.1514055
248	0xbf06e510	-0.5269327
249	0xbf8779ac	-1.0584006
250	0xbd26adad	-0.040692974
251	0xbecc500f	-0.3990483
252	0xbd1b9e46	-0.03799274
253	0xbe6ba643	-0.23012643
254	0x3e3189cf	0.17337726
255	0x3ec29104	0.38001263

fc2.bias f4 [256]
0	0x3f02b5c1	0.51058584
1	0x3f1479d2	0.57998383
2	0xbf370a78	-0.7150035
3	0x3f119c72	0.5687934
4	0x3d097882	0.03356219
5	0xbd805e06	-0.062679335
6	0xbda29a71	-0.079396136
7	0xbea84b21	-0.3286982
8	0xbe5a7f9c	-0.21337742
9	0x402a896c	2.6646376
10	0x3f84489c	1.0334659
11	0x3f185acd	0.5951355
12	0x3ee73785	0.45159546
13	0x3f475e2c	0.7787807
14	0xbd29cb30	-0.04145354
15	0xbd754535	-0.059880454
16	0xbc60094c	-0.013674092
17	0xbd803b8b	-0.06261357
18	0x3e962a0d	0.29328957
19	0x3f41ac58	0.756536
20	0x3e3576b3	0.17721061
21	0xbe07bb7e	-0.13255116
22	0xbdb19978	-0.0867185
23	0xbd6ba696	-0.057531916
24	0x3f20b199	0.6277099
25	0xbde713cd	-0.112830736
26	0x3eb76678	0.35820365
27	0xbd93f9c2	-0.07225372
28	0x3d584b68	0.052806288
29	0x3f213778	0.62975264
30	0xbe3b3844	-0.18283182
31	0x3edd5606	0.43229693
32	0xbf4b249f	-0.79352754
33	0x3d2cc0f7	0.042176213
34	0xbd300f4f	-0.04298335
35	0xbda8f59c	-0.08249971
36	0xbdfb5602	-0.12272264
37	0x3f49d239	0.788364
38	0xbd87b3f3	-0.066261195
39	0x3f0a6076	0.5405344
40	0xbda1dde4	-0.079036504
41	0xbb9a1e5b	-0.0047033257
42	0xbd840603	-0.06446459
43	0x3f88b10f	1.0679034
44	0xbdc8a9a1	-0.09797979
45	0x401ca411	2.4475138
46	0x3f4ececc	0.80784297
47	0xbc0a4828	-0.008440055
48	0x3f6b2610	0.91854954
49	0xbcbcf741	-0.023067119
50	0xbdeb9278	-0.11502546
51	0xbb4c8656	-0.0031208
52	0xbde0a26b	-0.10968479
53	0xbeb2324a	-0.34803993
54	0x3da9b2f0	0.08286083
55	0x3f1351e0	0.57546806
56	0x3dc222d9	0.09479303
57	0x3f0d38bd	0.551647
58	0x3ed7d20d	0.42152444
59	0xbd9de0f4	-0.07708922
60	0x3fce1b01	1.6101991
61	0x3f964548	1.1739893
62	0xbda97b17	-0.08275431
63	0xbde531db	-0.1119115
64	0x3f5f8c37	0.87323326
65	0x3a19b988	0.0005864133
66	0xbb5a8f14	-0.0033349441
67	0xbd24d826	-0.040245198
68	0x3f15978d	0.58434373
69	0x3f132bd4	0.5748875
70	0x3f3e1064	0.7424376
71	0x3eeac20e	0.45851177
72	0xbcfcebdb	-0.030874183
73	0xbdc39503	-0.09549906
74	0x3d4f387c	0.050590977
75	0x3f1cedb2	0.61300194
76	0xbe15adf7	-0.14617144
77	0x3efcc131	0.49366143
78	0x3f909f49	1.129861
79	0x3ebade5a	0.36497766
80	0xbc70e4f9	-0.014703029
81	0x3f057d7d	0.52144605
82	0x3dd7cd76	0.105372354
83	0x3c00e8e9	0.00786803
84	0xbdac1d64	-0.08404043
85	0xbe286383	-0.1644421
86	0xbca32e33	-0.01991949
87	0x3f9a1165	1.2036558
88	0xbac485ce	-0.001499349
89	0x3f816112	1.0107749
90	0xbe0315a1	-0.1280122
91	0xbd000ce3	-0.03126229
92	0x3f950f04	1.1645207
93	0x3b7e9bb0	0.0038850121
94	0x3dc4e273	0.09613504
95	0x3da9e7e5	0.082961835
96	0xbd3faa28	-0.046793133
97	0xbc1f5a23	-0.00972608
98	0xbe10b32b	-0.14130847
99	0xbda1fd02	-0.079095855
100	0x3fc75ee7	1.5575837
101	0xbe18dbac	-0.14927548
102	0xbba3806d	-0.004989675
103	0x3d426718	0.0474616
104	0x3eedf16d	0.46473256
105	0x3f21cf9f	0.6320743
106	0xbd8a99a3	-0.06767585
107	0x3f1ef2a1	0.6208897
108	0x3eddda59	0.4333065
109	0xbe9766e6	-0.29570693
110	0xbd329e52	-0.043608017
111	0x3f06e187	0.5268788
112	0x3f86aa40	1.0520706
113	0xbd8ee69b	-0.06977578
114	0xbd871047	-0.065949015
115	0xbd621895	-0.055199225
116	0xbd04680e	-0.032325797
117	0xbf2b3174	-0.66872334
118	0xbd5b4195	-0.05352934
119	0xbde6e08b	-0.11273297
120	0xbdce8b5f	-0.10085177
121	0x3e5c3c23	0.21507315
122	0xbde9893b	-0.11403128
123	0x3efc25be	0.49247545
124	0x3d929199	0.07156677
125	0x3f3b45a1	0.7315312
126	0x3e25e7a3	0.16201644
127	0x3f02a1e9	0.51028305
128	0x3fc00fc6	1.5004814
129	0x3fad5b88	1.3543558
130	0x3f0a05ba	0.5391499
131	0x3f671623	0.9026815
132	0xbe229c0e	-0.15879843
133	0xbde6ed9d	-0.1127579
134	0xbdaeeebd	-0.085416295
135	0xbe179382	-0.14802364
136	0xbebd3d2b	-0.3696073
137	0x3f01086e	0.5040349
138	0xbdb7219e	-0.08941959
139	0xbdee3f35	-0.116331495
140	0xbeb62718	-0.355767
141	0x3f4ef88d	0.8084801
142	0x3f23c588	0.63973284
143	0x3f0673eb	0.52520627
144	0xbbfb7ef1	-0.0076750447
145	0x3f1ea11b	0.6196458
146	0x3f459b74	0.7719033
147	0x3f6e05cf	0.92977613
148	0x3f0b43be	0.5440024
149	0x3eeb3f02	0.4594651
150	0x3fd5b7d4	1.6696725
151	0xbd982db8	-0.07430595
152	0xbbc6aef7	-0.006063338
153	0x3db1f97e	0.08690165
154	0xbf02eded	-0.51144296
155	0x3fb0d9ad	1.3816429
156	0x3f5aec70	0.85517025
157	0x3f11514e	0.56764686
158	0xbbac2999	-0.0052539823
159	0xbd855b09	-0.06511504
160	0x3c380487	0.011231548
161	0xbd98c0e7	-0.07458668
162	0x3f5830c3	0.84449404
163	0xbe82c633	-0.2554184
164	0xbc99a776	-0.01875661
165	0xbc576e5c	-0.01314887
166	0x3e8cb110	0.27478838
167	0xbdfea7b5	-0.12434331
168	0xbd2885da	-0.041143276
169	0xbe0bb3c0	-0.13642788
170	0x3f03e28a	0.51517546
171	0xbd3c5104	-0.0459757
172	0x3f6ccc01	0.92498785
173	0x3e9a1cfd	0.3010024
174	0x3f602925	0.8756278
175	0xbdcf3abd	-0.10118625
176	0x3ee82430	0.4534011
177	0x3f80e790	1.0070667
178	0x3f2a4bb3	0.6652176
179	0x3ef4fb0d	0.47847787
180	0xbd3cea88	-0.046122104
181	0xbda5be44	-0.08092931
182	0xbd4031da	-0.046922542
183	0x3e61eb9c	0.22062534
184	0xbdcd8bdf	-0.10036444
185	0xbd1a8ea1	-0.037733678
186	0x3f1e77eb	0.6190173
187	0x3eeff86a	0.46869212
188	0xbd276589	-0.040868316
189	0xbe6c7cca	-0.23094478
190	0xbdf8e972	-0.12153901
191	0x3fd7e95d	1.6868092
192	0x3ea41fb2	0.32055432
193	0x3f83c5aa	1.0294697
194	0x3ef18b66	0.47176665
195	0xbd745b1e	-0.05965721
196	0xbd53e27b	-0.05172966
197	0xbed4aa27	-0.41536066
198	0xbde172ed	-0.110082485
199	0x3f182d24	0.5944388
200	0x3bd25842	0.0064192126
201	0xbda72202	-0.08160783
202	0xbd906507	-0.070505194
203	0x3f1e016e	0.6172093
204	0xbf5fad3a	-0.873737
205	0x3f9f951b	1.2467378
206	0xbf418ac8	-0.7560239
207	0x3eb6adac	0.35679376
208	0xbde11daa	-0.10991986
209	0xbbf2fda1	-0.007415489
210	0xbdb2c2d6	-0.08728568
211	0x3a4c98f0	0.0007804772
212	0x3e82d617	0.25553963
213	0xbde45df4	-0.11150733
214	0xbb80a8cd	-0.0039263726
215	0xbdbfda47	-0.09367805
216	0x3f4b3f1f	0.7939319
217	0x3e1c8b5d	0.15287538
218	0x3bf06688	0.0073364414
219	0x3cb83fb2	0.02249131
220	0x3e858297	0.26076195
221	0xbde5612e	-0.11200176
222	0x3f891758	1.0710249
223	0xbaeeaad7	-0.0018208873
224	0x3f536fd7	0.8259253
225	0x3ebc8e99	0.36827543
226	0x3f373e3d	0.71579343
227	0x3d12d99c	0.03585206
228	0xbc7aab12	-0.015299575
229	0xbdaeb36a	-0.08530314
230	0x3f8df3df	1.1090049
231	0xbdd072b3	-0.10178127
232	0x3c811fd5	0.015762249
233	0xbe1a5793	-0.1507247
234	0xbd736f65	-0.059432406
235	0x3f8451e5	1.0337492
236	0xbdf9f3d4	-0.1220471
237	0x3eac2498	0.3362167
238	0xbf36f253	-0.7146351
239	0x3f649860	0.89295006
240	0xbe1879da	-0.14890233
241	0xbbf8832a	-0.0075839953
242	0x3e92e4e2	0.2869025
243	0x3ec33881	0.38129047
244	0x3e56df1b	0.20983545
245	0x4081d911	4.0577474
246	0x3f07ddd5	0.53072864
247	0x3edbf921	0.42963508
248	0x3ead5b97	0.3385894
249	0xbdd4ad59	-0.10384626
250	0x3f024fca	0.50903
251	0xbf46033f	-0.77348703
252	0x3f14ae49	0.5807844
253	0x3f8943fd	1.0723873
254	0x3e9a0842	0.30084425
255	0x3f73afb4	0.95189977

fc3.weight f4 [256, 256]
0	0x3e7bbf07	0.2458459
1	0xbfc1ca1a	-1.5139802
2	0x3e8a3d88	0.2700007
3	0x3e555b67	0.20835648
4	0xbe30f18b	-0.17279641
5	0xbade67c0	-0.0016968176
6	0xbd806530	-0.062693
7	0x3f3dd6e7	0.7415604
8	0x3dc99f4d	0.09844837
9	0x3c4ac20a	0.012375364
10	0xbd725070	-0.059158742
11	0xbf9aed9b	-1.2103761
12	0x3efcac2a	0.493501
13	0xbdea94fe	-0.11454199
14	0x3f54a29c	0.8306062
15	0xbd13231f	-0.035922166
16	0x3db2d73e	0.087324604
17	0x3e4549c8	0.19266427
18	0xbe807cb6	-0.25095147
19	0xbebbe4ed	-0.36698094
20	0xbe952d95	-0.2913634
21	0xbd7c3801	-0.061576847
22	0xbd1a6d90	-0.037702143
23	0xbf8d80c8	-1.1054926
24	0xbfcaad08	-1.5834055
25	0xbc98a7f6	-0.018634778
26	0x3f1f45a9	0.6221567
27	0xbcfb11d4	-0.03064815
28	0x3f388dcc	0.72091365
29	0x3ee2f13c	0.44324672
30	0x3d8e8a23	0.06959941
31	0x3f060514	0.523515
32	0xbec71ae7	-0.38887712
33	0x3dd0978a	0.10185154
34	0x3d3bc2ce	0.045840077
35	0xbcf8c243	-0.030366069
36	0xbdabe0a5	-0.08392457
37	0x3f882da4	1.0638928
38	0x3d8ba8cc	0.06819305
39	0xbf84d723	-1.0378155
40	0xbc34b6f7	-0.01102995
41	0xbc455a28	-0.012045421
42	0xbd718f8b	-0.058974784
43	0xbd903526	-0.07041387
44	0x3cdb8d9d	0.026800925
45	0x3d844859	0.06459112
46	0x3eb81fc8	0.35961747
47	0x3d072d78	0.033002347
48	0xbf86688d	-1.0500656
49	0x3c8ea0b0	0.017410606
50	0x3d143ac1	0.036188845
51	0x3d1ce1f0	0.03830141
52	0xbd1e8afa	-0.038706757
53	0xbefa2f7c	-0.48864353
54	0xbf444669	-0.7666994
55	0x3f4ea868	0.8072572
56	0xbc22f7ef	-0.009946807
57	0x3f0a1ba9	0.53948456
58	0xbf99b20a	-1.2007458
59	0xbd770f23	-0.06031717
60	0xbe8394fb	-0.256996
61	0x3fab528c	1.3384566
62	0x3d79d388	0.060992748
63	0x3ea2b936	0.3178193
64	0xbf7b0b93	-0.98064536
65	0x3d0418a2	0.032250054
66	0x3c1380a8	0.009002842
67	0x3d246e9c	0.040144548
68	0x3e1cf17e	0.15326497
69	0xbf107c2d	-0.5643948
70	0x3ec02daa	0.3753484
71	0xbeaf0cf7	-0.3418958
72	0xbc883a1e	-0.016629275
73	0xbe4f663b	-0.20253842
74	0x3dc17b53	0.0944735
75	0xbf1ccd07	-0.61250347
76	0xbda3e641	-0.08002902
77	0xbd7cc434	-0.06171055
78	0x3e965a94	0.2936598
79	0x3f136ef0	0.5759115
80	0xbc76a39e	-0.015053658
81	0xbf447f59	-0.7675682
82	0xbf09b893	-0.5379726
83	0xbd09fd7f	-0.03368902
84	0x3dcf43d5	0.1012036
85	0xbcb131dc	-0.02163022
86	0xbcc489b4	-0.023991443
87	0xbe8ed42f	-0.27896258
88	0xbc7fff18	-0.015624784
89	0xbf5bba1a	-0.85830843
90	0xbd194336	-0.037417613
91	0x3f8f4802	1.119385
92	0xbfa32f25	-1.2748762
93	0x391d1506	0.00014980519
94	0x3f36843b	0.7129552
95	0xbeadeea4	-0.3397113
96	0xbd503fc6	-0.05084207
97	0xbd509300	-0.05092144
98	0x3d63af91	0.055587355
99	0xbc1f34d0	-0.009717181
100	0xbfea82ab	-1.8321127
101	0x3d6a71ee	0.057237558
102	0x3c54e0b9	0.012993031
103	0x3ee80fc7	0.45324537
104	0xbd35475e	-0.044257514
105	0xbf055963	-0.5208952
106	0xbcceae28	-0.025229529
107	0x3f8adf9b	1.0849489
108	0x3dc6160d	0.096721746
109	0x3f16b45d	0.5886896
110	0xbf78bd87	-0.97164196
111	0xbeb568fa	-0.35431653
112	0xbfe3b0dc	-1.7788348
113	0xba6c9140	-0.00090243295
114	0x3daebc10	0.08531964
115	0xbd6ed666	-0.058309935
116	0x3b16e7c2	0.0023026322
117	0x3b97084d	0.004609144
118	0xbc9f5730	-0.019450754
119	0xbca3c2d0	-0.019990355
120	0xbc6d8250	-0.014496401
121	0x3e0b6d2b	0.13615863
122	0xb9a60d19	-0.00031671746
123	0x3f5a720c	0.8533027
124	0x3bd55312	0.006510147
125	0x3ec43069	0.38318184
126	0x3f817cc4	1.01162
127	0xbf5dec27	-0.86688465
128	0xbf76e1a6	-0.9643806
129	0xbd3e4404	-0.046451584
130	0xbeab1541	-0.33414653
131	0x3e71214f	0.23547862
132	0xbe8a3e32	-0.27000576
133	0x3c592c00	0.013255119
134	0xbd03da3a	-0.03219054
135	0xbe1ab189	-0.15106787
136	0xbfb323d7	-1.3995312
137	0x3efe0292	0.49611336
138	0x3ce10e88	0.02747275
139	0x3bee55f0	0.007273428
140	0x3ee227cb	0.44170985
141	0x3eb113a6	0.34585303
142	0xbfd1976b	-1.6374334
143	0x3e93011d	0.28711787
144	0xbdc0e68e	-0.09418975
145	0x3d3ce9f7	0.046121564
146	0xbf377be9	-0.71673447
147	0x3edd023d	0.4316577
148	0xbcc32e36	-0.023825746
149	0x3f11851e	0.56843746
150	0xbf17990f	-0.59217924
151	0xbcabbae3	-0.020963138
152	0xbd37d25c	-0.04487835
153	0xbf6e4f0e	-0.9308938
154	0xbe251d89	-0.16124548
155	0xbe096737	-0.1341828
156	0x3f45e25e	0.77298534
157	0xbf94f550	-1.1637363
158	0x3d52e9f5	0.05149265
159	0x3d11351a	0.035451032
160	0x3be268ae	0.0069094514
161	0xbd885392	-0.06656565
162	0x3dd55bb7	0.10417884
163	0xbdb3108b	-0.0874339
164	0x3cba4c62	0.0227415
165	0x3b361c28	0.0027787779
166	0xbe206d00	-0.1566658
167	0xbcea0d9a	-0.028570939
168	0x3c5a0af4	0.0133082755
169	0x3f5c55e7	0.86068577
170	0x3fedb73a	1.8571541
171	0x3c0e1c05	0.008673673
172	0xbd212a89	-0.039347205
173	0x3de26848	0.11055046
174	0x3ee22ba3	0.44173917
175	0xbbe35121	-0.0069371616
176	0x3f8f3c3a	1.1190255
177	0x3ea14afe	0.31502527
178	0xbf5ca8c7	-0.86195034
179	0xbf3177f1	-0.6932364
180	0x3bd58a56	0.006516735
181	0xbcc8d0bc	-0.024513595
182	0x3d241cae	0.040066414
183	0xbe0b4349	-0.13599886
184	0xbd1e9e96	-0.038725458
185	0xbed0d696	-0.40788716
186	0xbf96dfe6	-1.1787078
187	0xbd0505a4	-0.032476082
188	0x3f3a6e1e	0.72824275
189	0xbe2b11bf	-0.16705988
190	0x3d127b36	0.035762034
191	0x3e4cad81	0.19988061
192	0xbf98ab9c	-1.1927371
193	0xc01a626d	-2.4122574
194	0xbec8cb9d	-0.39217845
195	0x3d14c087	0.03631642
196	0xbd037991	-0.032098357
197	0xbe675e83	-0.22594647
198	0xbb976261	-0.004619882
199	0x3ee248f3	0.4419628
200	0x3d4f1852	0.050560303
201	0x3d2f4388	0.042789012
202	0x3c735f28	0.01485423
203	0xbea71fe2	-0.32641512
204	0x3da6e443	0.08149006
205	0x3f2e2f38	0.680408
206	0xbeaa4247	-0.3325369
207	0xbfb0639c	-1.3780398
208	0xbc52af38	-0.012859158
209	0xbc9f7f73	-0.019469952
210	0x3dbcf036	0.09225504
211	0x3d450e0a	0.04810909
212	0xbeb462bc	-0.35231578
213	0xbe20eaf8	-0.15714633
214	0xbd3c0b8c	-0.04590945
215	0xbdfae0a9	-0.12249882
216	0xbf1634f9	-0.5867458
217	0x3f847e6e	1.0351083
218	0xbbc4221e	-0.0059855124
219	0x3e3ec4d7	0.18629776
220	0x3e962398	0.2932403
221	0xbd3aa5fc	-0.04556845
222	0xc01cb9e1	-2.4488451
223	0x3d20d1a6	0.039262436
224	0xbe2736fe	-0.16329572
225	0x3ebdceff	0.37071988
226	0xbdeac853	-0.1146399
227	0xbea36a74	-0.31917155
228	0x3cdfd198	0.027321622
229	0x3c624666	0.01381073
230	0x3f14d1e8	0.5813279
231	0xbcfd9797	-0.030956073
232	0xbf901bfa	-1.1258538
233	0x3f74306e	0.953864
234	0x3e0d8091	0.13818575
235	0xbfb45313	-1.4087852
236	0x3d7f1a34	0.06228085
237	0xc00d0f7a	-2.2040696
238	0xbe1d74d8	-0.15376604
239	0xbe83d76e	-0.25750297
240	0xbeb4eb5a	-0.3533581
241	0xbe10ef32	-0.14153746
242	0x3e6a7ac0	0.22898388
243	0xbf7de402	-0.9917604
244	0x3f4915d0	0.7854891
245	0xbe00cbb8	-0.12577713
246	0x3f687156	0.90797937
247	0x3e988fb1	0.29797128
248	0xbf1572d1	-0.5837832
249	0x3d07f202	0.03318978
250	0x3ed8fe70	0.4238162
251	0xbd2c132a	-0.042010464
252	0x3ee4b32c	0.44667947
253	0x3f2eb618	0.68246603
254	0xbf48cd3e	-0.78438175
255	0xbe9f4469	-0.3110688

fc3.bias f4 [256]
0	0x3fb5fb6e	1.4217355
1	0x3f1a4b98	0.60271597
2	0x3f9b976d	1.2155586
3	0xbee29cb6	-0.44260186
4	0xbf24a73b	-0.64317673
5	0xbd99fcfa	-0.075189546
6	0x3f82b050	1.0210056
7	0x3ea42e00	0.32066345
8	0xbd943e42	-0.07238437
9	0x3f8f6859	1.1203719
10	0x40a14eae	5.0408545
11	0x3f41ad3d	0.75654966
12	0xbe3dd2bc	-0.1853742
13	0x3ed1da78	0.4098699
14	0xbca43940	-0.02004683
15	0x3fbbafa9	1.4662982
16	0xbdba3071	-0.09091271
17	0xbfae0e09	-1.3598033
18	0x3eb65bbb	0.3561686
19	0xbd9f9023	-0.07791164
20	0x40598279	3.3985884
21	0x40682ec3	3.627854
22	0xbdd221e8	-0.10260373
23	0x3fe0c901	1.7561342
24	0xbef8c8ec	-0.4859079
25	0xbd62125b	-0.055193286
26	0x3fa1322b	1.2593435
27	0xbd745632	-0.059652515
28	0xbdca9995	-0.09892575
29	0x40985214	4.7600193
30	0x3c283433	0.0102663515
31	0xbd2a5543	-0.04158522
32	0x3fbe5cee	1.487211
33	0xbf6022c2	-0.87553036
34	0xbe23f0ee	-0.16009876
35	0xbe1708a3	-0.14749388
36	0x3fd7fc7d	1.6873928
37	0x3e8948af	0.26813266
38	0xbd49af3d	-0.049239386
39	0x3f83ca28	1.0296068
40	0x3f788442	0.9707681
41	0x3f6c2392	0.92241776
42	0xbdbd7c43	-0.09252217
43	0xbd3141da	-0.04327569
44	0x3f89886e	1.074476
45	0x4000821b	2.007941
46	0x3fbfc891	1.4983083
47	0x407a6b0e	3.912784
48	0xbdadd4a1	-0.08487821
49	0xc0342fff	-2.8154294
50	0x40ca1759	6.31535
51	0xbf6522a9	-0.8950601
52	0x40613929	3.5191138
53	0x3f49a66f	0.7876958
54	0x4006d19c	2.1065435
55	0xbda7f1c3	-0.08200409
56	0xc014b287	-2.3233964
57	0x3f9a06e6	1.2033355
58	0x3ea234a9	0.31680802
59	0x3f2c3237	0.6726412
60	0xbe8189be	-0.253004
61	0x3b2ce3d1	0.0026380906
62	0x3fd146e0	1.6349754
63	0xbd1c60da	-0.038178302
64	0xbe20923b	-0.15680782
65	0x3f3a4e8a	0.7277609
66	0x3eaf8ae6	0.3428566
67	0xbf73bf74	-0.9521401
68	0x3f887ffe	1.066406
69	0xbddc7a01	-0.10765458
70	0xbe6b986e	-0.23007366
71	0xbdc7c3c9	-0.0975414
72	0x3fecbeb6	1.84957
73	0xbf753f55	-0.9579976
74	0xbf9b1924	-1.2117047
75	0x3f4a9fcb	0.79150075
76	0x3f256c20	0.6461811
77	0xbe116f1c	-0.14202541
78	0xbd1ea7cf	-0.038734253
79	0x3f4ee0d9	0.8081184
80	0x3eb1c82f	0.3472304
81	0x4048b2cd	3.1359131
82	0xbded491b	-0.115862094
83	0x3dd74123	0.10510471
84	0xbd9af5a0	-0.075663805
85	0xbe5dd8b1	-0.21664692
86	0xbdd6ae53	-0.104824685
87	0x3f4885fd	0.7832945
88	0xbf436c51	-0.7633715
89	0x3eda73cf	0.4266648
90	0xbe6eec48	-0.23332322
91	0x40c04e99	6.0095944
92	0x40329d2d	2.7908432
93	0x40cd684a	6.4189806
94	0xbeb5df55	-0.3552195
95	0xc002faef	-2.0465658
96	0xbd8683de	-0.065681204
97	0x40882014	4.253916
98	0xbe205a69	-0.15659489
99	0x3ff9d1d9	1.9517165
100	0xbda1f6de	-0.07908414
101	0xbc3f9b29	-0.011694708
102	0xbd968033	-0.07348671
103	0xbdde7edf	-0.108640425
104	0xbdc533a0	-0.09628987
105	0x3f2dde06	0.67916906
106	0xbdad580f	-0.084640615
107	0x3f28006b	0.6562564
108	0x3f836d83	1.0267795
109	0xbd7d72f5	-0.06187721
110	0x40d127e2	6.5361185
111	0xbddc3ae3	-0.10753419
112	0xbf81ddb9	-1.0145789
113	0xbdba78a6	-0.09105043
114	0x40844395	4.1332498
115	0xbf4b598c	-0.7943351
116	0xbda7f31d	-0.08200667
117	0x4002a393	2.0412338
118	0xbe14c1cc	-0.14527053
119	0xbe2e39d2	-0.17014244
120	0xbd6ce494	-0.057835177
121	0xbd3ea51a	-0.046544172
122	0xbe0e0820	-0.13870287
123	0x3f8ab705	1.0837103
124	0xbd4f21ef	-0.05056947
125	0x3f6f1c0c	0.9340217
126	0xbe4b9bc7	-0.19883643
127	0x3f53acd9	0.8268562
128	0x406c04eb	3.6878002
129	0xbe1c1378	-0.15241802
130	0xbdf6afae	-0.12045227
131	0x40c736e1	6.225449
132	0x40574c8e	3.3640475
133	0xbd3b7a2a	-0.0457708
134	0xbd44bbb0	-0.048030555
135	0x3f879cb1	1.0594693
136	0x3e840da9	0.25791672
137	0xbd5f0b9a	-0.054454423
138	0x40251607	2.5794694
139	0xbc33cf3c	-0.0109747015
140	0x3f884914	1.0647302
141	0x3f3429ce	0.7037629
142	0x3fe365f8	1.7765493
143	0xbd9b4c3e	-0.075829014
144	0xbe240ab8	-0.16019714
145	0xbd431fc6	-0.047637723
146	0xbdd152a3	-0.1022084
147	0x3fea875d	1.832256
148	0xbeece2ea	-0.46266872
149	0xbd392502	-0.04520131
150	0xbd141236	-0.03615018
151	0x3f56d76b	0.8392245
152	0xbeef341c	-0.46719444
153	0xbc611810	-0.013738647
154	0xbdd8088f	-0.105485074
155	0x3fe6f1a4	1.8042493
156	0xbdacdbb7	-0.08440345
157	0xbe24b775	-0.16085608
158	0xbf2800ec	-0.65626407
159	0xbfa0da2f	-1.2566584
160	0xbeeb5f76	-0.45971268
161	0xbdb3d5d1	-0.087810166
162	0xbddfcde7	-0.10927945
163	0x401cc0e7	2.4492738
164	0x3fc772c2	1.5581896
165	0x3fac7ada	1.3474991
166	0x3f2db4e1	0.67854124
167	0xbc0fb93a	-0.008772189
168	0x3e2b256a	0.16713491
169	0x3f2cba42	0.67471707
170	0x3fcaa19b	1.5830568
171	0x401a1ac6	2.4078841
172	0xbe2d7812	-0.16940334
173	0xbf66a28a	-0.90091765
174	0xbd008f8b	-0.031386893
175	0xbd9b0fb8	-0.075713575
176	0x3fa63d67	1.2987489
177	0x407b9f28	3.9315891
178	0xbde58169	-0.11206324
179	0x3f9496ac	1.1608481
180	0xbdf6a886	-0.12043862
181	0xbe02aa89	-0.12760366
182	0x3efdf5d6	0.4960162
183	0x405cc7dd	3.4496987
184	0x403b91c0	2.9307709
185	0xbd88a0b1	-0.066712745
186	0x3da6e37b	0.08148857
187	0xbc5c0a7a	-0.013430232
188	0x3fb3fded	1.4061867
189	0xbd87a7b1	-0.066237815
190	0x407ebb63	3.9801872
191	0xbe02eff7	-0.12786852
192	0xbf582117	-0.8442549
193	0xbfd6bd2e	-1.6776483
194	0xbe93a6e1	-0.28838256
195	0xbe929e07	-0.2863619
196	0xbe0e7bab	-0.13914363
197	0x3f5e2a51	0.8678332
198	0xbc2c75bc	-0.010526117
199	0x3f94a940	1.1614151
200	0xbce530a1	-0.02797729
201	0x3f1dc47d	0.6162794
202	0xbf83e7ad	-1.0305077
203	0xbdb7727e	-0.089573845
204	0xbea9973e	-0.331232
205	0x3f3c3551	0.73518854
206	0x40b1b73b	5.553617
207	0xbdd18a9d	-0.102315165
208	0x3d141f7f	0.03616285
209	0x40ab6941	5.3565984
210	0x3fb07a66	1.3787353
211	0xbe00d710	-0.1258204
212	0xbd7d1927	-0.061791565
213	0xbe8b21df	-0.2717428
214	0xbdd1dcab	-0.10247167
215	0xbdcefccc	-0.10106811
216	0x3e61a17c	0.22034258
217	0x3fc306c5	1.5236441
218	0x3fa4df70	1.2880688
219	0xbfea8206	-1.832093
220	0x3fbf419b	1.4941896
221	0x3f4fc937	0.81166404
222	0xc01e4175	-2.4727452
223	0xbdc03514	-0.09385124
224	0x3fabd98f	1.3425769
225	0x404c467a	3.1918015
226	0x3f54e777	0.8316569
227	0x3fa716b4	1.3053803
228	0xbdb6b964	-0.08922079
229	0x3f5ea49a	0.8696991
230	0x4018fbad	2.390361
231	0xbeb09bf9	-0.34493998
232	0xbd31e818	-0.043434232
233	0x3f96f483	1.1793369
234	0x3e487d89	0.19579138
235	0xbdcf75d0	-0.10129893
236	0xbeefd72a	-0.46843845
237	0x3f015403	0.50518817
238	0x402d03b3	2.7033508
239	0xbec13d0d	-0.3774189
240	0x402672e9	2.6007636
241	0xbe261c12	-0.16221645
242	0xbd7c9c43	-0.06167246
243	0x3bcb589d	0.006205632
244	0xbddd8bac	-0.10817656
245	0x408e7806	4.4521513
246	0xbe523fa4	-0.2053209
247	0x40653f7f	3.5820005
248	0xbd90f7d0	-0.070785165
249	0xbdae72a8	-0.08517963
250	0x3fed50c7	1.8540276
251	0x3fbf910b	1.4966139
252	0xbdc924d3	-0.09821477
253	0x409aa743	4.8329177
254	0xbd163463	-0.036671054
255	0xc022dcc9	-2.5447257

fc4.weight f4 [5, 256]
0	0xbe8f9ec8	-0.28050828
1	0xbf88407e	-1.0644681
2	0xbdfbf331	-0.123022445
3	0x3ef31271	0.47475007
4	0xbb4fb08c	-0.0031690923
5	0xbd3cf2b8	-0.046129912
6	0xbdc48fb8	-0.09597725
7	0xbead047a	-0.33792478
8	0xbd55cf17	-0.05219945
9	0xbc49f2f9	-0.012325996
10	0xbe27b22a	-0.16376558
11	0xbf86021d	-1.0469395
12	0xbd8b9589	-0.06815631
13	0xbd983ac5	-0.074330844
14	0xbca7c742	-0.020480756
15	0xbdc08d72	-0.094019786
16	0xbd0a6d14	-0.03379543
17	0xbd830551	-0.063974984
18	0x3e58fc8e	0.21190092
19	0x3a42af78	0.00074266596
20	0xbf38bedd	-0.72166234
21	0x3d1886b9	0.037237857
22	0x3cc612db	0.024178913
23	0xbe42d325	-0.19025858
24	0x3eece439	0.4626787
25	0x3cb76398	0.022386357
26	0xbd3231c2	-0.043504484
27	0x3c1c9a48	0.009558268
28	0x3c02cfe6	0.007984137
29	0xbe3279ef	-0.17429326
30	0xbb8b3795	-0.0042485693
31	0xbb53104a	-0.0032205754
32	0xbecdf6a2	-0.40227228
33	0x3eeb7581	0.45988086
34	0x3efa4ecc	0.48888242
35	0x3d6ef9a2	0.058343537
36	0xbeb5509e	-0.3541307
37	0xbde3be16	-0.111202404
38	0xbbbf5c58	-0.0058398657
39	0xbd9692bd	-0.07352207
40	0xbe84af05	-0.2591478
41	0x3e0f63e2	0.14002946
42	0xbd4ae5d0	-0.049535573
43	0xbd97f7bc	-0.074202985
44	0x3f674435	0.9033845
45	0xbe4022e2	-0.18763307
46	0xbda4419e	-0.08020328
47	0x3cb4a9f3	0.022053694
48	0x3c716fa6	0.014736092
49	0x3eac783a	0.33685476
50	0xbe9af234	-0.3026291
51	0x3e90b4b2	0.2826286
52	0x3dbbc306	0.09168057
53	0x3d0f39bd	0.034967173
54	0x3c0adfc3	0.0084762005
55	0x3cb05cb2	0.021528576
56	0xbdaf1d86	-0.08550553
57	0x3d1ddd42	0.038541086
58	0xbeabc508	-0.3354876
59	0xbf58c515	-0.84675723
60	0x3e9be3e8	0.30447316
61	0x3ebe6ebe	0.37193865
62	0xbf338378	-0.7012248
63	0xbca9140f	-0.020639447
64	0x3d215f1d	0.039397348
65	0x3e2b84a5	0.16749819
66	0xbd883375	-0.0665044
67	0x3d659d37	0.056058135
68	0xbeceafc6	-0.4036848
69	0xbd0b0ab8	-0.03394577
70	0x3e226108	0.15857327
71	0x3d4da2a8	0.05020395
72	0x3d088c5c	0.033336982
73	0xbdf6ff7a	-0.12060447
74	0x3d3fcafb	0.046824437
75	0x3e322668	0.17397463
76	0xbef6cfd3	-0.48205432
77	0xbe1fda49	-0.15610613
78	0x3cceb044	0.025230534
79	0xbff011a8	-1.8755388
80	0x3ea0854c	0.31351697
81	0xbe47e792	-0.19521931
82	0xbcd4e888	-0.025989786
83	0xbf1bf5fe	-0.6092223
84	0x3d1fba77	0.038996186
85	0x3e31f4aa	0.17378488
86	0xba82011c	-0.0009918544
87	0x3f093431	0.5359526
88	0x3ec62339	0.38698748
89	0xbf342c6f	-0.703803
90	0x3edae7a2	0.42754847
91	0xbe0d006e	-0.13769695
92	0xbe9ee267	-0.31032106
93	0xbeb24fd8	-0.3482654
94	0xbf12b831	-0.57312304
95	0x3e1dc2b2	0.15406302
96	0x3d12ebd2	0.035869427
97	0xbe36fe43	-0.1787043
98	0x3f13aa4c	0.5768173
99	0xbdbe6772	-0.092970744
100	0x3d9f336e	0.07773481
101	0x3d835492	0.06412615
102	0xbc4a7186	-0.012356168
103	0xbb451d99	-0.0030077456
104	0xbbc3c79c	-0.005974723
105	0xbf086cda	-0.53291094
106	0xbb83709f	-0.004011228
107	0xbeeef705	-0.46672836
108	0xbe336a66	-0.17521057
109	0xbd3a64a5	-0.04550614
110	0xbebebdc3	-0.37254152
111	0xbea2f882	-0.3183022
112	0x3e5375ba	0.20650378
113	0x3c316bd0	0.010828927
114	0xbd858420	-0.065193415
115	0x3f4990fb	0.7873685
116	0x3c758a8f	0.014986648
117	0x3e8a31e5	0.26991192
118	0xbe8fb9c3	-0.28071412
119	0x3e00a0d1	0.12561347
120	0x3d94c453	0.072640084
121	0x3cc92438	0.024553403
122	0x3d841e7d	0.06451128
123	0xbe2ce660	-0.16884756
124	0xbca61b4c	-0.020276688
125	0xbd957856	-0.07298343
126	0x3b9a2baa	0.004704912
127	0xbf16ea58	-0.5895133
128	0x3d7426b4	0.059607223
129	0xbdb4ae78	-0.0882234
130	0x3be776af	0.0070637087
131	0xbe811924	-0.25214493
132	0x3e829628	0.25505185
133	0xbb0d6940	-0.0021577626
134	0xbb915a87	-0.0044358405
135	0x3e8d9bb8	0.27657866
136	0xbf01f822	-0.50769246
137	0x3cedcaee	0.029027428
138	0x3ef9290c	0.4866413
139	0xbc3e1b78	-0.011603229
140	0x3d5910de	0.0529946
141	0xbf34c5f9	-0.7061458
142	0xbed63998	-0.41840816
143	0x3d009f52	0.03140194
144	0x3b9e2b58	0.0048269443
145	0x3c953ea6	0.01821835
146	0x3c830676	0.015994292
147	0xbd198125	-0.037476677
148	0x3da49657	0.080364875
149	0x3a6009df	0.0008546393
150	0x3dab29cd	0.08357582
151	0x3f077820	0.5291767
152	0xbd1808be	-0.037117712
153	0xbcfd3564	-0.030909248
154	0x3d5445bc	0.051824316
155	0x3da34fd5	0.07974211
156	0xbd004308	-0.031313926
157	0xbd30bd61	-0.043149356
158	0x3da9291e	0.082597956
159	0x3ec5f9d4	0.38667166
160	0x3f3055d1	0.68880945
161	0xbd7b22f9	-0.06131265
162	0xbbb031ee	-0.005377046
163	0xbe1c8967	-0.1528679
164	0xbe9e5bcd	-0.30929413
165	0x3cfea498	0.031084344
166	0xbdabfd39	-0.08397908
167	0x3cec3520	0.028833926
168	0xbeaf3a19	-0.34224012
169	0xbe8c3bba	-0.27389318
170	0x3d6f2467	0.058384325
171	0xbe4b97ae	-0.1988208
172	0x3e33654f	0.17519115
173	0xbd0abae7	-0.03386965
174	0x3cb5518e	0.022133615
175	0xbc96a1b2	-0.01838765
176	0xbf4205b7	-0.7578997
177	0xbe86c114	-0.26319182
178	0x3f0a2832	0.53967583
179	0x3e2b7d2a	0.16746965
180	0xbdc01968	-0.09379846
181	0x3d171fc4	0.03689553
182	0x3dc3a664	0.09553221
183	0xbc9be13d	-0.0190283
184	0xbddbfdb6	-0.10741751
185	0xbb9a0515	-0.004700313
186	0x3e3b48fa	0.18289557
187	0xbcaaaab6	-0.020833354
188	0xbe10b900	-0.14133072
189	0x3d301cb6	0.04299613
190	0xbdc58720	-0.09644914
191	0x3e64578d	0.22299023
192	0xbd2d3925	-0.042290825
193	0x3e92726b	0.2860292
194	0xbd8c2dd1	-0.06844676
195	0x3faf7222	1.3706706
196	0xbc56fc1d	-0.013121632
197	0x3d9cca16	0.07655732
198	0x3cd8608d	0.026413227
199	0x3e3da403	0.18519597
200	0x3c42c267	0.011887169
201	0x3dbbb3b7	0.09165137
202	0x3da6f5aa	0.081523255
203	0xbd63b966	-0.05559673
204	0xbdb8778b	-0.09007176
205	0x3d3c3609	0.04594997
206	0xbd5ada92	-0.0534311
207	0x3a5e1ef8	0.00084732426
208	0x3e17723c	0.1478967
209	0xbfcf3ea5	-1.6190993
210	0xbf5c4591	-0.8604365
211	0xbc217305	-0.009854083
212	0x3c6ee38e	0.01458062
213	0x3afaa973	0.0019123986
214	0x3c482376	0.012215486
215	0x3ee07de1	0.43846038
216	0xbe9caa3a	-0.30598623
217	0xbdb2ad34	-0.08724442
218	0xbfdb1340	-1.711525
219	0xbda9fed3	-0.08300557
220	0xbd807cdd	-0.06273816
221	0xbd415fee	-0.047210626
222	0x3eaf9b8b	0.34298357
223	0xbc92335a	-0.017846752
224	0xbe4fd2b7	-0.20295225
225	0xbec9829e	-0.39357466
226	0xbe99ebc6	-0.30062693
227	0xbe918b19	-0.28426436
228	0x3c3f3650	0.011670664
229	0x3e49ea8d	0.1971838
230	0xbeccd43b	-0.4000567
231	0x3dc209de	0.09474538
232	0xbd7cfc4f	-0.061764058
233	0x3da87db7	0.08227103
234	0x3cbf9d27	0.023390366
235	0xbd3a92c0	-0.045550108
236	0x3f665cdf	0.8998546
237	0xbe55688c	-0.20840663
238	0xbd9eba14	-0.07750335
239	0xbe5ce1d4	-0.21570522
240	0x3e8498b5	0.25897756
241	0xbdc827fb	-0.09773251
242	0x3b46eb80	0.0030352771
243	0x3cbe4020	0.023223937
244	0xbc50adc7	-0.012736744
245	0xbe4c3706	-0.19942865
246	0x3dad0080	0.08447361
247	0xbe136e54	-0.14397556
248	0x3bc70630	0.0060737357
249	0xbcfe645f	-0.03105372
250	0x3d21bdc1	0.039487604
251	0x3d0aa969	0.03385297
252	0x3d0b7f48	0.03405693
253	0xbe363a4b	-0.17795675
254	0xbccf8c74	-0.025335528
255	0x3d6ee934	0.05832787

fc4.bias f4 [5]
0	0xc089249c	-4.285719
1	0xc09f0618	-4.969494
2	0xc0719eb3	-3.7753112
3	0xc06b57d6	-3.677236
4	0xc0637063	-3.5537345
