weights/ez_map_Q.pt (torch, 552012 bytes, 8 tensors)

fc1.weight f4 [256, 16]
0.5838203 -0.51269966 -0.033089012 -0.08103397 0.6318652 0.77587706 -0.13238503 -0.3125715
0.18968259 -0.23662633 0.824179 -0.23543279 -0.49171844 0.049322613 -0.08057093 -0.43126923
-1.3266774 0.16899085 0.40978152 0.13437057 0.06417318 -0.11170739 0.19242878 0.021815652
-0.014577797 0.028319106 0.038919576 0.0015800359 0.21893512 -0.20563632 -0.23289654 0.7801198
-0.33034292 -0.4655688 0.505259 0.42605126 0.114522554 -0.008655204 -0.29229727 -0.08701982
0.30601007 0.030296417 0.32940644 -0.10182763 -0.31033164 0.10038223 -0.09754632 -0.056716155
0.516986 0.061370112 -0.043227796 0.11280365 -0.68616045 -0.63312626 -0.95819986 -0.7153629
0.2819858 -1.0679636 0.31458724 -0.3610769 -0.18135044 -0.4122979 -0.13745949 -0.43102667
-0.28297588 -0.040860094 0.07956095 0.0059449007 0.6262391 0.636193 0.15718031 -0.08322943
-0.15482771 -0.049744453 0.35098144 0.18742956 -0.10797639 -0.0040811286 -0.13625245 -0.41372684
-0.42220482 0.14442067 0.018937642 -0.016441492 -0.08749064 -0.5557373 0.24831097 0.3831276
-0.13748232 0.25314873 -0.68235534 -0.17264177 0.3280056 0.099847 0.10797208 -0.18460472
0.050831527 0.8082992 -0.018244034 -0.72383064 0.32487667 -0.03162948 -0.21190858 -0.0038839725
0.4815324 -0.015444001 0.49537 0.0008098681 0.015785456 -0.07407975 0.006062619 0.00041410018
-0.20183231 -0.2970679 -0.06376531 -0.25379512 0.9703435 0.90594244 0.7484095 -0.6594596
-0.43469498 -0.30644524 -0.5372271 0.07262152 -0.026427614 -0.69177794 -0.58388364 0.046993285
-1.2294048 0.09348913 0.063255526 0.05467875 -0.18420982 -0.32158217 0.90762985 -0.02592381
-0.3055058 0.121325225 -0.5379128 0.06378197 0.17038047 0.50016433 0.51897365 0.13527238
0.04913903 0.3773824 -0.5149571 0.2821544 -0.02250244 -0.36857983 -2.280823 -0.31485122
0.14387795 -1.3000667 0.18843092 -0.44229618 -0.38528618 -0.20158124 0.12546968 -0.3509999
-0.21197982 -0.34854287 0.41889927 -0.26742318 0.14838417 0.30061346 -0.50011164 -0.074325025
0.24647816 0.057921994 0.17717202 -0.13073985 -0.47703463 0.14176205 0.027887644 0.019593569
0.016335802 -0.7274626 0.2351426 0.13559337 -0.25790694 -0.30203402 -0.3824243 -0.26469216
-0.43828386 -0.3896565 -0.26609632 -0.051934145 -0.3676784 0.09578265 -0.20457987 0.019640053
-0.8427499 0.13471963 0.48995095 -0.41998252 -0.73298967 -1.032074 -1.8179266 -0.529966
-0.0060788114 -1.8692378 0.097214736 0.14387083 -0.12389006 -0.31801918 -0.28087243 -1.8725451
-0.6137464 0.63770425 -0.014865154 -0.068533726 0.41591042 0.52910215 -0.29308122 -0.0050607882
0.14778906 -0.06559597 0.4058664 -0.077881746 -0.013423495 0.12623204 0.23716548 -0.19319448
0.51946443 -1.353328 -0.00043656875 0.001623055 -0.197992 -0.059051774 -0.36467004 -0.004813103
-0.3655274 -0.2435553 -0.10884952 -0.87581146 -1.3315109 -0.13619378 -0.15021528 0.04903465
-0.28077352 -0.25140786 -0.17636204 -0.3205635 -0.22213197 -0.37737072 -0.0176918 -0.107495256
-0.3991299 0.21409361 -0.26285362 -0.46126342 -0.29775473 0.47754532 0.35833374 0.50218207
00000000: 3f75 153f 4940 03bf 5888 07bd 23f5 a5bd
00000010: ebc1 213f e19f 463f f18f 07be 5f09 a0be
00000020: 273c 423e 2c4e 72be 65fd 523f 4b15 71be
00000030: 85c2 fbbe 8206 4a3d 5f02 a5bd 52cf dcbe
00000040: 91d0 a9bf f00b 2d3e e2ce d13e 7098 093e
00000050: 3a6d 833d d8c6 e4bd 0d0c 453e bdb6 b23c
00000060: b6d7 6ebc 78fd e73c 226a 1f3d 3519 cf3a
00000070: 8730 603e 5492 52be 6e7c 6ebe eeb5 473f
00000080: b522 a9be 095f eebe a758 013f 6423 da3e
00000090: cd8a ea3d 8fce 0dbc fda7 95be 7337 b2bd
000000a0: 5aad 9c3e 3130 f83c f6a7 a83e 018b d0bd
000000b0: cae3 9ebe 3395 cd3d 5dc6 c7bd 334f 68bd
000000c0: 3259 043f 3a5f 7b3d a10f 31bd 9a05 e73d
000000d0: 36a8 2fbf 9014 22bf 964c 75bf 0622 37bf
000000e0: 7160 903e 08b3 88bf 9411 a13e 12df b8be
000000f0: eeb3 39be b618 d3be 2ec2 0cbe 87af dcbe
00000100: 37e2 90be ea5c 27bd daf0 a23d 71cd c23b
00000110: 3551 203f 8bdd 223f e0f3 203e 3174 aabd
00000120: 288b 1ebe d7c0 4bbd d7b3 b33e 89ed 3f3e
00000130: ba22 ddbd fdba 85bb c385 0bbe 01d4 d3be
00000140: 3b2b d8be 03e3 133e 1d23 9b3c 4fb0 86bc
00000150: 4b2e b3bd cd44 0ebf 3b45 7e3e 4d29 c43e
00000160: 2ac8 0cbe b69c 813e d7ae 2ebf 01c9 30be
00000170: 5af0 a73e 957c cc3d 7720 dd3d 0509 3dbe
00000180: b834 503d b2ec 4e3f 8374 95bc f74c 39bf
00000190: 3c56 a63e ea8d 01bd 90fe 58be 3f8a 7ebb
000001a0: 6a8b f63e d608 7dbc 23a1 fd3e 544d 543a
000001b0: 8050 813c 20b7 97bd efa8 c63b 961b d939
000001c0: 21ad 4ebe 4919 98be 6397 82bd 6ff1 81be
000001d0: 6e68 783f d8eb 673f c497 3f3f 58d2 28bf
000001e0: 5790 debe 64e6 9cbe b787 09bf 97ba 943d
000001f0: b97e d8bc 5c18 31bf 6679 15bf 087c 403d
00000200: 235d 9dbf 3b77 bf3d 1d8c 813d d3f6 5f3d
00000210: 80a1 3cbe 6ba6 a4be 6e5a 683f 2c5e d4bc
00000220: 426b 9cbe 5c79 f83d a7b4 09bf 1fa0 823d
00000230: 3878 2e3e c50a 003f 75db 043f d884 0a3e
00000240: 0246 493d 4438 c13e 3ad4 03bf 8b76 903e
00000250: 0957 b8bc 7fb6 bcbe 01f9 11c0 2e34 a1be
00000260: be54 133e 9668 a6bf 09f4 403e a574 e2be
00000270: 3b44 c5be 506b 4ebe 207b 003e 42b6 b3be
00000280: 3d11 59be 3674 b2be f779 d63e b1eb 88be
00000290: 05f2 173e 02ea 993e 5107 00bf b837 98bd
000002a0: c564 7c3e 9d3f 6d3d 956c 353e abe0 05be
000002b0: e23d f4be 122a 113e a174 e43c b182 a03c
000002c0: a9d2 853c fd3a 3abf 39c9 703e fdd8 0a3e
000002d0: 610c 84be 34a4 9abe 1ecd c3be bb85 87be
000002e0: be66 e0be 0f81 c7be c73d 88be e6b8 54bd
000002f0: 5840 bcbe b229 c43d 637d 51be 2de4 a03c
00000300: 75be 57bf f1f3 093e dada fa3e f307 d7be
00000310: 36a5 3bbf 001b 84bf d2b1 e8bf daab 07bf
00000320: c430 c7bb 2f43 efbf 8518 c73d e052 133e
00000330: 12ba fdbd 69d3 a2be 83ce 8fbe 8faf efbf
00000340: 7c1e 1dbf 9640 233f fa8c 73bc 695b 8cbd
00000350: 36f2 d43e 3d73 073f be0e 96be f8d4 a5bb
00000360: 0456 173e 2e57 86bd b9cd cf3e 7780 9fbd
00000370: 38ee 5bbc f942 013e 82db 723e c6d4 45be
00000380: 9ffb 043f da39 adbf 44e3 e4b9 b0bc d43a
00000390: 6abe 4abe 46e0 71bd 08b6 babe 3cb7 9dbb
000003a0: 6826 bbbe 9066 79be 7fec debd 2e35 60bf
000003b0: f36e aabf 6276 0bbe 09d2 19be 8fd8 483d
000003c0: 8cc1 8fbe 88b8 80be 4098 34be e620 a4be
000003d0: 9076 63be bc36 c1be 65ee 90bc 7926 dcbd
000003e0: c15a ccbe 5b3b 5b3e c094 86be b82a ecbe
000003f0: 4f73 98be d280 f43e 8577 b73e 018f 003f

fc1.bias f4 [256]
-0.53604025 0.35739583 -0.51076317 -0.34529862 0.13633813 0.5187331 -0.5315286 0.27549016
0.6098621 -0.48469615 -0.14378962 -0.115350306 0.07420938 -0.13524777 0.03781257 0.26862338
0.40290806 0.11668082 0.54544103 0.47801617 0.77647877 -0.061765745 0.15530969 -0.246891
-0.21261178 -0.33385986 -0.5538845 0.3956878 0.14930643 0.23896272 -0.7760386 0.6138924
0.18489406 0.4630051 -0.57985514 0.6689367 0.29965982 0.06926081 -0.79148257 -0.79293483
0.5334966 0.38714078 -0.39064085 0.57532215 -0.62909174 0.8074029 0.24024896 0.13076763
-0.23264751 -0.658123 0.6382173 0.9870462 -0.4304345 -0.5427943 -0.32887867 -0.42394388
-0.24466377 -0.08724686 -0.0719237 0.0668614 0.0991469 -0.0501301 -0.53548366 0.15140675
0.51829135 -0.20337182 -1.0411787 -0.4992078 0.043749433 0.6039509 -0.4258407 0.21483372
-0.1955868 0.34241104 0.045512103 0.03301367 0.5587071 0.7535224 0.7672472 0.30693817
0.24534434 -0.2733826 0.4098922 0.6076507 -0.115575515 0.2836448 0.10020706 -0.066875376
0.07367348 -0.16702777 0.28964978 -0.42942145 0.07632927 0.5772203 0.63288534 -0.20484017
0.03694091 0.2404966 -0.20336315 -1.8924592 -0.85373896 0.6403508 0.96232355 0.45560983
0.60400677 -0.17069745 0.17969146 0.5436518 0.9416303 0.1544597 0.72195256 0.56121796
0.35432348 0.7136256 -0.05427188 0.045931596 -0.46718732 -0.1477634 0.27047294 0.11163747
0.20217025 0.07694249 -1.428814 -0.15518235 -0.13080367 -0.1934706 0.24729532 -0.1428861
0.057930052 -0.7438941 0.7998751 0.68765 0.0357819 0.0012236319 -0.131035 0.05738733
-0.40186504 0.033946022 -0.05008279 0.58989275 0.5240425 -0.02041069 0.10824207 0.7027335
-0.916319 0.3440606 -0.06958517 2.0002255 -0.02788021 -0.37038624 -0.05382953 0.17739362
0.8832294 -1.1775025 -0.44497988 -0.008687386 0.13634299 0.6867193 -0.038756862 0.5209299
-0.03488173 -1.1446503 -0.04328609 -0.058108397 0.49282667 0.5621263 -0.0515942 0.48422137
-0.3257377 -1.1828716 -0.2751398 -0.29526466 -0.4522528 -0.2906012 1.0713965 -0.26135528
-0.8323981 -0.8344986 0.685754 -0.8936918 0.57671195 0.7347653 -0.018385012 -0.23734176
0.17181973 0.25308594 -0.7604315 0.27395204 0.23455353 0.25896657 -0.42007416 0.39552003
-0.97049487 0.032576226 0.23631422 0.57518977 0.4470108 0.4188862 0.22431616 0.3809812
-0.014016552 0.7899785 0.42011753 0.45374346 -0.78945965 0.4881495 0.29931048 0.20021163
0.06269339 0.062786475 0.39770445 -0.23983915 -0.6995351 -0.53997296 0.24079151 0.11388999
0.016250927 -0.16002952 -0.5287198 0.15638347 0.40283626 0.41431957 -0.05466197 0.32178372
-1.2722585 0.006097569 -0.29505983 0.26878342 -0.0032172508 0.57526714 0.05368849 0.018788654
0.07237814 -0.9497171 0.47183672 0.3386558 -1.3269771 -0.9911517 0.7291703 -0.06581067
0.053837314 0.5498281 -0.10206459 -0.23145519 -0.07472875 -0.70938015 0.2760055 0.27620763
0.16758786 -0.10046855 -0.4578647 0.42106885 -0.41948804 -0.20675568 0.004906476 0.42119563
00000000: ef39 09bf 96fc b63e 60c1 02bf fbca b0be
00000010: 399c 0b3e b1cb 043f 4212 08bf 0c0d 8d3e
00000020: ec1f 1c3f 182a f8be 963d 13be c83c ecbd
00000030: 16fb 973d 647e 0abe 5ae1 1a3d 0189 893e
00000040: f749 ce3e 5bf6 ee3d 06a2 0b3f 89be f43e
00000050: 50c7 463f 14fe 7cbd 8109 1f3e ffd0 7cbe
00000060: e7b6 59be aeef aabe 60cb 0dbf 9797 ca3e
00000070: c9e3 183e a5b2 743e 77aa 46bf 0d28 1d3f
00000080: de54 3d3e 010f ed3e 6371 14bf 703f 2b3f
00000090: 036d 993e 9dd8 8d3d 9a9e 4abf c7fd 4abf
000000a0: 3c93 083f 5137 c63e 1402 c8be 5048 133f
000000b0: 280c 21bf f5b1 4e3f d303 763e f3e7 053e
000000c0: 263b 6ebe c07a 28bf 3562 233f 0faf 7c3f
000000d0: e961 dcbe 91f4 0abf c962 a8be 2c0f d9be
000000e0: 2489 7abe 7bae b2bd bc4c 93bd a1ee 883d
000000f0: 880d cb3d 3855 4dbd 7515 09bf 5f0a 1b3e
00000100: beae 043f b440 50be 5845 85bf 2a98 ffbe
00000110: 9b32 333d 879c 1a3f cb07 dabe 5ffd 5b3e
00000120: e847 48be 8050 af3e e66a 3a3d 5839 073d
00000130: 6e07 0f3f d8e6 403f 506a 443f 0027 9d3e
00000140: 8c3b 7b3e cef8 8bbe 64dd d13e ff8e 1b3f
00000150: dbb2 ecbd e439 913e 5c39 cd3d f5f5 88bd
00000160: 1fe2 963d 5409 2bbe fa4c 943e 21dd dbbe
00000170: 8552 9c3d b6c4 133f c604 223f 9fc1 51be
00000180: 5a4f 173d be44 763e 6e3e 50be 1a3c f2bf
00000190: a38e 5abf 08ee 233f d65a 763f b145 e93e
000001a0: 30a0 1a3f 50cb 2ebe 0a01 383e c42c 0b3f
000001b0: af0e 713f af2a 1e3e e2d1 383f fbab 0f3f
000001c0: e369 b53e 2bb0 363f 314c 5ebd c522 3c3d
000001d0: 2d33 efbe 4a4f 17be 6e7b 8a3e 30a2 e43d
000001e0: b805 4f3e 0694 9d3d 61e3 b6bf 1fe8 1ebe
000001f0: 66f1 05be 281d 46be fc3a 7d3e bc50 12be
00000200: 1048 6d3d d86f 3ebf 9dc4 4c3f d509 303f
00000210: 0b90 123d 4662 a03a 0a2e 06be fa0e 6b3d
00000220: 41c1 cdbe fc0a 0b3d 9d23 4dbd 3603 173f
00000230: a627 063f 5234 a7bc 05ae dd3d 58e6 333f
00000240: e293 6abf b628 b03e ab82 8ebd b203 0040
00000250: 0a65 e4bc 44a3 bdbe 5a7c 5cbd aca6 353e
00000260: 521b 623f 67b8 96bf 67d4 e3be 8a55 0ebc
00000270: 7f9d 0b3e d6cc 2f3f 84bf 1ebd a95b 053f
00000280: 25e0 0ebd e783 92bf c14c 31bd 1203 6ebd
00000290: c753 fc3e 82e7 0f3f 7154 53bd ddeb f73e
000002a0: 18c7 a6be 5668 97bf 20df 8cbe ee2c 97be
000002b0: ae8d e7be aec9 94be 8523 893f 5cd0 85be
000002c0: 0b18 55bf b3a1 55bf 938d 2f3f fcc8 64bf
000002d0: 65a3 133f 9419 3c3f 2a9c 96bc b809 73be
000002e0: 83f1 2f3e 7b94 813e a4ab 42bf 7143 8c3e
000002f0: cd2e 703e 4497 843e f613 d7be 9a81 ca3e
00000300: 5a72 78bf a66e 053d 5bfc 713e a33f 133f
00000310: 99de e43e 4178 d63e 23b3 653e f80f c33e
00000320: aea5 65bc 083c 4a3f a519 d73e 1051 e83e
00000330: 071a 4abf bbee f93e 393f 993e 4704 4d3e
00000340: 6465 803d 3296 803d eb9f cb3e 6598 75be
00000350: bb14 33bf ab3b 0abf 0d92 763e 283f e93d
00000360: aa20 853c c7de 23be 2e5a 07bf fd22 203e
00000370: 8e40 ce3e b221 d43e 3be5 5fbd d6c0 a43e
00000380: 5ed9 a2bf 1ece c73b 1512 97be fb9d 893e
00000390: 83d8 52bb b544 133f 76e8 5b3d aaea 993c
000003a0: fe3a 943d a920 73bf 9594 f13e 4b64 ad3e
000003b0: 63da a9bf 1ebc 7dbf e8aa 3a3f bfc7 86bd
000003c0: 8484 5c3d 89c1 0c3f 3d07 d1bd 9702 6dbe
000003d0: 630b 99bd f099 35bf 9850 8d3e 166b 8d3e
000003e0: 279c 2b3e 75c2 cdbd 3e6d eabe 5696 d73e
000003f0: 23c7 d6be c3b7 53be 81c6 a03b f4a6 d73e

fc2.weight f4 [256, 256]
-0.009300138 -0.56965405 -0.93645537 -0.026870817 0.09777032 0.11196803 -0.33933446 0.09775236
0.34506732 0.17520744 0.080473095 -0.17660065 -0.1120872 -0.12591626 0.13330427 0.41828567
-0.56121826 0.13747132 1.142438 -0.48456076 -0.16592437 0.039704215 -2.0990524 0.13770488
0.10614628 -0.22246042 -0.2197213 -0.00049832324 -0.19408937 0.17761695 0.009860286 -1.3525573
-0.7492485 -0.02902265 0.018877901 0.12031014 -0.7255429 -0.24960311 0.4406681 0.008805082
0.13435906 -0.8660298 0.19339858 0.9898951 0.37000906 0.017079959 0.30312225 -2.50442
-1.5752773 0.21845967 0.21139945 0.3127763 0.1944314 0.06744062 -0.1765551 -0.19625136
-0.56246156 -0.46510023 0.30124074 0.16306075 0.043852672 0.18029001 -2.7027519 0.025537612
-1.981594 0.041885052 -1.165726 -0.23698422 -0.16784057 0.13755041 0.05701395 0.5093455
0.2584225 0.23446067 0.22446948 0.108725555 1.9587026 0.21059339 0.030352611 0.14101227
-0.07643747 -0.5041074 -1.0664861 0.5006822 -1.5021677 0.21989188 0.1479417 0.24285525
-0.030790774 0.10576179 0.16087507 0.14384803 -0.10258523 0.11768699 -0.5430945 -1.7586358
0.104031235 0.3224347 -1.2302793 -0.020576883 0.40594617 -0.73171777 0.016988534 -0.3592012
0.30775064 -0.07883496 -0.7686146 0.79949176 0.10375498 -0.528433 0.30729422 0.20041059
-1.2418324 -0.11379983 0.110766426 0.22105479 0.048900872 0.079023555 0.22328371 -0.2054802
-0.03393532 0.059075125 -0.10310107 -1.1968004 0.29083598 -0.7553162 -1.5072359 0.002458225
-0.022550207 -0.28998116 -0.15932482 0.70212436 -0.18001556 -0.092485026 0.33775038 0.0069696913
0.060952716 -1.0776149 0.3556718 0.5114915 -0.5070059 0.018781226 -0.2876238 0.2626931
-0.16737865 -1.0081534 -0.118736334 -0.30467108 -0.10724699 -0.5251756 -0.13325591 0.15660089
-1.1487178 0.20649697 0.052264877 -4.605798 -0.12676054 0.28182822 0.09494748 0.08185929
-0.4905897 -0.85952586 -0.09274113 0.27824125 0.062142614 -0.041565597 0.24151547 0.06042911
0.2538659 0.15159148 -0.74545836 -0.119744286 -3.1968768 -0.06782488 0.3654965 -0.6753669
-0.27617723 0.1180607 0.05192255 -0.44918308 0.53992563 0.11147395 0.10395823 0.041241996
0.4464989 0.22521603 -0.642351 0.26355755 0.053362817 -0.53163046 0.24737097 -0.067954876
-0.19210313 -0.12795098 -0.02359802 0.14330234 -0.7171188 0.46759248 -2.1664333 0.62136173
-0.09692712 -0.07078077 -1.2890196 -0.8302629 0.15684931 -0.5415671 -0.07825219 0.26012418
-0.9967001 0.19614477 0.25112188 0.14448023 -0.196388 -0.30822363 0.3477955 -0.61537045
0.06348292 0.09105442 -0.94273686 0.18507133 -0.10220764 0.5241019 0.1904802 0.45424294
0.01842263 -2.7873363 0.2606986 0.12946987 -1.9878438 -0.019812303 0.12018651 0.1843258
0.120792806 0.026677059 0.27568147 0.25157776 0.2737172 -0.030039223 0.49518225 0.31365415
0.14371507 0.18189585 0.15144067 0.33088568 -0.0636597 0.1804384 -1.079458 0.101883106
-0.012836041 0.056546215 -0.042892084 0.8766979 -0.0007023589 0.22942246 0.20649691 -0.5573035
00000000: 9b5f 18bc d9d4 11bf 8abb 6fbf 3020 dcbc
00000010: ce3b c83d 7f4f e53d 3fbd adbe 6432 c83d
00000020: aaac b03e 9469 333e 14cf a43d cdd6 34be
00000030: f98d e5bd 31f0 00be ea80 083e 8a29 d63e
00000040: 00ac 0fbf 48c5 0c3e 693b 923f 5918 f8be
00000050: 14e8 29be e3a0 223d e056 06c0 8202 0d3e
00000060: 3963 d93d aacc 63be 9ffe 60be e8a1 02ba
00000070: 5dbf 46be 38e1 353e 098d 213c 9920 adbf
00000080: c0ce 3fbf e9c0 edbc d4a5 9a3c 2a65 f63d
00000090: 2ebd 39bf f597 7fbe 409f e13e 3143 103c
000000a0: 6c95 093e 21b4 5dbf 470a 463e c469 7d3f
000000b0: d471 bd3e 45eb 8b3c d732 9b3e 6b48 20c0
000000c0: b0a2 c9bf e4b3 5f3e 1979 583e 3724 a03e
000000d0: 0619 473e 4f1e 8a3d dcca 34be 1ef6 48be
000000e0: 7bfd 0fbf 9e21 eebe 3a3c 9a3e 66f9 263e
000000f0: dc9e 333d f29d 383e e3f9 2cc0 4134 d13c
00000100: dfa4 fdbf a98f 2b3d 8236 95bf feab 72be
00000110: 66de 2bbe 04da 0c3e 7687 693d 7764 023f
00000120: f44f 843e 7516 703e 54db 653e 81ab de3d
00000130: c4b6 fa3f cba5 573e 0aa6 f83c 8565 103e
00000140: 408b 9cbd 2f0d 01bf 9e82 88bf b52c 003f
00000150: 0847 c0bf 562b 613e 077e 173e 0caf 783e
00000160: ef3c fcbc a399 d83d 6fbc 243e e64c 133e
00000170: 3418 d2bd e005 f13d 3e08 0bbf fa1a e1bf
00000180: 540e d53d 2916 a53e cb79 9dbf da90 a8bc
00000190: 2dd8 cf3e db51 3bbf 8a2b 8b3c 38e9 b7be
000001a0: 7e91 9d3e 3974 a1bd edc3 44bf 7eab 4c3f
000001b0: 7e7d d43d 6347 07bf ab55 9d3e 6f38 4d3e
000001c0: 5df4 9ebf e30f e9bd 82d9 e23d 305c 623e
000001d0: 484c 483d 1ad7 a13d 7ca4 643e 6769 52be
000001e0: c3ff 0abd c2f8 713d a726 d3bd c130 99bf
000001f0: 74e8 943e 675c 41bf 1bed c0bf 2c1a 213b
00000200: 36bb b8bc 6978 94be 0c26 23be 6cbe 333f
00000210: 0056 38be ca68 bdbd 9eed ac3e 0262 e43b
00000220: 8ea9 793d 49ef 89bf 9d1a b63e 1bf1 023f
00000230: 23cb 01bf 16db 993c 6d43 93be b67f 863e
00000240: 4f65 2bbe 2c0b 81bf 092c f3bd d9fd 9bbe
00000250: 4fa4 dbbd e871 06bf 3d74 08be fc5b 203e
00000260: 2f09 93bf f173 533e b213 563d b262 93c0
00000270: 84cd 01be ca4b 903e d373 c23d d8a5 a73d
00000280: 932e fbbe e309 5cbf 10ef bdbd a375 8e3e
00000290: 4189 7e3d b040 2abd d54f 773e 8484 773d
000002a0: b6fa 813e cc3a 1b3e 5cd6 3ebf 7e3c f5bd
000002b0: a199 4cc0 c5e7 8abd 5b22 bb3e d8e4 2cbf
000002c0: 1a67 8dbe cfc9 f13d bdac 543d 53fb e5be
000002d0: 9138 0a3f 744c e43d 0de8 d43d 5eed 283d
000002e0: 819b e43e 089f 663e 1d71 24bf 04f1 863e
000002f0: f892 5a3d ef18 08bf d14e 7d3e ed2b 8bbd
00000300: afb6 44be 9505 03be a350 c1bc d9bd 123e
00000310: 1995 37bf 4868 ef3e d8a6 0ac0 9011 1f3f
00000320: ba81 c6bd 82f5 90bd 98fe a4bf 1c8c 54bf
00000330: 1b9d 203e 24a4 0abf af42 a0bd ff2e 853e
00000340: bd27 7fbf 2dda 483e 0c93 803e a0f2 133e
00000350: f019 49be 7dcf 9dbe 4012 b23e eb88 1dbf
00000360: 5503 823d bd7a ba3d 3457 71bf 5783 3d3e
00000370: 3d52 d1bd 8b2b 063f 3e0d 433e 8892 e83e
00000380: 0eeb 963c b863 32c0 497a 853e c093 043e
00000390: aa71 febf 694d a2bc 5824 f63d e7bf 3c3e
000003a0: 3862 f73d d989 da3c 1f26 8d3e cdce 803e
000003b0: a924 8c3e d114 f6bc 8788 fd3e 4797 a03e
000003c0: 0b2a 133e e842 3a3e 4313 1b3e d969 a93e
000003d0: 0460 82bd d8c4 383e ae2b 8abf 17a8 d03d
000003e0: 424e 52bc 019d 673d 9caf 2fbd 466f 603f
000003f0: 821e 38ba b9ed 6a3e ed73 533e 71ab 0ebf

fc2.bias f4 [256]
0.28726837 -0.07014786 0.63388324 0.45899743 0.07449564 0.4713191 0.2300807 -0.03976899
0.01300603 -0.22461241 0.43918744 -0.037856344 0.15601383 0.25300288 0.09941862 0.015957449
0.3918833 -0.002964763 -0.21544705 0.3866174 0.59259915 0.45231694 0.4491489 0.1417208
0.25116715 -0.00032649757 0.31688887 -0.0124960765 -0.18709862 0.33573553 0.75211316 0.58826774
0.30388805 -0.0027248557 0.13055383 0.31709993 0.3774192 0.1434691 0.118706234 -0.020686759
0.5030738 0.26360616 -0.20139045 0.3318042 0.40714732 0.63387644 0.06475041 0.065801345
-0.17359182 0.16970609 0.6482221 -0.06652927 0.28358418 -0.014904054 -0.052950963 0.11198868
0.014696944 -0.0017336858 0.35937104 -0.3792151 -6.920551e-05 0.45703134 0.17186981 0.0953501
0.6046198 0.5772327 -0.0337019 -0.06575228 0.3609052 0.45308685 0.10578458 0.33372593
0.32322112 0.11497064 0.6471217 0.26864323 0.80995584 0.5419812 0.22081372 0.4244677
0.2517597 0.37147382 0.43309957 0.09632162 -0.10154452 0.036252808 -0.122116335 0.20925775
0.7179294 0.01129071 0.28045645 0.50627375 -0.07599391 0.711882 0.22085729 0.18216525
0.0655445 0.18972231 0.4435588 0.29519597 0.49031636 0.23638 0.0054889093 0.07081108
-0.18220037 0.009815642 -0.030305905 0.21495691 0.050631467 0.35866705 0.71630764 0.44557282
-0.10979168 -0.04189982 0.45852277 -0.22662173 0.118099906 0.46853584 0.2580866 0.30084926
0.2612461 -0.11008279 0.645722 0.2799181 0.31684315 0.15814248 0.54994416 -0.09229536
0.23479448 -0.029510967 0.0039787176 0.48365152 0.30003247 0.42607296 -0.04561984 -0.092608996
0.1135766 0.52483135 -0.029698104 0.06205307 0.38828507 0.2008272 0.40371734 0.61672026
-0.10568221 -0.016190518 -0.08008818 -0.0467416 -0.29141435 0.10152009 0.56837875 -0.24335027
0.38194412 0.43985063 -0.08030912 0.10042909 0.22365288 0.24357969 0.2013676 -0.07465685
0.65200824 -0.12125613 0.41854385 -0.17614013 -0.13269027 -0.062828034 0.33640242 0.042017527
-0.013970728 0.007643496 -0.095008396 -0.13243583 -0.38644654 -0.28639105 0.29956248 0.37712947
0.2586327 0.032132596 0.0019475055 0.08735429 0.3333293 -0.08827603 0.16050884 0.32131675
-0.17849351 -0.025336755 -0.062066764 0.7193269 0.19663809 0.12372697 0.28716862 -0.10745726
0.023839623 0.01054878 0.19639602 -0.09620364 0.6919179 0.45797643 0.28547373 -0.022846555
0.4137135 0.49231327 -0.34649777 -0.012722265 0.31748793 -0.050550904 0.5228655 -0.11957734
0.122528 0.25916395 -0.08995558 0.5964763 -0.058311716 0.2622504 0.51192117 0.007263036
0.3015081 0.31812677 0.37979856 -0.07096598 -0.1124855 0.03166462 0.22053932 0.24250986
0.42742655 0.46089497 0.54550415 0.37611175 0.5431988 0.20179439 0.4582669 0.07177265
0.24518272 0.6706737 -0.10576744 0.3609241 -0.13944553 -0.07132274 0.24401312 -0.048453107
0.4951279 0.12886426 0.19906063 -0.08868586 0.34563988 -0.06663659 -0.28497952 -0.053286802
0.45526332 -0.02772028 -0.0035220352 0.10078374 -0.11278176 0.6159895 0.6813008 0.4691787
00000000: d714 933e aea9 8fbd 2c46 223f b601 eb3e
00000010: 2c91 983d bd50 f13e 469a 6b3e cfe4 22bd
00000020: 3e17 553c cc00 66be 2ddd e03e 410f 1bbd
00000030: 17c2 1f3e 9889 813e fd9b cb3d 32b9 823c
00000040: eea4 c83e 784c 42bb 279e 5cbe b7f2 c53e
00000050: 94b4 173f 1696 e73e d8f6 e53e 421f 113e
00000060: fb98 803e c32d abb9 423f a23e 58bc 4cbc
00000070: c896 3fbe 87e5 ab3e 7d8a 403f b798 163f
00000080: 3797 9b3e 7e93 32bb e7af 053e ec5a a23e
00000090: 173d c13e 90e9 123e 411c f33d 4777 a9bc
000000a0: 72c9 003f 63f7 863e 4c39 4ebe 3de2 a93e
000000b0: 9d75 d03e ba45 223f dd9b 843d dbc2 863d
000000c0: 0ec2 31be 6fc7 2d3e e2f1 253f 7f40 88bd
000000d0: f231 913e 2230 74bc 1ce3 58bd 525a e53d
000000e0: 73cb 703c d83c e3ba 7bff b73e 7b28 c2be
000000f0: 6d22 91b8 0300 ea3e a4fe 2f3e ea46 c33d
00000100: 5dc8 1a3f 86c5 133f 010b 0abd 22a9 86bd
00000110: 91c8 b83e 00fb e73e 96a5 d83d 20de aa3e
00000120: 3d7d a53e ba75 eb3d c5a9 253f 9b8b 893e
00000130: 4459 4f3f 48bf 0a3f fe1c 623e d553 d93e
00000140: a6e6 803e d131 be3e 3abf dd3e 4544 c53d
00000150: 93f6 cfbd d37d 143d 2118 fabd aa47 563e
00000160: 39ca 373f acfc 383c fd97 8f3e 289b 013f
00000170: b2a2 9bbd e63d 363f 6a28 623e 8789 3a3e
00000180: 323c 863d 9146 423e 241a e33e ed23 973e
00000190: bf0a fb3e 990d 723e 4fdc b33b 6605 913d
000001a0: bc92 3abe c9d1 203c 1744 f8bc aa1d 5c3e
000001b0: f162 4f3d 35a3 b73e f05f 373f 1f22 e43e
000001c0: 76da e0bd 259f 2bbd 7fc3 ea3e 870f 68be
000001d0: 5dde f13d eee3 ef3e ed23 843e ea08 9a3e
000001e0: 0cc2 853e 1673 e1bd 094e 253f 6d51 8f3e
000001f0: 4439 a23e 1af0 213e 24c9 0c3f 5a05 bdbd
00000200: f76d 703e fcc0 f1bc e75f 823b 2ca1 f73e
00000210: db9d 993e 3c26 da3e dfdb 3abd c9a9 bdbd
00000220: d99a e83d 595b 063f 7049 f3bc 5c2b 7e3d
00000230: 4dcd c63e a5a5 4d3e 0ab4 ce3e 61e1 1d3f
00000240: ea6f d8bd faa1 84bc 4605 a4bd 1f74 3fbd
00000250: 4334 95be c4e9 cf3d 4581 113f d030 79be
00000260: 2e8e c33e 1a34 e13e 1c79 a4bd c4ad cd3d
00000270: 4305 653e f46c 793e 4f33 4e3e b1e5 98bd
00000280: 03ea 263f 2255 f8bd 614b d63e 145e 34be
00000290: f5df 07be fcab 80bd f03c ac3e 921a 2c3d
000002a0: 7be5 64bc 4b76 fa3b c393 c2bd 429d 07be
000002b0: 52dc c5be d9a1 92be 4160 993e 1d17 c13e
000002c0: 816b 843e 789d 033d 7143 ff3a cee6 b23d
000002d0: 23aa aa3e 10ca b4bd 6e5c 243e a183 a43e
000002e0: 01c7 36be 078f cfbc b839 7ebd cf25 383f
000002f0: 7f5b 493e 9164 fd3d c407 933e 8d12 dcbd
00000300: 504b c33c cad4 2c3c 0a1c 493e 6a06 c5bd
00000310: 8821 313f e37b ea3e 9d29 923e b328 bbbc
00000320: 42d2 d33e 7c10 fc3e 2868 b1be 0c71 50bc
00000330: c78d a23e 770e 4fbd 83da 053f f7e4 f4bd
00000340: f6ef fa3d 23b1 843e a23a b8bd acb2 183f
00000350: 44d8 6ebd af45 863e 440d 033f c3fe ed3b
00000360: 455f 9a3e 83e1 a23e f574 c23e 9d56 91bd
00000370: cc5e e6bd c3b2 013d 0fd5 613e 8154 783e
00000380: a7d7 da3e 6dfa eb3e 29a6 0b3f b891 c03e
00000390: 140f 0b3f 30a3 4e3e f6a1 ea3e 8afd 923d
000003a0: 2e11 7b3e 46b1 2b3f 999c d8bd 0bcb b83e
000003b0: cfca 0ebe a811 92bd 93de 793e c476 46bd
000003c0: 6781 fd3e fef4 033e 8dd6 4b3e efa0 b5bd
000003d0: b6f7 b03e c478 88bd d6e8 91be 4343 5abd
000003e0: 4618 e93e a415 e3bc f2d1 66bb b567 ce3d
000003f0: 20fa e6bd 7db1 1d3f bb69 2e3f 3138 f03e

fc3.weight f4 [256, 256]
-0.09830328 -0.010153681 -0.029750638 -0.1128557 -0.46825093 0.097517274 0.16920546 0.033610214
-0.7786411 -0.11687551 0.22278963 -0.0061166417 0.18860209 -0.5053019 -0.53058237 0.3462466
0.05704881 0.0065678507 -0.2890349 -0.3707263 0.029353824 -0.15238787 -0.28931305 -0.26053613
0.37202415 -0.0056135394 0.01860826 0.036762565 -0.48369247 -0.424386 0.19352907 -0.039670072
-0.22482233 -0.61014265 -0.03280703 0.19812706 -0.264579 0.20322804 1.2397702 -0.02297828
0.09601101 0.26284924 0.03654534 0.079304874 0.228346 0.8268677 -0.3025315 0.6103044
0.6791288 0.49318802 0.039400518 -0.047601197 0.14819428 0.050824158 -0.012924326 0.6486095
-1.0023342 0.035255883 0.18979423 0.197784 0.03753577 0.54006225 0.0145667605 0.20988569
0.87459797 -0.4813766 0.09822618 0.00057283934 0.28232205 0.15161477 0.5777136 0.51169413
-0.40130794 -0.3689753 -0.29702005 0.11315608 -0.5428543 0.18068166 0.695032 0.3369396
0.042085633 0.07687431 0.45501783 -0.6770435 -0.57306486 0.6529008 -0.0068143145 0.026913702
0.3382101 -1.2165552 0.13453351 -0.037763394 -0.08383757 0.1794521 0.16670497 0.55071187
0.5640022 -0.14980093 -0.11977636 0.34438536 0.09098394 0.4940354 -0.031142363 0.058138642
-0.67503536 0.6393978 0.0002998514 0.10573855 1.0205865 -0.42208508 0.21376348 0.11881369
-0.07154875 0.021661218 0.3712706 -1.0498337 -0.12804864 0.60292125 -0.3435288 -0.03795541
-0.14189382 0.005666685 0.30095914 0.4931702 0.0036306402 0.83183527 0.29357752 0.0059977
-0.3102435 -0.017183479 0.015869465 0.22926489 1.012018 -0.19946024 -0.024951506 -1.3000901
0.22687505 0.00377331 0.000927822 0.51191264 0.13295633 0.83760595 0.3785085 -0.7354359
-0.061454974 -0.012718276 0.027482409 -0.013393971 -0.19736038 0.0917357 -0.24983573 0.6318372
-0.08994935 -0.22200455 -0.62297326 -0.33405715 0.969187 -0.2008835 -0.19643396 9.427108e-06
0.14576857 -0.0012193623 -0.13572624 -0.38469967 -0.0885551 0.018826053 -0.025214663 0.22127919
-0.47928756 0.10229099 -0.04136685 0.06308845 -1.1547045 -0.3624769 0.50206774 0.5548725
0.07007405 0.19138385 -0.02887122 0.04418192 0.025624847 -0.040505204 0.106910914 0.81120604
0.16343266 0.08085788 0.013505999 0.48151597 0.6697029 0.21721812 0.3460341 0.68235016
0.00427736 -0.031658888 -0.6419249 -0.05510712 0.112110555 -0.10844053 0.6159267 0.03254347
-0.15775618 0.010590577 -0.21230496 0.01412993 -0.534909 -0.0048637893 0.29824394 -0.028706774
1.1269363 -0.050428823 0.03656302 0.82035315 -0.4910586 0.27624476 0.24763857 0.07618867
-0.16240998 -0.036905833 -0.06715808 -0.042894464 0.004797127 -1.1567601 0.36401635 0.28776103
-0.19513117 -0.051446185 0.41450197 -0.04156728 -0.36060414 0.73490024 0.24879229 0.77711004
0.37486875 -0.045048427 0.05417194 0.14704712 -0.6869386 -0.020557482 0.13778058 -0.010743146
0.8645199 -0.06304202 -0.424844 -0.010144954 0.40249926 0.028616404 -0.95018166 -0.047672324
-0.16020818 -0.025388874 0.02558838 0.0105148405 -0.015930546 -0.098278254 0.4457506 0.20143141
00000000: 3b53 c9bd a05b 26bc 9cb7 f3bc e420 e7bd
00000010: 96be efbe 23b7 c73d 3244 2d3e ddaa 093d
00000020: 0655 47bf 6d5c efbd f722 643e 1c6e c8bb
00000030: e820 413e 775b 01bf 3fd4 07bf 3c47 b13e
00000040: 03ac 693d 2037 d73b 62fc 93be d6cf bdbe
00000050: 6e77 f03c 910b 1cbe d720 94be fe64 85be
00000060: f379 be3e c8f1 b7bb 5a70 983c 5894 163d
00000070: 8aa6 f7be 1f49 d9be 7c2c 463e 167d 22bd
00000080: d337 66be 4f32 1cbf aa60 06bd d2e1 4a3e
00000090: e676 87be 031b 503e cab0 9e3f f23c bcbc
000000a0: 6ca1 c43d 2d94 863e 91b0 153d 986a a23d
000000b0: 89d3 693e 9aad 533f 69e5 9abe e93c 1c3f
000000c0: 63db 2d3f 2483 fc3e 7062 213d 79f9 42bd
000000d0: 3ec0 173e fe2c 503d 8dc0 53bc 460b 263f
000000e0: 7d4c 80bf 7968 103d 6b59 423e e487 4a3e
000000f0: 1cbf 193d 8541 0a3f 6ca9 6e3c 46ec 563e
00000100: a7e5 5f3f fe76 f6be cf2a c93d 992a 163a
00000110: 848c 903e e740 1b3e 0ae5 133f 63fe 023f
00000120: 3c78 cdbe 55ea bcbe 0313 98be 60be e73d
00000130: 80f8 0abf 9d04 393e 9eed 313f 5983 ac3e
00000140: fc61 2c3d 4770 9d3d 19f8 e83e b952 2dbf
00000150: 61b4 12bf 8224 273f 9d4a dfbb 207a dc3c
00000160: e029 ad3e 15b8 9bbf 27c3 093e caad 1abd
00000170: 08b3 abbd 4bc2 373e b5b4 2a3e 74fb 0c3f
00000180: 7362 103f 6a65 19be 4f4d f5bd 4753 b03e
00000190: ca55 ba3d 35f2 fc3e 451e ffbc c922 6e3d
000001a0: 1ecf 2cbf 93af 233f 6035 9d39 748d d83d
000001b0: 94a2 823f 891b d8be d0e4 5a3e 9854 f33d
000001c0: 2788 92bd de72 b13c 2e17 be3e f360 86bf
000001d0: 2f1f 03be 0c59 1a3f 02e3 afbe 2277 1bbd
000001e0: 9d4c 11be 99af b93b 5117 9a3e ce80 fc3e
000001f0: 09f0 6d3b 28f3 543f cb4f 963e 5b88 c43b
00000200: 3cd8 9ebe 5ec4 8cbc ae00 823c 6ac4 6a3e
00000210: ce89 813f 4e3f 4cbe 1a67 ccbc 5a69 a6bf
00000220: ef51 683e a349 773b 1539 733a b50c 033f
00000230: b425 083e 586d 563f decb c13e 8745 3cbf
00000240: 36b8 7bbd 5160 50bc ca22 e13c 6372 5bbc
00000250: d718 4abe eddf bb3d f0d4 7fbe 15c0 213f
00000260: 5d37 b8bd 2955 63be 2d7b 1fbf 8a09 abbe
00000270: a41c 783f 67b4 4dbe fc25 49be 1f29 1e37
00000280: 5b44 153e 02d3 9fba d2fb 0abe 5bf7 c4be
00000290: 605c b5bd 1839 9a3c fb8e cebc 0397 623e
000002a0: 2e65 f5be f07d d13d 4970 29bd 8434 813d
000002b0: 5bcd 93bf 9296 b9be 8387 003f 200c 0e3f
000002c0: fc82 8f3d 21fa 433e 5683 ecbc 1af8 343d
000002d0: 33eb d13c c9e8 25bd 1cf4 da3d 33ab 4f3f
000002e0: e45a 273e d198 a53d 4448 5d3c 4389 f63e
000002f0: a671 2b3f 6d6e 5e3e 622b b13e 80ae 2e3f
00000300: 1929 8c3b c0ac 01bd 3155 24bf 01b8 61bd
00000310: 389a e53d 1216 debd 5fad 1d3f 4d4c 053d
00000320: d68a 21be 1984 2d3c 7966 59be 3981 673c
00000330: ccef 08bf 6c60 9fbb 6eb3 983e 782a ebbc
00000340: 733f 903f 748e 4ebd 1bc3 153d aa02 523f
00000350: 086c fbbe f46f 8d3e f794 7d3e ce08 9c3d
00000360: cd4e 26be 922a 17bd 2d8a 89bd 1bb2 2fbd
00000370: 3831 9d3b b710 94bf 5a60 ba3e 6a55 933e
00000380: 77d0 47be 3cb9 52bd 9a39 d43e 7442 2abd
00000390: 1ba1 b8be 6c22 3c3f 68c3 7e3e aff0 463f
000003a0: ccee bf3e b384 38bd 65e3 5d3d 8593 163e
000003b0: 35db 2fbf 2a68 a8bc 5a16 0d3e 0504 30bc
000003c0: 2d51 5d3f 2d1c 81bd 2785 d9be 0537 26bc
000003d0: 6214 ce3e f36c ea3c 1b3f 73bf 0e44 43bd
000003e0: 9d0d 24be 54fc cfbc b99e d13c 7046 2c3c
000003f0: c780 82bc 1c46 c9bd 6c39 e43e 0944 4e3e

fc3.bias f4 [256]
0.40621004 0.27468294 -0.03286502 0.29799274 0.44738123 0.22234635 0.2967946 -0.06461432
-0.013426775 0.15790595 -0.00031246603 0.45514396 0.33075476 0.3650053 0.30303875 0.72729117
0.32102987 -0.015315675 0.17231172 0.084821805 -0.22253369 0.6386986 0.2605893 0.5103888
-0.31071106 0.7142011 0.0676192 0.08758556 -0.23027161 -0.021805875 0.0069801873 -0.31866252
-0.26865128 0.06335873 0.32330242 0.07506309 0.1006759 -0.08794743 0.39281383 -0.035788927
-0.11155948 -0.5954873 -0.04701319 -0.10040716 -0.13479918 0.2994399 -0.12043158 0.6346817
0.31803274 -0.20239522 0.2654133 -0.22740395 -0.08177341 -0.050090812 0.25591633 -0.08497886
-0.0073620607 0.8146672 -0.28892186 0.39885655 -0.06587509 0.49533474 -0.4554894 0.13076071
-0.05615663 0.09756185 0.17476588 0.432341 0.11353633 -0.089293055 0.966554 -0.30204728
-0.048577726 0.3246742 -0.07575272 0.05291343 0.27402717 0.16656703 0.26309744 -0.03954181
0.4675044 0.27844408 -0.014342836 0.7093133 -0.08995906 0.24254134 0.37884933 0.55642086
0.012163403 -0.12833929 -0.0019316638 0.051173553 -0.07707615 -0.047933314 -0.09832268 0.010863393
-0.3706655 0.10364438 0.054733403 0.30677417 -0.001745982 -0.04111571 0.3831761 0.012249321
-0.081127584 -0.03390051 -0.07227702 -0.16468728 0.27364278 0.057681702 0.030294696 0.6903271
0.4060616 -0.10825612 0.31049082 0.25061682 0.3103899 -0.074649915 -0.03503988 0.4629039
0.5852839 0.2754461 0.36276847 -0.06763641 -0.5250978 -0.34492162 0.22365414 -0.32099855
-1.2379838 0.02011921 0.44099593 0.0001813114 0.27141088 -0.31590667 -0.05871636 0.13929503
-0.002343432 -0.026032345 -0.8644035 -0.0940781 -0.026860991 -0.008217925 0.31791624 0.8367469
-0.019763406 0.097532436 -0.07226053 -0.09992512 -0.08753246 -0.06363363 0.2859796 0.03226238
0.26496732 -0.50983673 0.22802983 -0.08153202 -0.8754049 0.31458026 0.14032291 0.08098505
0.016838469 -0.015285697 -0.12350807 -0.1027853 0.40709147 -0.14599565 0.030991279 -0.0037669314
-0.020908915 -0.110314526 0.5030486 0.14971998 0.021577733 -0.0678184 -0.07979186 0.22589089
-0.10629568 0.5482064 -0.022341128 -0.05145089 -0.053594217 -0.1780695 0.0077291667 -0.05576841
0.013439331 -0.29653507 -0.44841817 0.558553 -0.024570925 -0.3156999 0.032102272 -0.04008211
0.49713573 -0.11039718 -0.060169872 -0.1016731 0.0653908 0.47744906 0.092334315 0.3973986
0.03762692 -0.03297071 -0.20416324 0.186249 0.06036111 -0.6322243 0.62877804 -0.3992025
0.03786684 -0.048372988 -0.049748417 0.004738816 0.026378475 0.6124959 0.52810115 0.49942997
-0.051991567 0.15348347 -0.377519 0.1374319 -0.69760966 0.049182016 0.38331845 0.020846246
0.036913052 0.08131219 0.5359024 0.111374244 0.5749298 0.24328013 -0.14868686 0.25991112
-0.05259445 0.15370876 0.117175594 -0.106423534 0.6613484 0.03586674 0.71962774 0.1373555
0.24836472 0.13752729 0.7277088 0.1604703 0.7434668 0.019182365 -0.18015154 0.68830246
0.09315322 0.49068215 0.77073735 -0.03440276 -0.069006436 0.09768204 0.19602922 -0.006880312
00000000: c3fa cf3e 3ea3 8c3e 799d 06bd 8192 983e
00000010: 270f e53e c3ae 633e 76f5 973e 8354 84bd
00000020: fafb 5bbc 19b2 213e 7bd2 a3b9 a108 e93e
00000030: b058 a93e fae1 ba3e e527 9b3e c12f 3a3f
00000040: 075e a43e 99ee 7abc 7c72 303e 0eb7 ad3d
00000050: dfdf 63be c081 233f f66b 853e d7a8 023f
00000060: 8515 9fbe e2d5 363f ef7b 8a3d 0f60 b33d
00000070: 52cc 6bbe 3ca2 b2bc 0eba e43b bc27 a3be
00000080: a98c 89be 39c2 813d e587 a53e adba 993d
00000090: 2b2f ce3d c81d b4bd e51e c93e 6997 12bd
000000a0: 4c79 e4bd db71 18bf e790 40bd 45a2 cdbd
000000b0: cc08 0abe 3050 993e d5a4 f6bd 807a 223f
000000c0: 30d5 a23e b140 4fbe 41e4 873e 95dc 68be
000000d0: d178 a7bd 062c 4dbd 7707 833e 6609 aebd
000000e0: 713d f1bb 088e 503f 91ed 93be ed36 cc3e
000000f0: 85e9 86bd 849c fd3e e835 e9be 23e6 053e
00000100: 7f04 66bd 82ce c73d d4f5 323e cd5b dd3e
00000110: bc85 e83d 47df b6bd 1570 773f f1a5 9abe
00000120: 70f9 46bd b23b a63e 3e24 9bbd c1bb 583d
00000130: 4a4d 8c3e 8c90 2a3e b5b4 863e 98f6 21bd
00000140: bd5c ef3e 3990 8e3e 37fe 6abc 8e95 353f
00000150: 753c b8bd c25c 783e 8af8 c13e 9971 0e3f
00000160: 0349 473c 606b 03be e22f fdba 5c9b 513d
00000170: 1ada 9dbd b955 44bd 675d c9bd 5ffc 313c
00000180: dec7 bdbe 8143 d43d 2230 603d 8111 9d3e
00000190: 6fd9 e4ba f268 28bd a82f c43e 60b1 483c
000001a0: 3826 a6bd 43db 0abd f905 94bd c8a3 28be
000001b0: e81a 8c3e a643 6c3d 952c f83c 47b9 303f
000001c0: 4ee7 cf3e 62b5 ddbd a7f8 9e3e d950 803e
000001d0: 6deb 9e3e 0ee2 98bd fa85 0fbd bd01 ed3e
000001e0: 2ad5 153f 4507 8d3e cabc b93e f584 8abd
000001f0: cf6c 06bf 9199 b0be 9705 653e ec59 a4be
00000200: 4176 9ebf 0bd1 a43c 38ca e13e 691e 3e39
00000210: 5ef6 8a3e 85be a1be 9180 70bd 5ba3 0e3e
00000220: 4494 19bb c941 d5bc 8c49 5dbf 05ac c0bd
00000230: 950b dcbc 7aa4 06bc ebc5 a23e 0b35 563f
00000240: dee6 a1bc 16bf c73d 54fd 93bd 8ba5 ccbd
00000250: 3844 b3bd 5952 82bd eb6b 923e 8f25 043d
00000260: cca9 873e a984 02bf a780 693e 42fa a6bd
00000270: 891a 60bf aa10 a13e cfb0 0f3e 7ddb a53d
00000280: d4f0 893c dc70 7abc cdf1 fcbd 1981 d2bd
00000290: 4b6e d03e e27f 15be 6ce1 fd3c 9fde 76bb
000002a0: 2c49 abbc 95ec e1bd cbc7 003f 3250 193e
000002b0: c9c3 b03c 60e4 8abd ea69 a3bd f14f 673e
000002c0: 8db1 d9bd 4157 0c3f be04 b7bc 2bbe 52bd
000002d0: 9c85 5bbd da57 36be f344 fd3b 6b6d 64bd
000002e0: a430 5c3c 72d3 97be 1197 e5be 54fd 0e3f
000002f0: f748 c9bc 6ba3 a1be ac7d 033d 232d 24bd
00000300: 9388 fe3e eb17 e2bd af74 76bd fc39 d0bd
00000310: 9deb 853d 3474 f43e c619 bd3d d477 cb3e
00000320: af1e 1a3d 4c0c 07bd 2b10 51be 0fb8 3e3e
00000330: 363d 773d 74d9 21bf 99f7 203f 4564 ccbe
00000340: 421a 1b3d c122 46bd ffc4 4bbd 1248 9b3b
00000350: ac17 d83c 88cc 1c3f a331 073f 49b5 ff3e
00000360: 1cf5 54bd c52a 1d3e 2c4a c1be f3ba 0c3e
00000370: 8c96 32bf 1573 493d 5142 c43e bfc5 aa3c
00000380: 2432 173d 0187 a63d e630 093f 2e18 e43d
00000390: 992e 133f 6d1e 793e 5e41 18be 1213 853e
000003a0: 476d 57bd d465 1d3e c2f9 ef3d 95f4 d9bd
000003b0: 214e 293f 01e9 123d 8639 383f eca6 0c3e
000003c0: 5253 7e3e f4d3 0c3e 204b 3a3f 5452 243e
000003d0: d753 3e3f 5624 9d3c a579 38be 9734 303f
000003e0: 1ec7 be3d b13a fb3e 0b4f 453f e9e9 0cbd
000003f0: 3f53 8dbd 850d c83d e2bb 483e 3e74 e1bb

fc4.weight f4 [5, 256]
-0.45097187 -0.24952334 0.015917068 0.6130358 -1.5422175 0.006927946 -2.2548072 -0.030806813
-0.03493262 -0.017350044 -1.7529612 -0.8957229 -0.7059915 -0.3237034 -0.097913966 -1.0821903
0.6780265 0.33512864 0.2373788 0.83410037 -0.64923704 0.566975 -0.6216923 -0.64250726
0.95748395 -0.29220152 0.15720534 0.8648017 -1.3349941 0.0051870206 -0.01843989 0.57482064
-0.4496486 0.08332265 -0.17811693 -1.4824119 0.03483377 -0.029446363 -0.6706318 0.0038261435
0.14947507 -1.048527 -0.0057288213 -0.006171505 0.9715816 -0.0048767733 0.6917296 -0.21946886
-0.2220492 0.611131 -0.46334416 -0.9662243 0.4521825 0.008253391 -0.0122204665 0.1528259
2.717906 0.5641629 -0.42099664 0.30721575 0.040090315 0.8088038 -0.78549397 -0.2417934
0.44236684 1.7788965 -0.09144576 -0.28877902 -0.35129914 0.06476529 -0.99975944 -0.84281474
-0.056369912 -0.15398493 0.021612732 -0.0426308 0.1749154 0.58687854 0.75909024 0.005850328
-0.3340837 -0.9274419 0.006598273 -0.9551597 0.04185198 0.9460274 0.992431 -0.6056906
-0.006043596 0.51602674 -0.030832427 0.42297703 0.026984166 0.019575203 -0.02623794 -0.009485187
0.7981772 -0.58709806 0.32555735 1.2174158 -0.023908596 0.050516497 3.6919272 0.07298115
-0.06289207 0.042971402 0.019350618 -0.801817 0.10112375 0.3860136 -1.4661695 0.5419978
-1.0406568 -0.0425905 2.702498 0.07579585 -1.3157127 -0.0034127196 -0.031443834 0.17487986
0.22307777 0.9332273 -0.46392885 -0.27867278 0.690259 0.5793058 0.4926714 0.71487695
-1.4629749 0.022011157 -0.73248184 0.032542232 0.02232631 3.5394385 3.6068316 0.022223914
0.030810123 0.07330923 -1.3037028 -0.026059836 0.08670035 0.0070150155 0.28314194 -0.6808285
-0.048048936 3.9501274 -0.022678018 -0.036755946 -0.008134408 0.008523957 -0.75191873 1.1214881
-1.3590811 0.48874444 -0.124750614 0.036885694 -1.1103945 -0.27793413 -2.23254 0.17446518
0.0396149 0.027206749 0.25059605 0.013657783 0.047451112 -0.64136463 -0.048419245 -0.04557954
0.04119273 -0.3245949 -0.603563 0.07673738 -0.34110358 -0.010339916 0.008094459 -0.7027304
-0.011786238 -1.0006686 0.029141562 0.040334523 -0.0303984 0.46359852 0.09574786 -0.016256846
0.076767005 0.26220647 -1.3162153 0.9509489 -0.00853087 0.9315342 0.018882524 0.0348122
-0.2914422 -0.42782426 4.0345964 -0.033827387 0.15151295 -0.9822396 0.20820071 0.22907904
-0.044120118 0.045983206 -0.12108814 -0.2979375 0.5589201 -1.0945415 0.66797674 1.3330162
0.62346184 0.04601373 -0.004476939 0.029272992 -0.77773446 -0.5572537 -0.5054798 0.04175581
0.051119547 -0.22504918 3.683351 -0.2222991 3.1823585 0.04653657 -0.3485768 0.05201802
-0.2389997 0.5459508 0.4179554 0.2379307 -1.029019 -0.41526186 1.3682582 0.08990305
0.39120844 -2.9945242 0.15923621 -0.006085964 0.71841913 1.5549653 -0.5367214 -0.5868188
-0.24681127 -3.29012 -0.30046862 0.41844666 0.07018563 -0.058226902 0.83113086 0.5501357
0.1958639 -0.72148806 2.041616 -0.004639862 2.272517 1.4638442 -2.3931198 -0.010796655
00000000: c9e5 e6be 0c83 7fbe 8364 823c eaef 1c3f
00000010: 6267 c5bf d303 e33b c34e 10c0 925e fcbc
00000020: 8215 0fbd ae21 8ebc 0861 e0bf 194e 65bf
00000030: dcbb 34bf 74bc a5be 1e87 c8bd 3685 8abf
00000040: 2593 2d3f fb95 ab3e 6e13 733e 9a87 553f
00000050: 6634 26bf 4625 113f 3a27 1fbf 5b7b 24bf
00000060: ab1d 753f 709b 95be 70fa 203e a563 5d3f
00000070: 16e1 aabf e2f7 a93b 410f 97bc 7227 133f
00000080: 5738 e6be 11a5 aa3d 4964 36be acbf bdbf
00000090: dbad 0e3d 8039 f1bc 87ae 2bbf 09c0 7a3b
000000a0: fe0f 193e 2236 86bf d6b8 bbbb 563a cabb
000000b0: 92b9 783f 57cd 9fbb 3115 313f 72bc 60be
000000c0: de60 63be 1573 1c3f 723b edbe 7a5a 77bf
000000d0: 7784 e73e 3b39 073c 5a38 48bc 657e 1c3e
000000e0: 2cf2 2d40 fb6c 103f df8c d7be 624b 9d3e
000000f0: be35 243d c40d 4f3f 2216 49bf b098 77be
00000100: e87d e23e e1b2 e33f ea47 bbbd d8da 93be
00000110: 7bdd b3be aaa3 843d 3cf0 7fbf b5c2 57bf
00000120: 23e4 66bd 3aae 1dbe 2f0d b13c a29d 2ebd
00000130: 061d 333e ac3d 163f bd53 423f 1cb4 bf3b
00000140: 050d abbe d56c 6dbf 5336 d83b 5985 74bf
00000150: fb6c 2b3d da2e 723f f50f 7e3f 8a0e 1bbf
00000160: 5c09 c6bb 541a 043f 4994 fcbc 7290 d83e
00000170: e60d dd3c 2d5c a03c f3f0 d6bc c267 1bbc
00000180: 5755 4c3f 0f4c 16bf 74af a63e 48d4 9b3f
00000190: f6db c3bc 63ea 4e3d 8948 6c40 2477 953d
000001a0: 8fcd 80bd c802 303d 3085 9e3c e143 4dbf
000001b0: f819 cf3d 93a3 c53e 71ab bbbf 5ec0 0a3f
000001c0: 3e34 85bf 6073 2ebd baf5 2c40 db3a 9b3d
000001d0: 4669 a8bf efa7 5fbb 40cb 00bd b513 333e
000001e0: 806e 643e fce7 6e3f 1588 edbe 33ae 8ebe
000001f0: d0b4 303f 634d 143f 6d3f fc3e 2d02 373f
00000200: c342 bbbf be50 b43c ee83 3bbf 014b 053d
00000210: aae5 b63c 2986 6240 54d6 6640 ed0e b63c
00000220: 8365 fc3c 2623 963d bcdf a6bf 707b d5bc
00000230: f48f b13d 37de e53b fbf7 903e c74a 2ebf
00000240: f6ce 44bd e3ce 7c40 40c7 b9bc 678d 16bd
00000250: 2e46 05bc 11a8 0b3c bf7d 40bf ec8c 8f3f
00000260: 5ff6 adbf b63c fa3e 407d ffbd 7415 173d
00000270: 6821 8ebf 624d 8ebe efe1 0ec0 00a7 323e
00000280: 3c43 223d b0e0 de3c 204e 803e e5c4 5f3c
00000290: 195c 423d 7930 24bf 4253 46bd 9db1 3abd
000002a0: b5b9 283d 4d31 a6be 1b83 1abf 7d28 9d3d
000002b0: 21a5 aebe c068 29bc 9f9e 043c 24e6 33bf
000002c0: 111b 41bc e915 80bf 49ba ee3c d035 253d
000002d0: 1106 f9bc c95c ed3e 7417 c43d 142d 85bc
000002e0: 0538 9d3d ed3f 863e be79 a8bf 6371 733f
000002f0: 10c5 0bbc 0679 6e3f 86af 9a3c 3d97 0e3d
00000300: e937 95be c80b dbbe 6a1b 8140 968e 0abd
00000310: 3626 1b3e 0e74 7bbf 9132 553e b293 6a3e
00000320: 4cb7 34bd e358 3c3d 0ffd f7bd 448b 98be
00000330: 6315 0f3f f019 8cbf 8600 2b3f 46a0 aa3f
00000340: 329b 1f3f e578 3c3d 49b3 92bb eacd ef3c
00000350: 9b19 47bf 2ea8 0ebf 2067 01bf 2408 2b3d
00000360: bb62 513d 4b73 66be 06bc 6b40 60a2 63be
00000370: c3ab 4b40 219d 3e3d a978 b2be d910 553d
00000380: 56bc 74be 6ec3 0b3f 40fe d53e 1ba4 733e
00000390: e5b6 83bf 349d d4be 1623 af3f 171f b83d
000003a0: 794c c83e 49a6 3fc0 d10e 233e c46c c7bb
000003b0: 51ea 373f 1a09 c73f 9366 09bf c239 16bf
000003c0: 18bc 7cbe 5391 52c0 06d7 99be a43e d63e
000003d0: 7cbd 8f3d 557f 6ebd fec4 543f b1d5 0c3f
000003e0: 8c90 483e 71b3 38bf d6a9 0240 fc09 98bb
000003f0: eb70 1140 3f5f bb3f e028 19c0 74e4 30bc

fc4.bias f4 [5]
-0.4542664 0.17939177 0.18491764 0.38914928 -0.4862318
00000000: 9b95 e8be 7ab2 373e 0d5b 3d3e 933e c73e
00000010: 60f3 f8be
