weights/ez_map_Q.pt (torch, 552012 bytes, 8 tensors)

fc1.weight f4 [256, 16]
0	0x3f0467f6	0.5172113
1	0xbede5aea	-0.43428737
2	0x3bd4db94	0.0064959023
3	0x3c1fdd35	0.00975733
4	0x3eafdaf5	0.34346738
5	0x3ef996f9	0.48747995
6	0xbde55633	-0.11198082
7	0xbe6887ee	-0.22708103
8	0x3d9584b1	0.073006995
9	0xbe020f14	-0.12701064
10	0x3f0b78d3	0.5448124
11	0xbe91347f	-0.28360364
12	0xbe88881f	-0.26666352
13	0x3ccde62e	0.025134172
14	0xbdf5357b	-0.11973091
15	0xbec50f60	-0.38488293
16	0xbf9a1050	-1.2036228
17	0x3e042989	0.1290647
18	0x3eb83cbf	0.35983846
19	0x3e33977e	0.17538258
20	0x3d8ac687	0.06776147
21	0xbddd6d6e	-0.10811888
22	0x3e2d39c6	0.1691657
23	0xbcb0ac3a	-0.021566499
24	0xbb2a3cbf	-0.002597615
25	0xbd4921f2	-0.04910464
26	0x3b592946	0.0033136173
27	0xbd105462	-0.035236724
28	0x3e3b3a39	0.18283929
29	0xbe3fa558	-0.18715417
30	0xbe5abc87	-0.2136098
31	0x3f5813d6	0.8440527
32	0xbe8e1a50	-0.2775445
33	0xbed29acd	-0.4113373
34	0x3ed931ab	0.42420706
35	0x3ea24fa4	0.31701386
36	0x3b2da9f8	0.0026499014
37	0xbdf6d781	-0.12052823
38	0xbdfeb930	-0.124376655
39	0xbd5ce145	-0.05392577
40	0x3e3f1196	0.18659052
41	0x3dc653c6	0.09683947
42	0x3e6972b0	0.22797656
43	0xbd7e54b6	-0.062092505
44	0xbe32e7c1	-0.1747122
45	0x3dd4b60b	0.103862844
46	0xbdc195a5	-0.094523706
47	0xbd79b68c	-0.060965106
48	0x3eff6cc1	0.4988766
49	0x3dc4c93f	0.09608697
50	0x399878f8	0.00029081828
51	0x3dec63ca	0.11542471
52	0xbf4aebcd	-0.79266053
53	0xbf3d5827	-0.73962635
54	0xbf813032	-1.0092833
55	0xbf38a7fa	-0.7213131
56	0x3e824e71	0.2545047
57	0xbf895322	-1.0728495
58	0x3e94c467	0.29056093
59	0xbeb105af	-0.3457465
60	0xbe1ea1e1	-0.1549144
61	0xbebbd957	-0.36689255
62	0xbdbe7d60	-0.09301257
63	0xbec59fb7	-0.38598415
64	0xbe6f6d75	-0.23381598
65	0xbbe5f2d4	-0.0070174728
66	0xbc099f29	-0.008399763
67	0xbcb8358d	-0.022486473
68	0x3eadf9dd	0.33979693
69	0x3eb31267	0.34974977
70	0x3dde1472	0.108437434
71	0xbd6ba5a8	-0.05753103
72	0xbeab8665	-0.33500972
73	0x3d6eb677	0.05827948
74	0x3e51f7f7	0.20504747
75	0x3e58c06a	0.2116715
76	0xbd5dbefd	-0.05413722
77	0xbd9497b0	-0.072554946
78	0xbe6bc89d	-0.23025747
79	0xbd739762	-0.05947054
80	0xbed0fdd8	-0.40818667
81	0x3e3b9433	0.18318252
82	0xbce15908	-0.027508274
83	0xbde21b6f	-0.11040389
84	0x3ccc2d37	0.024923904
85	0xbee2fb98	-0.44332576
86	0x3e2459e1	0.16049911
87	0x3e9c75de	0.30558676
88	0xbdaa9aeb	-0.083303295
89	0x3e29eb92	0.16593769
90	0xbf0c9920	-0.5492115
91	0xbe6fabf0	-0.23405433
92	0x3e01875d	0.12649293
93	0x3e18342b	0.1486365
94	0x3e283777	0.16427408
95	0xbe239d66	-0.15978011
96	0x3dadaa4f	0.084797494
97	0x3f381c85	0.7191852
98	0x3cfe3368	0.031030372
99	0xbf20ded8	-0.6284003
100	0x3e915cdd	0.28391162
101	0xbd94ab3f	-0.07259225
102	0xbf02046f	-0.50788015
103	0xbdaf5903	-0.085618995
104	0x3ef6e60d	0.4822239
105	0xbdfe9794	-0.12431255
106	0x3efb1184	0.490368
107	0xbd2628a9	-0.04056612
108	0xbcc7f45a	-0.024408508
109	0xbd40ab54	-0.04703839
110	0x3d0bae21	0.03410161
111	0x3cc27cb5	0.023741106
112	0xbe0712c6	-0.13190755
113	0xbe9aefa8	-0.30260968
114	0x3d318341	0.043338064
115	0xbe046f4a	-0.12933078
116	0x3f65665c	0.89609313
117	0x3f54e9c8	0.8316922
118	0x3f38150f	0.7190713
119	0xbf2d20a8	-0.67627954
120	0xbee72dfd	-0.45152274
121	0xbe9ce664	-0.30644524
122	0xbf01a542	-0.5064279
123	0x3df75c72	0.120781794
124	0x3d2b8786	0.041877292
125	0xbf3566ac	-0.7085979
126	0xbf19c7b6	-0.6007036
127	0x3d407c08	0.046993285
128	0xbf890bfc	-1.0706782
129	0x3de39362	0.111120954
130	0xbbbad7e3	-0.0057020052
131	0xbc6bb97e	-0.0143874865
132	0xbdfdab4d	-0.12386189
133	0xbe85c050	-0.26123285
134	0x3f16f355	0.58965045
135	0x3c1fb54d	0.009747815
136	0xbe0daf62	-0.13836434
137	0x3d55549f	0.052082654
138	0xbebcc230	-0.36866903
139	0x3d32e885	0.04367878
140	0x3db76e00	0.08956528
141	0x3ebd2c1b	0.36947712
142	0x3ec74e91	0.3892713
143	0x3a869de4	0.0010270444
144	0x3dd375ff	0.1032524
145	0x3ec692b8	0.38783813
146	0xbef5bbfd	-0.47994986
147	0x3e377916	0.17917284
148	0xbd3be071	-0.04586834
149	0xbec8ace2	-0.391944
150	0xbff646a5	-1.9240309
151	0xbe8f295d	-0.27961245
152	0xbbd75d6c	-0.006572416
153	0xbf68ce24	-0.90939546
154	0x3deac43a	0.114632085
155	0xbebbdd76	-0.366924
156	0xbe91db6f	-0.28487727
157	0xbe1c8863	-0.15286402
158	0x3e2ef655	0.17086156
159	0xbe955155	-0.29163614
160	0xbdcd8c63	-0.10036542
161	0xbe68bfea	-0.2272946
162	0x3eaebd80	0.34128952
163	0xbe6406ac	-0.2226817
164	0x3e490010	0.1962893
165	0x3eb27135	0.34851995
166	0xbea61bbf	-0.32443044
167	0xbd76e20b	-0.060274165
168	0x3e3e8282	0.18604472
169	0x3db01e09	0.08599479
170	0x3db57c2f	0.08861577
171	0xbd8e0b02	-0.06935693
172	0xbe98944d	-0.29800645
173	0x3e163b70	0.14671111
174	0x3cea1fd9	0.02857964
175	0x3d2f6aa3	0.042826306
176	0x3e2fddf8	0.17174518
177	0xbf1a54f0	-0.60285854
178	0x3e11be8e	0.14232847
179	0x3e1415ea	0.14461485
180	0xbe9faaa2	-0.3118487
181	0xbeb64276	-0.3559758
182	0xbeb7c768	-0.35894322
183	0xbe06aef5	-0.13152678
184	0xbeb1578d	-0.34637108
185	0xbe8ae898	-0.2713058
186	0xbeae8095	-0.34082475
187	0xbd71d5e7	-0.059041884
188	0xbe7d40f4	-0.24731809
189	0x3def0565	0.11670951
190	0xbe3baee6	-0.18328437
191	0x3dea7bb4	0.11449376
192	0xbf50546c	-0.8137882
193	0x3e2a2a06	0.16617593
194	0x3ed6fc30	0.4198928
195	0xbea5a6b9	-0.32353762
196	0xbf3498db	-0.7054574
197	0xbf8094ba	-1.0045388
198	0xbf8f4fdb	-1.1196245
199	0xbf1063dd	-0.5640238
200	0xbd82d4cb	-0.06388243
201	0xbf94c416	-1.1622341
202	0x3ddb6768	0.107130826
203	0x3e357c47	0.1772319
204	0xbdb49881	-0.0881815
205	0xbe99fcbd	-0.30075637
206	0xbe8f0261	-0.27931502
207	0xbf1344a6	-0.57526624
208	0xbf002fd9	-0.5007301
209	0x3f0111dc	0.50417876
210	0xbca96e08	-0.02068235
211	0xbe25ccbf	-0.16191386
212	0x3e9bac16	0.3040473
213	0x3ed5a0aa	0.4172414
214	0xbe9bc650	-0.30424738
215	0xbd08fbf6	-0.033443414
216	0x3d5cb3f4	0.053882554
217	0xbd5b2ecf	-0.053511437
218	0x3ea98e59	0.33116415
219	0xbd67ec68	-0.05662194
220	0x3cdf7f84	0.027282484
221	0x3e136a31	0.14395978
222	0x3e81ce73	0.2535282
223	0xbe2cebbb	-0.16886799
224	0x3f176f1f	0.5915393
225	0xbf9f8a63	-1.2464107
226	0x3cb64907	0.022251619
227	0x3d3a384e	0.045463853
228	0xbe97937d	-0.29604712
229	0xbe20e182	-0.15711024
230	0xbf058724	-0.52159333
231	0xbd261e1a	-0.04055605
232	0xbe7599f3	-0.23984508
233	0xbe97fe2d	-0.29686108
234	0x3d628f64	0.05531253
235	0xbf361997	-0.71132797
236	0xbfb03880	-1.3767242
237	0xbe1732a0	-0.14765406
238	0xbe058774	-0.13039953
239	0xbe03b60e	-0.12862417
240	0xbe833f0f	-0.25634047
241	0xbe6fe3fa	-0.2342681
242	0xbe506722	-0.20351842
243	0xbeb99519	-0.36246565
244	0xbe0298c6	-0.12753591
245	0xbe90c84b	-0.2827781
246	0x3e59f7ab	0.21285884
247	0xbe0f390f	-0.1398661
248	0xbeb46097	-0.35229942
249	0x3df868c7	0.1212936
250	0xbe398577	-0.18117319
251	0xbe9f934a	-0.3116706
252	0xbce842c1	-0.028352143
253	0x3ed2ea5c	0.41194427
254	0x3e95e107	0.29273245
255	0x3edf878e	0.43658108

fc1.bias f4 [256]
0	0xbe571402	-0.21003726
1	0x3eab812e	0.33496994
2	0xbead3b11	-0.33834127
3	0xbe90d36f	-0.2828631
4	0x3eb4ad45	0.35288444
5	0x3eb047cd	0.3442978
6	0xbf0d1818	-0.5511489
7	0x3e95aab4	0.292318
8	0x3ede6dbe	0.43443102
9	0xbe9adc64	-0.3024627
10	0xbb776da4	-0.003775456
11	0xbcc447f7	-0.023960097
12	0x3e0aebd4	0.13566524
13	0xbd32195b	-0.043481212
14	0xbe0150b7	-0.12628447
15	0x3e4fe459	0.20301951
16	0x3ea3b43e	0.3197345
17	0x3d747e2c	0.05969064
18	0x3ef615f4	0.48063624
19	0x3eca9ba1	0.3957186
20	0x3f277311	0.6540995
21	0xbd40a25a	-0.04702983
22	0x3e624977	0.22098337
23	0xbe6b1b5e	-0.22959659
24	0xbe76e887	-0.2411214
25	0xbde9e80e	-0.11421214
26	0xbf1c3195	-0.61013156
27	0x3ce61640	0.028086782
28	0x3dc28727	0.094984345
29	0x3e13b7d7	0.14425598
30	0xbf25e8dc	-0.6480844
31	0x3f1d52a4	0.61454225
32	0x3e28b393	0.16474752
33	0x3f021b2d	0.50822717
34	0xbed0c8f6	-0.4077832
35	0x3f32bfd8	0.6982398
36	0x3e466274	0.19373494
37	0x3cbc3aeb	0.022977313
38	0xbf236edc	-0.63841033
39	0xbf25f2c0	-0.6482353
40	0x3edd2aad	0.43196622
41	0x3e9b047f	0.30276868
42	0xbe6b1541	-0.22957326
43	0x3f10c19b	0.5654542
44	0xbed855c6	-0.4225294
45	0x3f0dbef3	0.5536949
46	0x3e645f68	0.2230202
47	0x3e2039ed	0.15647097
48	0xbe873a66	-0.26411742
49	0xbf07aa97	-0.52994674
50	0x3f0d1cc1	0.55122
51	0x3f474435	0.7783845
52	0xbeab84cb	-0.3349975
53	0xbed8ee6d	-0.42369404
54	0xbe9e47fc	-0.30914295
55	0xbea4ed98	-0.3221252
56	0xbe4c3677	-0.19942652
57	0x3d7f89c4	0.062387243
58	0xbe4b4a2c	-0.19852513
59	0x3c19d31a	0.009388709
60	0x3dcb0d88	0.0991469
61	0xbd32ee72	-0.04368443
62	0xbeddff3f	-0.433588
63	0x3e1b0a5f	0.15140675
64	0x3edd97a8	0.43279767
65	0xbe1b747d	-0.15181156
66	0xbf6497d6	-0.89294183
67	0xbee50683	-0.4473153
68	0x3e446404	0.19178778
69	0x3f0a6b86	0.5407032
70	0xbedbb5a2	-0.42912012
71	0x3e231624	0.15926415
72	0xbe74237c	-0.23841661
73	0x3ea1f2d8	0.31630588
74	0x3df3a80d	0.118972875
75	0xbd395c9d	-0.04525434
76	0x3eff0cdd	0.498145
77	0x3f139ad2	0.5765811
78	0x3f3a28a4	0.7271826
79	0x3e740ffc	0.23834223
80	0x3c8e218b	0.017349979
81	0xbe886109	-0.26636532
82	0x3eda062d	0.42582837
83	0x3f0e81c9	0.55666786
84	0xbc58e684	-0.013238553
85	0x3e629478	0.22126949
86	0x3d64ea84	0.055887714
87	0xbdc2a0c4	-0.0950332
88	0x3d43edf0	0.047834337
89	0xbe5f2096	-0.21789774
90	0x3e97b029	0.29626587
91	0xbed1992e	-0.4093718
92	0xbc85fc27	-0.016355587
93	0x3eedd815	0.4645392
94	0x3f0b7f07	0.54490703
95	0xbd1bd29f	-0.03804266
96	0x3cf81dee	0.03028771
97	0x3e2feb14	0.17179519
98	0xbe26ff45	-0.16308315
99	0xbfc92a95	-1.571612
100	0xbf39966f	-0.7249517
101	0x3f1efc43	0.6210367
102	0x3f5b6956	0.85707605
103	0x3ed0c4ab	0.40775046
104	0x3f0a475f	0.54015154
105	0xbe2ecb50	-0.17069745
106	0x3e0f6b68	0.14005816
107	0x3f01fbd9	0.50774914
108	0x3f4d205b	0.80127496
109	0x3cf1b932	0.029507253
110	0x3f1a7813	0.6033947
111	0x3f14dcd6	0.5814947
112	0x3e9a2bc8	0.30111527
113	0x3f182d25	0.59443885
114	0xbdc9814c	-0.098391145
115	0xbc27bbe1	-0.010237665
116	0xbeb5a7ee	-0.35479683
117	0xbe210543	-0.15724663
118	0x3e9b1948	0.30292726
119	0xbcfe3b48	-0.031034127
120	0x3e520324	0.2050901
121	0xbd6b61f8	-0.057466477
122	0xbf8f4903	-1.1194156
123	0xbdd8d4f5	-0.10587493
124	0xbdb0c14c	-0.086306185
125	0xbe6961ad	-0.22791167
126	0x3e4aa04e	0.19787714
127	0xbe1250bc	-0.1428861
128	0x3e0f21e3	0.1397777
129	0xbf15e2b8	-0.5854907
130	0x3f3ef63f	0.7459449
131	0x3f005ba9	0.5013986
132	0xbc0281aa	-0.007965485
133	0x3cdfd1dd	0.02732175
134	0xbe342697	-0.17592846
135	0x3d17fc1b	0.03710566
136	0xbead06a4	-0.3379413
137	0x3dc9130d	0.09818087
138	0xbe1119c6	-0.14169988
139	0x3f0b4b3e	0.54411685
140	0x3eb8fb34	0.36129153
141	0x3c3a0adc	0.011355128
142	0x3e18fc59	0.14940013
143	0x3f32d51d	0.69856435
144	0xbf2fe662	-0.6871091
145	0x3eab7a39	0.33491686
146	0xbe239d78	-0.15978038
147	0x3fd82eb8	1.6889257
148	0x3c960532	0.018313024
149	0xbeb4966e	-0.3527102
150	0xbd98f750	-0.07469046
151	0x3e1565ef	0.14589666
152	0x3f5a5134	0.85280156
153	0xbf698a91	-0.9122706
154	0xbe8d49b6	-0.275953
155	0xbc636154	-0.013878185
156	0x3dd61341	0.10452891
157	0x3f1d07ad	0.6133984
158	0x3a3d5369	0.0007222207
159	0x3f07e6ba	0.53086436
160	0xbd9f8a61	-0.077900656
161	0xbf5452d2	-0.82938874
162	0xbdbf5f00	-0.09344292
163	0xbdb0d5f3	-0.086345576
164	0x3f07ca79	0.53043324
165	0x3f16a977	0.5885233
166	0xbc70d784	-0.01469982
167	0x3eec39b8	0.46137786
168	0xbe00e5cb	-0.12587659
169	0xbf83e80a	-1.0305188
170	0xbe532547	-0.20619689
171	0xbe35b6a0	-0.17745447
172	0xbee579a7	-0.44819376
173	0xbe8cc4f2	-0.27494007
174	0x3f847095	1.0346857
175	0xbdb3fa7e	-0.08788012
176	0xbf264b9e	-0.6495913
177	0xbf4cf5d8	-0.8006263
178	0x3f22ea24	0.6363852
179	0xbf1a3957	-0.60243744
180	0x3f0d5147	0.55202144
181	0x3f3322e9	0.69975144
182	0x3cc191dd	0.023629123
183	0xbe1aa9a9	-0.15103783
184	0x3e81253b	0.25223717
185	0x3d7a2d2c	0.061078236
186	0xbf1c3c6a	-0.61029685
187	0x3e930a89	0.28718975
188	0x3e5bd601	0.21468355
189	0x3e8a32ae	0.2699179
190	0xbe909fa5	-0.282468
191	0x3ea7df5d	0.327876
192	0xbf3d55f4	-0.7395928
193	0x3e32519f	0.17413948
194	0x3eaaeeac	0.33385217
195	0x3edac644	0.4272939
196	0x3eaa249d	0.3323106
197	0x3e2ff074	0.1718157
198	0x3e0fecbf	0.14055155
199	0x3e920117	0.28516456
200	0x3b904d3e	0.0044037392
201	0x3f258d8c	0.6466911
202	0x3eb90d26	0.36142844
203	0x3edf69fe	0.43635553
204	0xbed67e25	-0.41893116
205	0x3f1d41ac	0.6142833
206	0x3eaca948	0.337229
207	0x3dcddd85	0.10052017
208	0x3dca88a3	0.09889343
209	0x3d27f700	0.041007042
210	0x3e96849c	0.29398048
211	0xbe55294d	-0.20816536
212	0xbf117b2a	-0.5682856
213	0xbec1aa2c	-0.37825143
214	0x3e14a1d6	0.1451486
215	0x3d72c770	0.05927223
216	0xbc6a5db0	-0.014304563
217	0xbe23dec7	-0.16002952
218	0xbedccd1b	-0.43125233
219	0x3e0d08ee	0.13772938
220	0x3ecd56c1	0.4010525
221	0x3eb949f1	0.36189225
222	0x3d856ad8	0.065145195
223	0x3edbde24	0.42942917
224	0xbf790ac5	-0.9728206
225	0x3cfc3a0f	0.030789403
226	0xbe4310ed	-0.19049425
227	0x3e0c248f	0.13685821
228	0xbd1de2e9	-0.038546477
229	0x3f2107d7	0.6290259
230	0x3dc973ad	0.098365165
231	0x3d6d2fae	0.0579068
232	0x3d05574f	0.032553967
233	0xbf4e3f82	-0.80565655
234	0x3ea3d279	0.31996515
235	0x3e98dc95	0.2985579
236	0xbf844985	-1.0334936
237	0xbf531036	-0.8244661
238	0x3f1aa7d2	0.60412323
239	0xbd13e772	-0.036109395
240	0xbdb60ec5	-0.08889536
241	0x3eed8e41	0.46397594
242	0xbdcbad82	-0.09945203
243	0xbe0dfc43	-0.13865761
244	0xbdf82381	-0.12116147
245	0xbf0d0dc4	-0.5509913
246	0x3e4cac60	0.19987631
247	0x3e69f127	0.22845899
248	0x3e50ed66	0.2040306
249	0xbdc88ca8	-0.09792453
250	0xbe7ce326	-0.24696025
251	0x3ed36b4e	0.41292804
252	0xbebe4e04	-0.37168896
253	0xbe65bba0	-0.22434855
254	0xbcb2ef0f	-0.021842508
255	0x3edd1910	0.43183184

fc2.weight f4 [256, 256]
0	0xbcd3b16d	-0.02584144
1	0xbf204179	-0.62599903
2	0xbf06ac53	-0.52606696
3	0xbd8e9439	-0.06961865
4	0x3de90909	0.113786764
5	0x3d6f944c	0.058491036
6	0xbf24642e	-0.6421536
7	0x3e362788	0.17788517
8	0x3e25850d	0.16164036
9	0x3d993b90	0.07482064
10	0xbdae005a	-0.08496161
11	0xbd202e20	-0.03910649
12	0xbdae6367	-0.08515053
13	0xbd0ef8ef	-0.03490537
14	0x3e72dcaf	0.23716997
15	0x3e938c6a	0.28818065
16	0x3d25b781	0.040458206
17	0x3dc5f11e	0.0966513
18	0x3f38733c	0.72050834
19	0xbe8be309	-0.27321652
20	0xbefff65b	-0.49992642
21	0xbcd2412b	-0.02566584
22	0xbff618cf	-1.9226321
23	0x3d2cdf4e	0.042205147
24	0x3cf9f6e4	0.030513234
25	0xbce5dc5c	-0.028059177
26	0xbcdddf12	-0.027083907
27	0xbcf7a5d5	-0.030230442
28	0xbe9ffa2d	-0.31245556
29	0xbe1eef7e	-0.15521047
30	0x3c094466	0.008378124
31	0xbf8a7e73	-1.0819839
32	0xbe97b191	-0.2962766
33	0xbd4c8784	-0.049933925
34	0x3db974a5	0.09055451
35	0x3e02d77d	0.12777515
36	0xbf51cb2e	-0.8195065
37	0x3e162afc	0.14664835
38	0x3ea3b9f5	0.3197781
39	0xbe1ee9d9	-0.15518893
40	0x3ec7c159	0.390147
41	0xbf4e9244	-0.80691934
42	0x3da5d6af	0.08097588
43	0x3eea1abd	0.45723525
44	0x3ea3577a	0.31902677
45	0x3d3b7af4	0.045771554
46	0x3e02b9dd	0.12766214
47	0xc00b6283	-2.1778877
48	0xbf8d6686	-1.1046913
49	0x3df3152f	0.11869275
50	0x3da32752	0.07966484
51	0x3dcf39ad	0.10118423
52	0x3dea5bab	0.114432655
53	0x3d496b46	0.04917457
54	0x3b7c7150	0.0038519688
55	0xbe0a90e0	-0.13531828
56	0xbf05a1a4	-0.5219977
57	0xbb85c55c	-0.004082365
58	0x3e970b69	0.29500893
59	0xbe33a0f5	-0.17541869
60	0x3d339edc	0.043852672
61	0x3d6775d3	0.05650885
62	0xbfc1bb78	-1.5135336
63	0x3cd13441	0.025537612
64	0xbfaf09d4	-1.3674874
65	0x3aaf4fad	0.0013375186
66	0xbeae8922	-0.34089
67	0xbe746024	-0.238648
68	0xbd877450	-0.06613982
69	0x3dc6515d	0.096834876
70	0x3e558080	0.208498
71	0x3ead8b47	0.33895323
72	0x3e8f2836	0.27960366
73	0x3d20b8db	0.039238792
74	0x3dbdfa40	0.09276247
75	0xbcbcbf8c	-0.023040555
76	0x3faafcc7	1.3358392
77	0xbd4bdd8d	-0.049771834
78	0x3df4cac3	0.11952736
79	0x3d177c84	0.03698398
80	0xbe160353	-0.14649706
81	0xbf3dc8e4	-0.7413466
82	0xbf76e494	-0.9644253
83	0x3ec59635	0.3859116
84	0xbfa50c86	-1.2894447
85	0x3e2df8ab	0.1698939
86	0x3cc066db	0.023486545
87	0x3e03b603	0.128624
88	0xbdb6fd86	-0.089350745
89	0xbcad2901	-0.021137716
90	0x3de2e989	0.110796995
91	0xbd3c8099	-0.046021078
92	0xbdf698fd	-0.12040899
93	0x3e651712	0.22372082
94	0xbf19f4e3	-0.6013929
95	0xbf81905c	-1.012218
96	0x3d7c1c6b	0.06155054
97	0x3e190393	0.1494277
98	0xbf2024c4	-0.625561
99	0xbddc857a	-0.10767646
100	0x3e775eaa	0.24157205
101	0xbec0da5f	-0.37666604
102	0x3db736d3	0.08946004
103	0xbe5d02d4	-0.2158311
104	0x3ec67922	0.38764292
105	0xbda17439	-0.07883496
106	0xbf41b321	-0.75663954
107	0x3d600dfd	0.05470084
108	0x3e241f10	0.16027474
109	0xbdf7d5ff	-0.121013634
110	0x3ea0640c	0.3132633
111	0x3e89fe57	0.26951858
112	0xbf67c573	-0.9053566
113	0xbd7f4825	-0.06232466
114	0xbd22a225	-0.039705414
115	0x3ddd64d1	0.10810245
116	0x3d5263fe	0.05136489
117	0x3e0ddb02	0.13853076
118	0x3d80ed9b	0.0629532
119	0xbe48ae5d	-0.19597764
120	0xbd0affc3	-0.03393532
121	0x3e323bf5	0.17405684
122	0xbe4896ea	-0.19588819
123	0xbf4c55d5	-0.7981847
124	0x3eb71adb	0.35762677
125	0xbf837625	-1.027043
126	0xbf7d90dc	-0.9904916
127	0x3b211a2c	0.002458225
128	0xbda6996b	-0.08134731
129	0xbd9b0b41	-0.07570506
130	0xbe043db8	-0.12914169
131	0xbede4aa1	-0.43416312
132	0xbcc4da44	-0.024029858
133	0xbc31423d	-0.010819015
134	0x3e3554c9	0.17708124
135	0xbdb31369	-0.087439366
136	0x3dcae037	0.09906047
137	0xbf2c2d18	-0.6725631
138	0x3e671c26	0.22569332
139	0x3f1868d4	0.59534955
140	0xbeddbe64	-0.4330932
141	0xbc54bd50	-0.012984589
142	0xbe4944c7	-0.19655143
143	0x3e97d38a	0.2965358
144	0x3e0720c1	0.13196088
145	0xbf6e4219	-0.93069607
146	0xbe49d49a	-0.19710007
147	0xbf0ded33	-0.5544006
148	0xbea33f42	-0.318842
149	0xbe0db870	-0.13839889
150	0xbb61bb77	-0.0034444013
151	0x3e8c6d6f	0.2742724
152	0xbf01e571	-0.50740725
153	0x3e34b0b6	0.17645535
154	0x3d0a4e39	0.033766005
155	0xc0843976	-4.1320143
156	0x3e380c74	0.179735
157	0x3e2224d3	0.1583436
158	0x3d1e8ede	0.038710468
159	0x3e356dd4	0.17717677
160	0xbd345703	-0.044028293
161	0xbea1ae04	-0.31578076
162	0x3d07b301	0.033129696
163	0x3bbc3d35	0.005744601
164	0x3e354f97	0.17706142
165	0xbc2e4b0f	-0.010638013
166	0x3e7ae23f	0.24500369
167	0xbe69b84d	-0.22824211
168	0x3e376a10	0.17911553
169	0xbd736ce6	-0.059430026
170	0xbe4bde25	-0.1990896
171	0x3dc390ae	0.0954908
172	0xc02688d4	-2.6021013
173	0xbd13b2ae	-0.036059074
174	0x3e9e8b57	0.30965683
175	0xbef55c04	-0.47921765
176	0xbdb55e53	-0.088558815
177	0x3dc14158	0.094362915
178	0x3df9fade	0.12206052
179	0xbedd5872	-0.4323154
180	0x3f141db3	0.5785782
181	0xbd2c8eae	-0.042128257
182	0x3d0d34cf	0.03447419
183	0x3e2dcd14	0.16972762
184	0x3ee29784	0.44256222
185	0x3ee7fdc4	0.45310795
186	0xbe84e7bd	-0.25958052
187	0x3e47b3c8	0.19502175
188	0x3da32da3	0.07967689
189	0xbec52057	-0.38501236
190	0x3e248365	0.16065748
191	0x3d59a5ed	0.053136755
192	0xbc799ec8	-0.01523561
193	0xbe3c52e4	-0.18390995
194	0x3e7c7eab	0.24657695
195	0x3e42cc3d	0.19023223
196	0xbec9b280	-0.39393997
197	0x3d82b18f	0.06381523
198	0xc0069c92	-2.1033063
199	0x3e7b46c7	0.24538718
200	0xbd072146	-0.032990716
201	0xbe680334	-0.22657472
202	0xbfa18548	-1.2618799
203	0xbf347726	-0.70494306
204	0x3dd19a7d	0.102345444
205	0xbefbe53b	-0.49198326
206	0xbd7099ad	-0.058740307
207	0x3dfb7085	0.12277321
208	0xbf3eb58f	-0.74495786
209	0x3c30f470	0.010800466
210	0x3e416efd	0.18889995
211	0x3e1cd7ae	0.1531665
212	0xbe02b749	-0.1276523
213	0x3c15e63c	0.00914913
214	0x3e153e69	0.14574589
215	0xbf468e28	-0.77560663
216	0x3d6fcb10	0.058543265
217	0x3dba7abd	0.09105442
218	0xbf92393c	-1.1423717
219	0x3cc30cb5	0.02380977
220	0xbe233061	-0.15936424
221	0x3f194f70	0.59886837
222	0x3e087899	0.13327254
223	0x3e832e27	0.2562115
224	0xbd80128c	-0.062535375
225	0xc018d0c9	-2.3877432
226	0x3e688e6a	0.22710577
227	0x3e2d33f9	0.16914357
228	0xbfecd3d1	-1.8502141
229	0x3e003625	0.12520654
230	0xbd831712	-0.06400885
231	0x3d4dc01a	0.05023203
232	0x3cc0016c	0.023438178
233	0xbd97fef5	-0.07421676
234	0x3e1c70a9	0.15277351
235	0x3e254cb9	0.16142549
236	0xbcabfc18	-0.020994231
237	0xbd8624d1	-0.06549991
238	0x3e8dd02e	0.2769789
239	0x3e187e7e	0.14892003
240	0x3d7f9c42	0.06240488
241	0x3dd4269d	0.103589274
242	0xbd0ac01b	-0.033874612
243	0x3e5a1354	0.21296436
244	0xbd8f35a5	-0.06992654
245	0x3e224f07	0.15850459
246	0xbf0e7e5a	-0.5566155
247	0x3e43ee21	0.19133808
248	0xba72d764	-0.0009263663
249	0xbd107dcc	-0.03527622
250	0xbdab0f81	-0.083525665
251	0x3f6d3ffe	0.9267577
252	0xbdc63e22	-0.0967982
253	0x3dfb9b41	0.12285472
254	0xbd86980f	-0.065719716
255	0xbeb74554	-0.3579508

fc2.bias f4 [256]
0	0x3e768832	0.24075392
1	0xbd8fa9ae	-0.07014786
2	0x3f0c4948	0.5479932
3	0x3e9cc12f	0.30616137
4	0x3e19e1da	0.15027562
5	0x3eb04755	0.34429422
6	0x3df327ee	0.1187285
7	0xbd22e4cf	-0.03976899
8	0x3cfdaba4	0.030965634
9	0xbe0d13bd	-0.13777061
10	0x3ea10dfd	0.31455985
11	0xbbc7933c	-0.0060905498
12	0x3e61708d	0.22015591
13	0x3e79da0f	0.24399589
14	0x3d81bcb7	0.063348226
15	0x3b215ef4	0.0024623247
16	0x3e7befce	0.24603197
17	0xbb424c78	-0.002964763
18	0xbe2d0a7f	-0.16898535
19	0x3eaff62a	0.34367496
20	0x3f02846e	0.5098332
21	0x3eb3e1d5	0.35133234
22	0x3ea16e39	0.31529406
23	0x3e5cf63f	0.2157831
24	0x3e986e63	0.29771718
25	0x3d1913d1	0.037372414
26	0x3e8bc106	0.27295703
27	0xbc4cbc58	-0.0124960765
28	0xbe0d21a1	-0.1378236
29	0x3e950db4	0.29112017
30	0x3f142ed6	0.57883966
31	0x3ecc87c7	0.3994734
32	0x3e7f153a	0.24910441
33	0xbd81bcd9	-0.06334848
34	0x3e41d0d1	0.18927313
35	0x3e3270ae	0.17425796
36	0x3e551fe6	0.2081295
37	0x3e04d13e	0.12970445
38	0x3d7defc1	0.061996225
39	0xbca97747	-0.020686759
40	0x3eb1f888	0.34759927
41	0x3e774f07	0.2415124
42	0xbdd620b6	-0.10455458
43	0x3e484a40	0.19559574
44	0x3ea815b0	0.32829046
45	0x3f015e0f	0.5053415
46	0xbc455ab7	-0.012045554
47	0x3daac88b	0.08339032
48	0xbd0922f4	-0.0334806
49	0x3e34eebc	0.17669195
50	0x3ee2338a	0.44179946
51	0xbd88407f	-0.06652927
52	0x3e8d7739	0.27630022
53	0x3c8a2159	0.016861605
54	0xbd58e31c	-0.052950963
55	0x3ddf00ba	0.108888105
56	0xbc97bffb	-0.01852416
57	0xbae33cd8	-0.0017336858
58	0x3ea5ab42	0.32357222
59	0xbe864a71	-0.2622867
60	0xb891226d	-6.920551e-05
61	0x3e7ee00f	0.24890159
62	0x3e828c0e	0.25497478
63	0x3d86412e	0.06555401
64	0x3ecd7090	0.4012494
65	0x3ec9f484	0.39444363
66	0xbd0a0b01	-0.0337019
67	0xbd86a922	-0.06575228
68	0x3e9deed3	0.3084627
69	0x3e97daed	0.29659215
70	0xbd374fa6	-0.044753693
71	0x3e885386	0.26626223
72	0x3e47e556	0.19521078
73	0x3e146ba2	0.14494184
74	0x3ef9db58	0.48800159
75	0x3e74ae53	0.23894624
76	0x3f0fad99	0.56124264
77	0x3ecdc820	0.40191746
78	0x3e61753e	0.2201738
79	0x3eab5766	0.33465117
80	0x3e7c0995	0.2461303
81	0x3e9e8317	0.3095939
82	0x3e93b484	0.2884866
83	0x3dd5333d	0.104101636
84	0xbd8fe178	-0.070254266
85	0x3d599cde	0.053128116
86	0xbdcc37cd	-0.09971581
87	0x3e2c2324	0.1681028
88	0x3f022561	0.50838286
89	0xbd6207fa	-0.05518339
90	0x3e38c8bd	0.18045326
91	0x3ec83985	0.39106384
92	0xbccd4d1e	-0.025061186
93	0x3f20aeb2	0.62766564
94	0x3e426f9b	0.18987887
95	0x3e2faff1	0.1715696
96	0xbaa9586c	-0.0012920029
97	0x3e3b3ca0	0.18284845
98	0x3e7ae6f0	0.24502158
99	0x3e25a68c	0.16176814
100	0x3e93b58a	0.2884944
101	0x3e4a3e86	0.19750413
102	0x3bb3dc4f	0.0054889093
103	0x3d9bdc4a	0.07610376
104	0xbda069cc	-0.07832679
105	0xbd01e62f	-0.03171366
106	0xbcf84417	-0.030305905
107	0x3e1de154	0.15417987
108	0x3d4fe301	0.050753597
109	0x3eb1a3e2	0.34695345
110	0x3f193b09	0.59855705
111	0x3ebe1373	0.37124214
112	0xbde0da76	-0.10979168
113	0xbd2b9f25	-0.04189982
114	0x3ea477c2	0.32122618
115	0xbd21dad6	-0.03951534
116	0x3e27d915	0.16391404
117	0x3ede2f1d	0.4339532
118	0x3e8c125d	0.2735776
119	0x3e61b904	0.22043234
120	0x3e6aef81	0.22942926
121	0xbde17316	-0.11008279
122	0x3f01d722	0.5071889
123	0x3e70f6b6	0.23531613
124	0x3e3abb9b	0.18235628
125	0x3cac6475	0.021043995
126	0x3ee0c37c	0.43899143
127	0xbdbd055a	-0.09229536
128	0x3e62e21a	0.22156563
129	0xbcf1c0fc	-0.029510967
130	0x3b825fe7	0.0039787176
131	0x3ec03be4	0.37545693
132	0x3e29cc26	0.16581783
133	0x3ea19d1d	0.3156518
134	0xbd3adbdf	-0.04561984
135	0xbdbdc248	-0.09265572
136	0x3d24bb45	0.040217657
137	0x3eda8770	0.42681456
138	0xbcf34970	-0.029698104
139	0x3d49bcfe	0.049252503
140	0x3ea95119	0.33069685
141	0x3df02b50	0.11727011
142	0x3e7fe92e	0.24991295
143	0x3eea819a	0.45802003
144	0xbdd86fea	-0.10568221
145	0x3c7f2f6f	0.015575274
146	0xbd45ee2e	-0.04832285
147	0xbd3f741f	-0.0467416
148	0xbe00c373	-0.12574558
149	0x3d94fdc0	0.072749615
150	0x3eec1fa7	0.461179
151	0xbe66b61f	-0.22530411
152	0x3e9ebc8a	0.3100322
153	0x3e9a7017	0.30163643
154	0xbd18703a	-0.037216403
155	0x3d243bac	0.04009597
156	0x3daf24b8	0.085519254
157	0x3e804121	0.2504969
158	0x3e1c4872	0.1526201
159	0xbd98e5b1	-0.07465685
160	0x3eed0c4f	0.46298453
161	0xbdf85522	-0.12125613
162	0x3eac9a87	0.33711645
163	0xbdec9d5a	-0.1155345
164	0xbe4e6bf1	-0.20158364
165	0xbd80abfc	-0.062828034
166	0x3e954108	0.29151177
167	0x3c428524	0.0118725635
168	0xbd0df64d	-0.03465872
169	0x3e0b09be	0.13577935
170	0xbdc293c3	-0.095008396
171	0xbe079d42	-0.13243583
172	0xbe8581b0	-0.26075506
173	0xbe6e1bd3	-0.23252802
174	0x3e87b507	0.265053
175	0x3e4c65ea	0.19960752
176	0x3e87ae84	0.26500332
177	0x3bbc9307	0.0057548317
178	0xbca41aef	-0.020032374
179	0xbce3f28a	-0.027825613
180	0x3e5efbdf	0.21775769
181	0x3c8a732f	0.016900627
182	0x3e042533	0.12904815
183	0x3e839048	0.25696015
184	0xbe08dcf4	-0.13365537
185	0xbccf8f07	-0.025336755
186	0xbd7e39b8	-0.062066764
187	0x3f085a23	0.5326254
188	0x3e235e12	0.15953854
189	0x3dda1796	0.1064903
190	0x3e4559a8	0.19272482
191	0x3cd1204d	0.025528098
192	0x3cc34b50	0.023839623
193	0x3c2cd4ca	0.01054878
194	0x3e4ef762	0.20211557
195	0xbdc5066a	-0.09620364
196	0x3eee7f13	0.46581325
197	0x3eed7dac	0.46384943
198	0x3e5b0044	0.2138682
199	0xbcbb28b3	-0.022846555
200	0x3ea59eb7	0.32347652
201	0x3eb92710	0.36162615
202	0xbe8ca809	-0.2747195
203	0xbc50710c	-0.012722265
204	0x3e957831	0.2919326
205	0xbd4f0e77	-0.050550904
206	0x3ec96b05	0.39339462
207	0xbddb8c4a	-0.107201174
208	0x3da6ef48	0.08151108
209	0x3ce8f22f	0.028435795
210	0xbdb83aa2	-0.08995558
211	0x3ecc6be2	0.39926058
212	0xbc8e2f3c	-0.017356507
213	0x3e3af352	0.18256882
214	0x3eca4b78	0.39510703
215	0x3bedfec3	0.007263036
216	0x3e6f92f9	0.2339591
217	0x3e3f943f	0.18708895
218	0x3e798c6e	0.24369976
219	0xbd91569d	-0.07096598
220	0xbde65ecc	-0.1124855
221	0x3db89255	0.090122856
222	0x3e4b7587	0.19869052
223	0x3e66ba91	0.22532107
224	0x3e8501f0	0.2597804
225	0x3eb9b597	0.36271355
226	0x3ebb9eef	0.36644694
227	0x3ead7bac	0.33883417
228	0x3ecbe443	0.39822587
229	0x3dc152b9	0.09439606
230	0x3ead49f3	0.3384548
231	0x3e17e9c8	0.14835274
232	0x3e7d0b19	0.24711265
233	0x3f0e0061	0.5546933
234	0xbdd89c99	-0.10576744
235	0x3e9d452d	0.3071684
236	0xbd91d9e5	-0.07121638
237	0xbd9211a8	-0.07132274
238	0x3e432436	0.19056782
239	0xbd4676c4	-0.048453107
240	0x3ea1376a	0.3148759
241	0x3df2514b	0.11831912
242	0x3e772541	0.24135305
243	0xbdb5a0ef	-0.08868586
244	0x3e8604cc	0.26175535
245	0xbd8878c4	-0.06663659
246	0xbe5bb14d	-0.21454354
247	0xbd5a4343	-0.053286802
248	0x3ea0d7fe	0.3141479
249	0xbce315a4	-0.02772028
250	0xbb66d1f2	-0.0035220352
251	0x3dfc0411	0.12305463
252	0xbde6fa20	-0.11278176
253	0x3ef68cda	0.48154336
254	0x3f00f119	0.50367886
255	0x3eb0f3ab	0.34560904

fc3.weight f4 [256, 256]
0	0xbe2458f4	-0.16049558
1	0xbc265ba0	-0.010153681
2	0x3e64ba4b	0.2233669
3	0x3e523794	0.20529014
4	0xbf342a57	-0.70377105
5	0x3dadc1e5	0.08484248
6	0x3e0a9050	0.13531613
7	0x3d09aadd	0.033610214
8	0xbecb356c	-0.39689195
9	0xbe421c67	-0.18956147
10	0x3da8cb44	0.08241895
11	0xbd1b2836	-0.037880145
12	0x3e19d406	0.15022287
13	0xbf13b7a1	-0.5770207
14	0xbea19141	-0.31556132
15	0x3d8738d0	0.06602633
16	0x3cc11e5f	0.023574052
17	0x3bd73720	0.0065678507
18	0xbed75a27	-0.42060968
19	0xbe2f9ffd	-0.17150874
20	0x3ea48b77	0.32137653
21	0x3cf70f9d	0.030158812
22	0xbe37b779	-0.17941083
23	0xbe3fa536	-0.18715367
24	0x3eb71027	0.3575451
25	0x3d187000	0.037216187
26	0xbc2c81cd	-0.010528994
27	0x3d169458	0.036762565
28	0xbf165372	-0.5872108
29	0xbf1079d7	-0.5643591
30	0x3e98ee6b	0.29869398
31	0x3daa1f50	0.08306754
32	0xbd8595c2	-0.06522705
33	0xbf4e2fee	-0.80541885
34	0x3df68172	0.120364085
35	0x3e3746c5	0.1789809
36	0x3dcf80f0	0.10132015
37	0x3e5e34bc	0.21699804
38	0x3f6f7ffe	0.93554676
39	0xbcbc3cf2	-0.02297828
40	0x3d61e0fb	0.0551462
41	0x3e1480dd	0.14502282
42	0x3d826ef9	0.063688226
43	0x3e2823e7	0.16419946
44	0x3e22c4ca	0.15895382
45	0x3eeb0c80	0.45907974
46	0xbf0bafc4	-0.5456507
47	0x3ee81032	0.45324856
48	0x3e153338	0.1457032
49	0x3ee74797	0.45171806
50	0x3ec8a853	0.3919092
51	0xbd42f979	-0.047601197
52	0x3e65c376	0.22437844
53	0x3c9c3e90	0.0190728
54	0xbc53c08d	-0.012924326
55	0x3f4194d2	0.75617707
56	0xbf8737be	-1.0563886
57	0x3d106879	0.035255883
58	0x3dce47c5	0.10072283
59	0x3ca80bfe	0.02051353
60	0x3d19bf1c	0.03753577
61	0x3ea1bd9c	0.31589973
62	0x3d772fb8	0.060348243
63	0x3e58891c	0.21146053
64	0x3f656a5b	0.8961541
65	0xbd69d49b	-0.057087522
66	0x3dc92acf	0.09822618
67	0x3a162a99	0.00057283934
68	0x3ea27ef6	0.31737489
69	0x3e6efcc1	0.23338605
70	0x3ec9a376	0.39382523
71	0x3ee38bd6	0.44442624
72	0xbc71259d	-0.01471844
73	0x3e2c56fd	0.16830058
74	0xbdca5988	-0.09880358
75	0x3d3b5eaf	0.045744594
76	0xbe111f4b	-0.14172094
77	0xbd6458f0	-0.05574888
78	0x3ed82496	0.42215413
79	0x3eac8631	0.3369613
80	0x3ee6719b	0.4500855
81	0x3df43338	0.11923832
82	0x3eec16c9	0.46111134
83	0xbf1e91a9	-0.6194101
84	0xbf344411	-0.7041636
85	0x3f13baf1	0.57707125
86	0xbdc7b4e6	-0.097513005
87	0xbe976dd1	-0.2957597
88	0x3f1280fb	0.5722806
89	0xbf894287	-1.0723428
90	0x3e664bf4	0.22489911
91	0xbb1e188e	-0.0024123522
92	0xbe91ef53	-0.28502902
93	0x3de16a72	0.11006631
94	0x3d57044f	0.052494343
95	0x3f1af846	0.60535085
96	0x3eb1e470	0.34744596
97	0xbe18b347	-0.14912139
98	0x3d33868f	0.043829497
99	0x3e918071	0.28418306
100	0x3e013844	0.1261912
101	0x3f08e570	0.53475094
102	0xbcff1e45	-0.031142363
103	0xbd4ffbb0	-0.050777137
104	0xbe703617	-0.23458134
105	0x3eddb774	0.43304026
106	0x399d3560	0.0002998514
107	0x3d5e5c4a	0.054287232
108	0x3f1122fa	0.56693995
109	0xbeb76d9e	-0.3582582
110	0x3df91998	0.12163085
111	0x3dccf9fa	0.10008617
112	0xbd928827	-0.07154875
113	0x3cb172de	0.021661218
114	0x3f118ba8	0.56853724
115	0xbf280ccf	-0.65644544
116	0xbdc3ba81	-0.09557057
117	0x3f0cb3db	0.5496194
118	0xbecb0d68	-0.39658666
119	0xbe23db17	-0.16001545
120	0xbe132328	-0.1436888
121	0x3bb9af99	0.005666685
122	0x3e6f742f	0.23384164
123	0x3ede6e3e	0.43443483
124	0x3ca1ef09	0.019767301
125	0x3eed957b	0.46403107
126	0x3e397084	0.18109328
127	0x3bc4885b	0.0059977
128	0xbecb3d87	-0.3969538
129	0xbc8cc45e	-0.017183479
130	0x3c8200ae	0.015869465
131	0x3e965748	0.29363465
132	0x3f3482d8	0.7051215
133	0xbe9c6c64	-0.30551445
134	0xbccc671a	-0.024951506
135	0xbf9f8dde	-1.246517
136	0x3e446257	0.19178139
137	0x3d55685a	0.05210147
138	0x3a733915	0.000927822
139	0x3e950225	0.291032
140	0xbe4a2ff9	-0.19744863
141	0x3f46426d	0.7744511
142	0x3e4dfa86	0.20115098
143	0xbed2491a	-0.41071397
144	0xbd7bb836	-0.061454974
145	0x3c9c07b6	0.019046646
146	0x3d7248f3	0.0591516
147	0xbc5b7263	-0.013393971
148	0x3c6f6a4f	0.014612748
149	0x3e597454	0.21235782
150	0xbdf618fd	-0.12016485
151	0x3f323f43	0.6962778
152	0xbe09f897	-0.13473736
153	0xbe2d8232	-0.16944197
154	0xbf304158	-0.68849707
155	0xbec91fa8	-0.39281964
156	0x3eed4b10	0.4634633
157	0xbe957bd3	-0.29196033
158	0xbe5f720f	-0.21820854
159	0x371e291f	9.427108e-06
160	0x3e83a7c9	0.25713947
161	0xba9fd302	-0.0012193623
162	0x3b623df2	0.0034521786
163	0xbecea898	-0.40363002
164	0xbecfec89	-0.4061015
165	0x3c9a3918	0.018826053
166	0x3bbd0aea	0.0057691233
167	0x3e6b6ab1	0.22989918
168	0xbf180543	-0.5938303
169	0x3d083b25	0.03325953
170	0xbd297049	-0.04136685
171	0x3d813484	0.06308845
172	0xbf563c67	-0.83685917
173	0xbf1c4d66	-0.610556
174	0x3f32ebe4	0.6989119
175	0x3e90d0a7	0.2828419
176	0xbd1b5b6c	-0.037928984
177	0x3e202985	0.15640838
178	0x3d1c860f	0.038213786
179	0x3d0df180	0.03465414
180	0x3e673d82	0.22582057
181	0xbe6baa21	-0.23014118
182	0x3e1420d9	0.14465655
183	0x3f1a3e80	0.6025162
184	0xbc254fd5	-0.010089834
185	0x3da598d1	0.08085788
186	0x3c5d4844	0.013505999
187	0x3e8e83b4	0.27834857
188	0x3ebe971a	0.37224656
189	0x3e326d4a	0.17424503
190	0x3e79c057	0.24389778
191	0x3f1c570e	0.61070335
192	0x3b8c2919	0.00427736
193	0xbd01acc0	-0.031658888
194	0xbf090d2f	-0.5353574
195	0xbd61b801	-0.05510712
196	0x3e2285a1	0.15871288
197	0x3d3608ed	0.044442106
198	0x3efd29b3	0.49445876
199	0x3d054c4d	0.03254347
200	0xbcfe7de1	-0.031065883
201	0xbc3c8d37	-0.011508278
202	0xbea53ccc	-0.32272947
203	0x3c678139	0.01412993
204	0xbeb441a3	-0.35206327
205	0xbb9f606c	-0.0048637893
206	0x3f1db512	0.61604416
207	0x3b7cf1cf	0.0038596278
208	0x3f3b777f	0.7322921
209	0x3d3de1f5	0.046358068
210	0x3d15c31b	0.03656302
211	0x3ed4f15c	0.41590393
212	0xbf0cc652	-0.5499011
213	0x3ec93438	0.39297652
214	0x3dc5b5be	0.09653805
215	0x3d9c08ce	0.07618867
216	0x3c9406fa	0.018069733
217	0xbd967843	-0.07347157
218	0x3e3548c2	0.17703536
219	0xbd2fb21b	-0.042894464
220	0x3b9d3138	0.004797127
221	0xbf7283f3	-0.9473259
222	0x3e065330	0.13117671
223	0x3ef41b34	0.47677004
224	0xbddf5439	-0.10904736
225	0x3dde41e7	0.108524136
226	0x3e9c39a3	0.30512723
227	0x3e303db3	0.17211036
228	0xbdee40b8	-0.11633438
229	0x3f0b3146	0.5437206
230	0x3e8ca449	0.2746909
231	0x3f2c70f5	0.6735986
232	0x3ebf27fd	0.37335196
233	0x3de2aefb	0.11068531
234	0x3d5de365	0.05417194
235	0x3e15a0fd	0.14612193
236	0xbf0983ef	-0.5371694
237	0xbca8682a	-0.020557482
238	0x3dc61600	0.09672165
239	0xbc300405	-0.010743146
240	0x3f5ca3f1	0.86187655
241	0xbd935c2b	-0.07195314
242	0xbf34493b	-0.7042424
243	0xbc263705	-0.010144954
244	0x3c27f36c	0.010250907
245	0x3cea6cf3	0.028616404
246	0xbf256266	-0.6460327
247	0xbd43440e	-0.047672324
248	0xbd9b4d75	-0.07583133
249	0xbccffc54	-0.025388874
250	0x3cd19eb9	0.02558838
251	0x3bc29e19	0.005939257
252	0xbc8280c7	-0.015930546
253	0xbdefe62b	-0.11713823
254	0x3ed3fffe	0.41406244
255	0x3b252df4	0.0025204392

fc3.bias f4 [256]
0	0x3ea7dfa0	0.327878
1	0x3e4a5a6c	0.19761056
2	0xbd069d79	-0.03286502
3	0x3ebc178c	0.36736715
4	0x3e8f64c3	0.28006563
5	0x3e945fdd	0.28979388
6	0x3e2ce91f	0.16885804
7	0xbd068ec4	-0.032850996
8	0xbc5bfbfa	-0.013426775
9	0x3e0bc224	0.13648278
10	0xbd909f1a	-0.07061596
11	0x3e7b1644	0.24520212
12	0x3ec8b5e4	0.39201272
13	0x3ea7a1ba	0.32740575
14	0x3e38ffd5	0.18066342
15	0x3f15f75a	0.58580554
16	0x3e8594e5	0.2609016
17	0x3d8f0f62	0.06985356
18	0x3deb6380	0.114935875
19	0x3c284a4d	0.010271621
20	0xbe37fd0b	-0.17967622
21	0x3f07ba64	0.53018785
22	0x3e039a0d	0.12851734
23	0x3e76f053	0.24115114
24	0xbe244b64	-0.16044384
25	0x3f1c4439	0.610416
26	0x3e414593	0.18874197
27	0x3e2a799d	0.16647954
28	0xbe1d5e62	-0.15368035
29	0xbcb2a23c	-0.021805875
30	0x3be4ba0e	0.0069801873
31	0xbdaf71aa	-0.085666016
32	0xbe7a3176	-0.2443293
33	0x3d95fe5b	0.07323905
34	0x3e9c6387	0.30544683
35	0xbe167b08	-0.1469537
36	0x3d8c1b2f	0.06841122
37	0xbdb41dc8	-0.08794743
38	0x3ec5bdb6	0.386213
39	0x3cea40d7	0.028595371
40	0xbdef41d9	-0.11682481
41	0xbee580b0	-0.44824743
42	0xbd4090e7	-0.04701319
43	0xbdcda245	-0.10040716
44	0xbd98b3db	-0.0745618
45	0x3e9d33d5	0.30703607
46	0xbdccea38	-0.10005611
47	0x3f056b2f	0.52116674
48	0x3e93ca19	0.28865126
49	0xbe0fb0b5	-0.14032252
50	0x3e8e3f16	0.27782506
51	0xbe88cc03	-0.2671815
52	0xbdcc272f	-0.09968411
53	0xbd4d2c06	-0.050090812
54	0x3e0aa584	0.13539702
55	0x3bebd412	0.0071969116
56	0x3d2e459d	0.042546857
57	0x3f38f8a8	0.7225442
58	0xbbfd684b	-0.00773338
59	0x3e33857e	0.17531392
60	0xbd86e985	-0.06587509
61	0x3ef8820b	0.48536715
62	0xbe98fa90	-0.29878664
63	0x3e247bc4	0.16062838
64	0x3db10df7	0.08645242
65	0x3ea0ac5d	0.31381503
66	0x3e2a42e1	0.16627075
67	0x3ea16c7f	0.31528088
68	0xbd867e6b	-0.06567081
69	0xbd8a706a	-0.067597225
70	0x3f29abb2	0.6627761
71	0xbe61d272	-0.22052935
72	0xbd46f970	-0.048577726
73	0x3d9440cf	0.07238924
74	0xbd9b243e	-0.07575272
75	0x3e4730f6	0.19452271
76	0x3e9ec522	0.31009775
77	0x3e11e370	0.14246917
78	0x3e94781f	0.28997895
79	0xbbff5537	-0.007792141
80	0x3ec6f43c	0.3885821
81	0x3ea0f52b	0.31437048
82	0xbc6afe37	-0.014342836
83	0x3f1fc640	0.6241188
84	0xbdb83c75	-0.08995906
85	0x3e9f04a7	0.31058237
86	0x3ef5b914	0.47992766
87	0x3ed6a5f9	0.41923502
88	0x3c474903	0.012163403
89	0xbe305180	-0.1721859
90	0xbafd2fe2	-0.0019316638
91	0x3ae0c3d4	0.0017148205
92	0xbd9dda1a	-0.07707615
93	0xbd4455b9	-0.047933314
94	0xbd884f7d	-0.06655786
95	0x3c31fc5f	0.010863393
96	0xbe264527	-0.16237317
97	0x3e560202	0.20899203
98	0x3d8b9efa	0.06817432
99	0x3eaf7dd4	0.34275687
100	0xbae4d96f	-0.001745982
101	0xbd2868f2	-0.04111571
102	0x3eafa32c	0.34304178
103	0x3c48b160	0.012249321
104	0xbd6a2e17	-0.05717286
105	0xbd0adb43	-0.03390051
106	0xbd9405f9	-0.07227702
107	0x3d975275	0.07388774
108	0x3e169472	0.14705065
109	0x3e14c034	0.14526445
110	0xbacc5f57	-0.0015592378
111	0x3f267cad	0.6503399
112	0x3eedfe57	0.46483108
113	0xbbac1ef4	-0.0052527133
114	0x3e8f0ddd	0.27940264
115	0x3e471f9d	0.19445653
116	0x3e535306	0.2063714
117	0xbd98e20e	-0.074649915
118	0xbb56c679	-0.0032772108
119	0x3ed638e8	0.4184029
120	0x3e7ee344	0.24891382
121	0x3da0b073	0.07846155
122	0x3e785de6	0.2425457
123	0x3ca24d24	0.019812174
124	0xbec95098	-0.393193
125	0xbe8a6446	-0.27029628
126	0x3e3f4dc3	0.18682007
127	0xbe4a6b29	-0.19767441
128	0xbf7cbf32	-0.9872924
129	0xbd85375c	-0.065046996
130	0x3e912def	0.28355357
131	0x393e1e69	0.0001813114
132	0x3e8e34a8	0.2777455
133	0xbe8678b0	-0.26263952
134	0xbda0d4a2	-0.078530565
135	0x3e85212c	0.2600187
136	0x3cefb2e4	0.029260106
137	0xbc66c7cb	-0.01408572
138	0xbf2298a5	-0.6351417
139	0xbdc0ac05	-0.0940781
140	0xbc3b5498	-0.011433743
141	0x3cc0e54f	0.023546843
142	0x3eaa0f6a	0.33214885
143	0x3f27b1f1	0.6550589
144	0x3c449df9	0.012000554
145	0x3dac6e2d	0.08419452
146	0xbd93fd54	-0.07226053
147	0xbdcca58b	-0.09992512
148	0xbdb34438	-0.08753246
149	0xbd03c19f	-0.032167073
150	0x3e395752	0.18099716
151	0x3e281058	0.16412485
152	0x3e9eefb5	0.31042257
153	0xbebc328a	-0.36757308
154	0x3e6487c5	0.22317417
155	0xbd4be5d0	-0.049779713
156	0xbf2994ab	-0.66242474
157	0x3e7b72c4	0.24555498
158	0x3e1da321	0.1539426
159	0x3dfb6b25	0.122762956
160	0x3ce0fbdb	0.027463844
161	0xbc7a70dc	-0.015285697
162	0xbdc62a42	-0.09676029
163	0xbdd28119	-0.1027853
164	0x3e984a1d	0.29744044
165	0x3ab2bc68	0.0013636472
166	0x3d2d752a	0.042348064
167	0x3ce4c7e0	0.02792734
168	0x3c31d1c9	0.010853239
169	0xbd000bfe	-0.031261437
170	0x3ea0aae6	0.31380385
171	0x3d9d369b	0.07676431
172	0x3de07c2a	0.109611824
173	0xbd8ae460	-0.0678184
174	0xbda369ea	-0.07979186
175	0x3e943040	0.28943062
176	0xbd935fbf	-0.071959965
177	0x3ea07926	0.3134243
178	0xbcb704be	-0.022341128
179	0xbd52be2b	-0.05145089
180	0xbd5b859c	-0.053594217
181	0xbdebab5b	-0.11507293
182	0x3c4ec51e	0.012620239
183	0x3ce1ee54	0.027579464
184	0x3db6777e	0.0890951
185	0xbe2ac61e	-0.16677138
186	0xbead7fd5	-0.3388659
187	0x3ee73924	0.45160782
188	0x3c14b326	0.009075915
189	0xbe97aed8	-0.29625583
190	0x3d037dac	0.032102272
191	0xbd242d23	-0.04008211
192	0x3efe6fad	0.49694577
193	0xbdd07279	-0.10178084
194	0xbd25edf4	-0.040510133
195	0xbdd039fc	-0.1016731
196	0xbb923e9f	-0.0044630314
197	0x3ebb5717	0.36589882
198	0x3e277f90	0.16357255
199	0x3e7e162c	0.24813145
200	0x3d1a1eaf	0.03762692
201	0xbd070c4c	-0.03297071
202	0xbe00bfbb	-0.1257314
203	0x3e49176b	0.1963784
204	0x3e289de2	0.16466478
205	0xbeccad9c	-0.39976203
206	0x3ee0fbe1	0.43942168
207	0xbe40da18	-0.18833196
208	0x3d2eb1c2	0.04264999
209	0xbc880d11	-0.016607793
210	0xbce76cd7	-0.028250141
211	0x3b9b4812	0.004738816
212	0x3df81e1d	0.12115119
213	0x3f032acc	0.5123718
214	0x3ee8806e	0.45410484
215	0x3e9764eb	0.29569182
216	0xbd54f51c	-0.051991567
217	0x3dea4390	0.11438668
218	0xbeb444f8	-0.3520887
219	0x3e53a88a	0.20669761
220	0xbf25586c	-0.64588046
221	0x3d497315	0.049182016
222	0x3e7a59eb	0.24448363
223	0x3caac5bf	0.020846246
224	0x3d28ef78	0.041244
225	0x3d12ac69	0.035808954
226	0x3ee49001	0.44641116
227	0x3dadf87c	0.0849466
228	0x3e7c4f55	0.24639638
229	0x3e25a9e8	0.16178095
230	0xbdaf4ac7	-0.085591845
231	0x3e7006d8	0.2344011
232	0x3d79424b	0.060854238
233	0x3d8d514c	0.06900272
234	0x3dbf7d74	0.093501
235	0xbcc2eaab	-0.023793539
236	0x3efecb62	0.49764544
237	0x3e1d5b90	0.1536696
238	0x3f30b0d9	0.6901985
239	0x3de16f8f	0.11007606
240	0x3ea5f7ba	0.32415563
241	0x3da6f206	0.08151631
242	0x3efc3e1d	0.4926614
243	0x3e57151b	0.21004145
244	0x3eb2c4a8	0.34915662
245	0x3d348fb5	0.044082362
246	0xbd8c2866	-0.06843643
247	0x3f100492	0.56256974
248	0x3d1d8ca4	0.038464203
249	0x3e7a06be	0.24416634
250	0x3f1b8885	0.6075519
251	0xbd0ce9e9	-0.03440276
252	0x3d2de7a8	0.042457253
253	0x3e672ca3	0.22575621
254	0x3e9c1aae	0.30489105
255	0xbbe1743e	-0.006880312

fc4.weight f4 [5, 256]
0	0xbf08504a	-0.5324751
1	0xbe869ae7	-0.26290056
2	0x3c826483	0.015917068
3	0x3f0922eb	0.53568906
4	0xbf8051df	-1.0024985
5	0x3def38a6	0.11680727
6	0xbfdfd709	-1.7487499
7	0xbcfc5e92	-0.030806813
8	0xbd0f1582	-0.03493262
9	0xbe3ca3f9	-0.18421926
10	0xbfc874d7	-1.5660657
11	0xbf4486c3	-0.7676813
12	0xbf40083f	-0.7501258
13	0xbe175989	-0.14780249
14	0xbe314a18	-0.17313421
15	0xbfa6f420	-1.3043251
16	0x3f1774dc	0.5916269
17	0x3eb36dff	0.35044858
18	0x3d867979	0.06566138
19	0x3f505f27	0.8139519
20	0xbf112ac6	-0.5670589
21	0x3f25ed66	0.64815366
22	0xbf053fa0	-0.5205021
23	0xbf16bbd9	-0.5888038
24	0x3f5a299b	0.85219735
25	0xbf1cd29a	-0.6125885
26	0x3ee4bfb3	0.44677505
27	0x3f565984	0.8373034
28	0xbfaa7301	-1.3316346
29	0x3ba9f7e2	0.0051870206
30	0xbc970f41	-0.01843989
31	0x3f36d53d	0.71419126
32	0xbedaf581	-0.4276543
33	0x3e48dabc	0.1961469
34	0xbeb6d2ce	-0.35707706
35	0xbfa2e633	-1.2726501
36	0x3d82d72c	0.06388697
37	0xbcf13980	-0.029446363
38	0xbf3bfc47	-0.7343182
39	0x3cc3f9ff	0.023922918
40	0x3e08ddde	0.13365886
41	0xbfbc2f4a	-1.4701931
42	0xbbbbb8d6	-0.0057288213
43	0xbbca3a56	-0.006171505
44	0x3eb9b3a9	0.36269882
45	0xbe91ba1a	-0.28462297
46	0x3eed220e	0.46315044
47	0x3c5411e8	0.012943722
48	0xbf16ab0c	-0.58854747
49	0x3f10d1bd	0.56570035
50	0xbec1a6db	-0.37822613
51	0xbf5097fc	-0.8148191
52	0x3e8b3b89	0.2719386
53	0x3c07393b	0.008253391
54	0xbe1e9ca9	-0.15489449
55	0x3e2b4494	0.16725379
56	0x4011682b	2.271983
57	0x3f243699	0.6414581
58	0xbee9f8b6	-0.45697564
59	0x3eefd721	0.46843818
60	0x3d2435be	0.040090315
61	0x3f734d79	0.9504009
62	0xbf9f3aa5	-1.2439772
63	0xbe5e0c51	-0.21684386
64	0x3e42079d	0.18948217
65	0x3fa67601	1.3004762
66	0xbe2bf065	-0.16790922
67	0xbeed85bd	-0.46391097
68	0xbdabdadc	-0.083913535
69	0x3cac748f	0.021051673
70	0xbf2329e3	-0.6373579
71	0xbf8db9df	-1.1072348
72	0xbd66e423	-0.056369912
73	0xbdefe2fb	-0.11713215
74	0x3cb10d2f	0.021612732
75	0xbe532063	-0.20617823
76	0xbdada30d	-0.08478365
77	0x3e240372	0.1601694
78	0x3f464e77	0.7746348
79	0x3d19f9e2	0.037591822
80	0xbef33ba3	-0.47506437
81	0xbf0916af	-0.5355024
82	0x3bd83653	0.006598273
83	0xbf0abfb7	-0.54198784
84	0x3d2b6cfb	0.04185198
85	0x3f5da75a	0.86583483
86	0x3f8afe26	1.085881
87	0xbf0c5582	-0.54817975
88	0xbbc6095c	-0.006043596
89	0x3f07f706	0.531113
90	0xbcfc9449	-0.030832427
91	0x3ebc6185	0.36793151
92	0x3cdd0de6	0.026984166
93	0x3ca05c2d	0.019575203
94	0xbd6d949a	-0.058003046
95	0xbc1b67c2	-0.009485187
96	0x3f24bd7c	0.6435163
97	0xbe96b3cf	-0.29434058
98	0x3e18619f	0.1488099
99	0x3f99ea31	1.2024595
100	0xbcc3dbf6	-0.023908596
101	0x3d4eea63	0.050516497
102	0x4050e9b4	3.264264
103	0x3d957724	0.07298115
104	0xbd80cd8f	-0.06289207
105	0x3d3002c8	0.042971402
106	0x3c9e8530	0.019350618
107	0xbece3e42	-0.40281874
108	0xbe3790b6	-0.17926297
109	0x3f039d3a	0.51411784
110	0xbf8b9f9f	-1.0908087
111	0x3f18fcc4	0.5976069
112	0xbf6d688e	-0.9273766
113	0x3dac7dd9	0.08422441
114	0x401d5069	2.4580328
115	0x3b43ef39	0.0029897226
116	0xbfc5ee27	-1.5463303
117	0xbb5fa7ef	-0.0034127196
118	0xbd00cb40	-0.031443834
119	0x3e27f90d	0.16403599
120	0x3ea8d182	0.32972342
121	0x3f8805f9	1.0626823
122	0xbf09c972	-0.53823006
123	0xbed9c5d2	-0.42533737
124	0x3f283b2f	0.65715307
125	0x3f1550d3	0.5832645
126	0x3f0bcfcb	0.5461394
127	0x3f4deba0	0.8043766
128	0xbfc8330d	-1.564058
129	0x3d7e5af1	0.062098447
130	0xbf269c7d	-0.6508253
131	0x3d054b01	0.032542232
132	0x3c86d054	0.01645676
133	0x40466a09	3.1002219
134	0x4047545d	3.1145241
135	0xbdaf1958	-0.08549756
136	0xba7a271b	-0.00095425703
137	0x3d4cf541	0.05003858
138	0xbfc6eeb1	-1.5541593
139	0xbcd57b70	-0.026059836
140	0x3d3e1155	0.046403248
141	0x3d1ed7dc	0.03878008
142	0x3ea602fc	0.32424152
143	0xbec8481c	-0.39117515
144	0xbd44cef6	-0.048048936
145	0x400c2f36	2.1903815
146	0xbcb9c740	-0.022678018
147	0xbd168d67	-0.036755946
148	0xbc05462e	-0.008134408
149	0x3d39e464	0.045383826
150	0xbefef5a5	-0.49796787
151	0x3f6ff23c	0.93728995
152	0xbfa6a8ec	-1.3020301
153	0x3f167649	0.5877424
154	0xbd692e17	-0.05692872
155	0x3d171574	0.036885694
156	0xbf8eced4	-1.1156869
157	0xbd96f0f4	-0.07370177
158	0xbff2936f	-1.8951243
159	0xbdee1f6f	-0.11627089
160	0x3d4a5a7a	0.04940269
161	0x3cdee0b0	0.027206749
162	0x3e0076a3	0.12545256
163	0x3c5fc4e5	0.013657783
164	0x3e37498a	0.17899147
165	0xbebfb871	-0.37445405
166	0x3b10bfb4	0.002208692
167	0xbd3ab19d	-0.04557954
168	0x3d28b9b5	0.04119273
169	0xbe87c211	-0.26515248
170	0xbf1c36e0	-0.6102123
171	0x3e47ad15	0.1949962
172	0xbe6e6530	-0.23280787
173	0xbc2968c0	-0.010339916
174	0x3c049e9f	0.008094459
175	0xbece1b23	-0.4025508
176	0xbd3bde65	-0.04586639
177	0xbf4788eb	-0.77943295
178	0x3ceeba49	0.029141562
179	0x3d2535d0	0.040334523
180	0xbcf90611	-0.0303984
181	0x3e85d9a4	0.2614261
182	0x3c48c23d	0.012253341
183	0x3cf252b1	0.029580446
184	0x3d90de43	0.07073643
185	0x3e077284	0.13227278
186	0xbf8fc851	-1.1233007
187	0x3f95aa77	1.1692647
188	0x3cba0b5c	0.022710495
189	0x3f43a7fd	0.76428205
190	0x3c9aaf86	0.018882524
191	0x3d0e973d	0.0348122
192	0xbefb0733	-0.4902893
193	0xbf00e0a7	-0.5034279
194	0x402765a9	2.6155798
195	0xbd0a8e96	-0.033827387
196	0x3d260ca6	0.040539406
197	0xbf34d86e	-0.70642745
198	0x3e87ed8b	0.26548418
199	0x3e802d02	0.25034338
200	0xbd34b74c	-0.044120118
201	0x3d3c58e3	0.045983206
202	0xbe1c49b2	-0.15262488
203	0xbe85f9c7	-0.26167127
204	0x3ec9c4ef	0.3940806
205	0xbf814aee	-1.0100992
206	0x3f1dc757	0.61632293
207	0x3fb16c34	1.3861146
208	0x3f09d91f	0.53846925
209	0x3d3c78e5	0.04601373
210	0xbb92b349	-0.004476939
211	0x3cefcdea	0.029272992
212	0xbf2b827b	-0.6699597
213	0xbf31594e	-0.69276893
214	0xbee1a3d0	-0.44070292
215	0x3e04b255	0.12958653
216	0x3d5162bb	0.051119547
217	0xbe3e0032	-0.18554762
218	0x404bb799	3.183081
219	0xbeea831c	-0.45803154
220	0x403f3230	2.9874382
221	0x3d3e9d21	0.04653657
222	0xbe840749	-0.25786808
223	0x3d5510d9	0.05201802
224	0xbe209a62	-0.15683892
225	0x3f2250ac	0.63404346
226	0x3f045d52	0.51704895
227	0xbe282eba	-0.16424075
228	0xbf3a9ae9	-0.72892624
229	0xbef1c193	-0.47217998
230	0x3f9c9f2c	1.2236075
231	0x3dc4017c	0.095705956
232	0x3ee60e9c	0.4493302
233	0xc020d943	-2.5132606
234	0xbe43a620	-0.1910634
235	0xbc1961b4	-0.009361673
236	0x3f4311f7	0.7619929
237	0x3fbb726d	1.4644295
238	0xbf265a8e	-0.64981925
239	0xbf31c7c3	-0.6944544
240	0xbf0a061c	-0.5391557
241	0xc002a5fb	-2.0413806
242	0xbe0c92ca	-0.1372787
243	0x3ef58824	0.4795543
244	0x3e36eb0b	0.178631
245	0xbd561c14	-0.05227287
246	0x3f69a563	0.91267985
247	0x3f1af47a	0.6052929
248	0x3e040dbe	0.12895867
249	0xbf0c1fa9	-0.5473581
250	0x3fffeee0	1.9994774
251	0xbb9809fc	-0.004639862
252	0x401019f0	2.251583
253	0x3f936459	1.1514999
254	0xbfffc323	-1.9981426
255	0xbc30e474	-0.010796655

fc4.bias f4 [5]
0	0xbe764d14	-0.2405284
1	0x3e23ce54	0.15996677
2	0x3e8bd8c0	0.27313805
3	0x3e634aa2	0.22196439
4	0xbecb3b61	-0.3969374
