weights/ez_map_Q.pt (torch, 75794 bytes, 6 tensors)

fc1.weight f4 [128, 8]
0	0xbe967938	-0.29389358
1	0xbe152fc7	-0.14569007
2	0x3eb85fa7	0.36010477
3	0x3e0cf071	0.13763596
4	0xbd5b976c	-0.053611204
5	0x3e912dcc	0.28355253
6	0xbcab8d43	-0.020941382
7	0xbe5b28f6	-0.21402344
8	0xbeb25154	-0.34827673
9	0x3f0beaf3	0.5465538
10	0x3e078638	0.13234794
11	0x3e8416c2	0.25798613
12	0xbdad12f9	-0.08450884
13	0xbf15573c	-0.58336234
14	0xbe4d2bc8	-0.20036232
15	0x3c30bcbd	0.010787186
16	0x3ed3fa07	0.41401693
17	0x3f19f4fd	0.6013945
18	0xbcff5bf2	-0.031171773
19	0xbd7500f2	-0.059815355
20	0xbf88909a	-1.0669129
21	0x3e6aff46	0.22948942
22	0xbeb8f57a	-0.36124784
23	0xbe837c04	-0.25680554
24	0xbd0e5b97	-0.034755316
25	0xbeec36c6	-0.4613554
26	0xbea6d73c	-0.32586086
27	0xbe2a3978	-0.16623485
28	0xbe4f9ee5	-0.20275457
29	0xbd00ebc9	-0.031474862
30	0xbea6d993	-0.3258787
31	0xbec09269	-0.37611702
32	0x3b1b1808	0.0023665447
33	0x3e3bd17b	0.18341629
34	0x3e853df6	0.26023835
35	0x3e4fc731	0.20290829
36	0x3d8b06f7	0.06788438
37	0xbe6c24a6	-0.23060855
38	0xbebaf46b	-0.365146
39	0x3f253a6e	0.6454228
40	0x3d9aa73f	0.07551431
41	0xbeae0385	-0.3398706
42	0xbe33f7ce	-0.17574999
43	0xbef32631	-0.47490075
44	0xbe3b6886	-0.18301591
45	0x3e9ec5ab	0.31010184
46	0xbe41e6b4	-0.18935663
47	0xbde73275	-0.11288921
48	0xbddb9ae2	-0.10722901
49	0xbe36ec6f	-0.1786363
50	0x3da5597c	0.080737084
51	0x3d33001c	0.043701276
52	0xbfb6ccfa	-1.4281304
53	0x3ecc4280	0.39894485
54	0xbd412677	-0.047155824
55	0xbd0c19a3	-0.034204137
56	0xbeb92329	-0.36159638
57	0xbeda2e99	-0.42613676
58	0x3ebbd72b	0.36687598
59	0xbeb1f39c	-0.34756172
60	0xbc7a9fc2	-0.015296878
61	0x3dfce5a7	0.1234849
62	0x3e027202	0.12738803
63	0x3e497d3c	0.1967668
64	0xbef7ae8b	-0.48375353
65	0xbcc21b61	-0.023694696
66	0xbd96860d	-0.07349787
67	0x3e034ead	0.12822981
68	0xbe5ca8f8	-0.21548831
69	0xbf0b5e78	-0.5444102
70	0x3f3b19f5	0.7308648
71	0x3eab4164	0.33448327
72	0xbe5b8ea3	-0.2144113
73	0x3e3d6e1e	0.18499038
74	0x3dbcac3e	0.0921254
75	0x3e973777	0.29534504
76	0xbe5e4953	-0.21707658
77	0xbe97ebab	-0.29671988
78	0x3d98496f	0.07435881
79	0xbf92fa2d	-1.1482598
80	0x3e9546f4	0.29155695
81	0xbf1a3c0e	-0.60247886
82	0xbd9a6854	-0.0753943
83	0xbe91e89e	-0.28497785
84	0x3f1dd5af	0.6165418
85	0x3f2fe543	0.687092
86	0xbe558f06	-0.2085534
87	0x3e877831	0.26458886
88	0xbd1ba36d	-0.03799765
89	0x3d269ac4	0.04067494
90	0x3e46be9c	0.19408649
91	0x3d29100f	0.04127508
92	0xbe619097	-0.22027813
93	0xbf3ffd8f	-0.74996275
94	0x3ee3670b	0.44414553
95	0x3e33a0a2	0.17541745
96	0x3ec3342e	0.38125747
97	0xbe7418f7	-0.23837648
98	0x3eb78434	0.3584305
99	0x3a862251	0.0010233616
100	0x3f479391	0.77959543
101	0x3f802065	1.0009886
102	0xbda9635a	-0.08270903
103	0x3eabc4cb	0.3354858
104	0x3e27f137	0.1640061
105	0x3da17ea1	0.07885481
106	0xbe326d25	-0.17424448
107	0xbc3d2478	-0.011544339
108	0x3e8c7bd5	0.27438226
109	0x3dcf316a	0.10116847
110	0x3f2fddc6	0.68697774
111	0xbe7ad6fc	-0.24496073
112	0x3eb7fd16	0.35935277
113	0x3e7fec8e	0.24992582
114	0xbebc3897	-0.36761925
115	0xbe57a8d9	-0.21060504
116	0xbf01811f	-0.5058765
117	0x3bd82234	0.006595874
118	0x3e9a5e41	0.30150035
119	0xbe449eaa	-0.1920115
120	0xbed28de7	-0.41123888
121	0xbea8b26a	-0.3294862
122	0x3e09cfce	0.13458177
123	0xbdf7d0a4	-0.12100342
124	0x3f848230	1.035223
125	0xbd787702	-0.06066037
126	0xbe7ca523	-0.2467237
127	0x3eb5969d	0.3546647
128	0x3db01827	0.08598357
129	0xbe80fa63	-0.2519103
130	0x3af80466	0.0018922209
131	0xbdef105b	-0.116730414
132	0x3f971c56	1.1805522
133	0x3df4032c	0.119146675
134	0x3e731d52	0.23741654
135	0x3ecb308b	0.39685473
136	0x3e60e20a	0.21961227
137	0x3d475e32	0.048673816
138	0x3ed6e5c1	0.41972163
139	0x3e117544	0.1420489
140	0x3f089ee7	0.53367466
141	0xbeebd790	-0.460629
142	0xbf08d7f2	-0.53454506
143	0x3f0d4fa4	0.55199647
144	0x3efcd50a	0.49381286
145	0xbdb345e6	-0.087535664
146	0xbeec9970	-0.46210814
147	0x3d7e76ba	0.062124945
148	0x3e489ea5	0.19591768
149	0x3ea6b092	0.32556587
150	0x3cd06f5c	0.025443725
151	0x3df5c5ab	0.12000593
152	0x3eac5678	0.3365972
153	0xbd1ae834	-0.037819102
154	0x3e71bf7d	0.23608203
155	0xbdb4881c	-0.08815023
156	0x3ed96236	0.42457741
157	0x3ebf6f22	0.37389475
158	0xbf05a3ac	-0.5220287
159	0xbdb8771d	-0.09007094
160	0xbe8722eb	-0.26393828
161	0xbefba28e	-0.49147457
162	0xbea7ba4e	-0.32759327
163	0xbece5d92	-0.40305763
164	0xbcc95606	-0.024577152
165	0xbea3a612	-0.3196264
166	0xbee91b25	-0.45528522
167	0xbeb344c2	-0.35013396
168	0xbe766e14	-0.24065429
169	0xbef170af	-0.47156283
170	0xbedb2b7b	-0.4280661
171	0xbec2e7bc	-0.38067424
172	0xbe4f903d	-0.20269866
173	0xbeaa949c	-0.33316505
174	0xbef0d6d3	-0.47038898
175	0xbf0ffe4a	-0.5624739
176	0xbd50d4dc	-0.05098425
177	0x3f4b95ab	0.7952525
178	0xbd6fa11e	-0.058503263
179	0xbccffff7	-0.025390608
180	0xbf0c801e	-0.5488299
181	0xbebc4381	-0.3677025
182	0x3b117eec	0.0022200895
183	0x3e3044f7	0.17213808
184	0x3e539a0e	0.20664236
185	0x3dee9ce7	0.116510205
186	0xbe249cf5	-0.160755
187	0x3e32c316	0.17457232
188	0xbd9c70ea	-0.07638724
189	0xbd08b21f	-0.033372995
190	0xbdc27f55	-0.09496943
191	0xbeb43101	-0.35193637
192	0x3eddb9ea	0.43305904
193	0x3eb5d436	0.35513467
194	0xbee0fb0a	-0.43941528
195	0xbe9a4b6b	-0.30135664
196	0x3dd88c66	0.10573654
197	0xbe175fb7	-0.14782606
198	0x3dd6a9a3	0.104815744
199	0x3e89011b	0.26758656
200	0xbe9c6436	-0.30545205
201	0xbf10a90a	-0.56507933
202	0x3ea0c701	0.31401828
203	0x3efa1455	0.48843637
204	0xbe7e7c7a	-0.24852172
205	0x3e9053ca	0.28188926
206	0x3c894ecd	0.016761208
207	0xbe28eb0e	-0.16495916
208	0xbf0e903c	-0.55688834
209	0x3dba7060	0.09103465
210	0xbc99b36c	-0.018762313
211	0xbd5b71f4	-0.05357547
212	0x3f2071cf	0.6267366
213	0x3de8264e	0.11335431
214	0x3f37395b	0.7157189
215	0xbe626ae3	-0.22111087
216	0xbd770ffc	-0.06031798
217	0x3e978b31	0.29598382
218	0x3edeee47	0.43541166
219	0x3cd1896c	0.025578223
220	0xbc577fc3	-0.013153019
221	0x3e979d6d	0.29612294
222	0x3e1d4675	0.15358908
223	0xbdd68e4a	-0.10476358
224	0xbda8e9e8	-0.08247739
225	0xbdd8fe53	-0.105953835
226	0xbe7ce14c	-0.24695319
227	0x3eba5c81	0.363987
228	0xbf690fe7	-0.9103989
229	0xbf806648	-1.0031214
230	0x3dfcfa89	0.12352473
231	0xbf1a3bbf	-0.60247415
232	0x3e7fde03	0.24987034
233	0x3e63d23a	0.22248164
234	0xbe97f2a9	-0.29677323
235	0xbe3b4ae3	-0.18290286
236	0xbdda78aa	-0.10667546
237	0xbe965c05	-0.2936708
238	0xbe0d8eec	-0.13824052
239	0x3d3df464	0.046375647
240	0xbda1c3fd	-0.0789871
241	0x3f11602c	0.5678737
242	0xbc7269be	-0.014795719
243	0xbd7b0245	-0.06128146
244	0xbf293879	-0.66101795
245	0xbe6e1a7e	-0.23252293
246	0x3e66f06a	0.22552648
247	0x3cee6afe	0.029103752
248	0xbd51fc91	-0.051266257
249	0x3f29b0a9	0.66285187
250	0xbd22752f	-0.039662536
251	0xbdf29d80	-0.11846447
252	0xbf0b1205	-0.5432437
253	0xbde82ded	-0.11336885
254	0x3e8b3f47	0.27196714
255	0x3e26280d	0.16226216

fc1.bias f4 [128]
0	0x3dcf0ef5	0.10110275
1	0xbde81e4e	-0.11333905
2	0x3d5a8fb6	0.05335971
3	0xbe40438d	-0.18775769
4	0xbef8bc29	-0.48581055
5	0x3f14503c	0.5793493
6	0xbe65f08f	-0.22455047
7	0x3ef48043	0.47754106
8	0x3e8311d5	0.25599542
9	0x3e4a9a5f	0.1978545
10	0x3f048a14	0.5177319
11	0xbf135934	-0.5755799
12	0x3e481152	0.19537857
13	0xbe9e86e4	-0.30962288
14	0xbeac9343	-0.33706102
15	0xbe1cb22d	-0.15302344
16	0x3ed58a0c	0.41706884
17	0xbe38c300	-0.18043137
18	0x3e2d8553	0.1694539
19	0xbe757bc5	-0.23972996
20	0xbe9abb12	-0.30220848
21	0xbeef211c	-0.46704948
22	0xbcd6d728	-0.026225641
23	0xbe7107d1	-0.23538138
24	0x3f15a12b	0.5844905
25	0xbed16e02	-0.40904242
26	0x3da70683	0.08155539
27	0x3ed59181	0.41712573
28	0xbea2aeb2	-0.31773907
29	0xbe5302de	-0.20606562
30	0x3e0f50ee	0.13995716
31	0xbde3ac02	-0.11116792
32	0xbedb691a	-0.42853624
33	0xbe6cdab2	-0.231303
34	0x3ef18817	0.4717414
35	0x3d0cc992	0.03437192
36	0xbe8bbcbd	-0.27292433
37	0xbcfea07f	-0.03108239
38	0x3ece2b35	0.4026734
39	0x3cdfc436	0.02731524
40	0xbecab1f2	-0.39588886
41	0x3e22a44a	0.15882984
42	0xbe17c647	-0.1482173
43	0x3e11e398	0.14246976
44	0xbebb5eda	-0.36595803
45	0xbcc44fad	-0.023963774
46	0x3ddd8e68	0.108181775
47	0x3ee6cc04	0.45077527
48	0x3f0d0c05	0.55096465
49	0x3d15336b	0.03642599
50	0xbeba294f	-0.3635964
51	0x3ee22947	0.44172117
52	0xbf265b06	-0.6498264
53	0xbeab38d6	-0.334418
54	0xbeed330d	-0.4632801
55	0x3d8db4c5	0.06919245
56	0x3e597500	0.21236038
57	0x3da80df0	0.08205783
58	0xbdfd370d	-0.12364016
59	0x3e224b54	0.15849048
60	0x3ef85303	0.48500833
61	0x3e062571	0.1310022
62	0xbe726e04	-0.2367478
63	0x3ea8a269	0.3293641
64	0x3e28600b	0.16442887
65	0x3ee2c038	0.44287276
66	0xbef10eca	-0.47081596
67	0xbafb0476	-0.001915111
68	0x3e524dfd	0.20537563
69	0x3ea44701	0.32085422
70	0x3d2fca80	0.04291773
71	0xbefdcdf9	-0.49571207
72	0x3eb983ef	0.3623347
73	0x3e5920a5	0.21203859
74	0xbf2ac1d6	-0.6670202
75	0x3e5799d9	0.21054782
76	0x3ecb5077	0.39709827
77	0xbe83f8e7	-0.25775835
78	0xbe8764ec	-0.26444185
79	0xbea63f33	-0.32470092
80	0x3e505b52	0.20347336
81	0x3d4d792f	0.050164398
82	0x3eb47be8	0.35250783
83	0xbe8b79f4	-0.2724148
84	0x3eecf6aa	0.4628194
85	0xbea9ee79	-0.33189753
86	0x3e506898	0.203524
87	0x3f0def58	0.55443335
88	0x3c5bf72e	0.013425631
89	0x3ebef545	0.372965
90	0xbeec35e2	-0.4613486
91	0x3e5ef857	0.21774422
92	0xbed009e8	-0.40632558
93	0x3e654cce	0.2239258
94	0xbe10aa91	-0.14127566
95	0x3e63adbe	0.22234246
96	0x3eec43ba	0.4614542
97	0xbeb48409	-0.35256985
98	0x3e96eb03	0.29476175
99	0xbe2a8b10	-0.1665461
100	0xbc30e10e	-0.010795845
101	0xbe852a65	-0.26008907
102	0x3ec76ee2	0.38951784
103	0xbee97a31	-0.45601037
104	0x3e9889f8	0.29792762
105	0x3e204d2a	0.15654436
106	0xbe0d0518	-0.13771474
107	0xbe9b5cc5	-0.30344215
108	0xbd1460cd	-0.03622513
109	0xbe06c6a1	-0.13161708
110	0xbf05da08	-0.52285814
111	0xbe4ea3ff	-0.20179747
112	0xbe977481	-0.29581073
113	0xbe773f2b	-0.2414519
114	0x3c80d1f8	0.01572512
115	0x3eb4624f	0.35231254
116	0xbf0be509	-0.54646355
117	0xbe2ec69f	-0.17067955
118	0x3e793820	0.24337816
119	0x3ead3628	0.3383038
120	0x3f1013aa	0.56280005
121	0x3cdcd7f1	0.026958438
122	0xbe62dbe7	-0.22154199
123	0xbdc5aa72	-0.096516505
124	0xbd506906	-0.05088141
125	0x3eb29412	0.34878594
126	0xbc5a84df	-0.013337343
127	0x3ed991ec	0.42494142

fc2.weight f4 [128, 128]
0	0x3e881d39	0.26584795
1	0x3e05e717	0.13076435
2	0x3eb66d4d	0.35630265
3	0x3e3f3976	0.18674263
4	0xbe0827ab	-0.13296382
5	0x3e6f800d	0.23388691
6	0x3e8d2d30	0.27573538
7	0x3e30a89d	0.17251821
8	0x3d6dfc88	0.05810216
9	0xbdb491bb	-0.088168584
10	0xbeab8a5b	-0.33503994
11	0x3e0bde89	0.13659109
12	0x3d2d0385	0.042239685
13	0xbeac21b8	-0.33619475
14	0xbef23798	-0.4730804
15	0xbe3aaca9	-0.18229927
16	0xbe6e1802	-0.23251346
17	0xbe03cbb3	-0.12870674
18	0x3e2a1c25	0.16612299
19	0xbdea8af9	-0.11452288
20	0x3de36523	0.11103275
21	0x3e407144	0.18793207
22	0x3ea486ec	0.32134187
23	0xbed01992	-0.4064451
24	0x3e61d986	0.22055635
25	0xbe9348c5	-0.28766456
26	0xbeb9bf4c	-0.3627876
27	0xbe0094c5	-0.12556751
28	0x3de5a4c7	0.112130694
29	0xbeb315ab	-0.3497747
30	0x3e116b94	0.14201194
31	0x3e61c3fe	0.22047421
32	0x3e331f41	0.17492391
33	0xbecb904c	-0.39758527
34	0x3e94a90c	0.29035223
35	0xbedeb2ef	-0.4349589
36	0x3f0f059a	0.5586792
37	0xbe393719	-0.18087424
38	0x3e246b4b	0.16056554
39	0x3e8b6796	0.27227467
40	0xbe893b8d	-0.26803246
41	0xbcb92090	-0.022598535
42	0x3d7cd937	0.06173059
43	0xbc3157c4	-0.010824148
44	0x3d505fa5	0.050872464
45	0xbdf1b366	-0.11801796
46	0x3ea45604	0.32096875
47	0x3e0ee5be	0.13954827
48	0xbe1626c1	-0.14663221
49	0xbe23da6d	-0.16001292
50	0xbeb7b30c	-0.3587879
51	0xbe9c82db	-0.30568585
52	0x3e3fd9b7	0.18735395
53	0x3e0380ed	0.1284215
54	0xbea4504f	-0.3209252
55	0xbbefc4b9	-0.0073171523
56	0x3ecaef4f	0.39635703
57	0x3cfc2ecd	0.030784035
58	0x3e23db3a	0.16001597
59	0xbcc474af	-0.02398142
60	0xbda360b2	-0.079774275
61	0x3e24933d	0.16071792
62	0xbe010018	-0.12597692
63	0xbd2f766a	-0.042837538
64	0x3e8372ec	0.25673616
65	0x3e9ba08c	0.30395925
66	0xbe1fb93e	-0.15598008
67	0x3e9a581c	0.30145347
68	0xbe9e42f7	-0.30910465
69	0x3ee73d0b	0.4516376
70	0x3df65f1e	0.12029861
71	0xbe1bc35e	-0.15211245
72	0x3e87b0d9	0.26502112
73	0xbe45f9f1	-0.19333626
74	0x3e5047eb	0.20339935
75	0x3ee24258	0.4419124
76	0x3e3f4a4e	0.18680689
77	0xbdf2236e	-0.11823164
78	0xbea93359	-0.33046988
79	0xbe5c1097	-0.21490704
80	0xbe3cc30f	-0.18433784
81	0xbe326aef	-0.17423604
82	0x3e938a85	0.2881662
83	0x3d90598c	0.0704833
84	0x3eaf0f45	0.34191337
85	0x3efbfe8e	0.49217647
86	0xbea0c700	-0.31401825
87	0x3e8e3f36	0.277826
88	0xbe00c6e4	-0.12575871
89	0xbe285899	-0.16440047
90	0xbe824615	-0.25444093
91	0x3e9190e7	0.28430864
92	0x3c92733f	0.01787722
93	0xbe83b1e9	-0.25721672
94	0xbe92c1bf	-0.28663442
95	0x3bc583a1	0.0060276543
96	0x3b37ed1e	0.0028064917
97	0xbd90694c	-0.07051334
98	0xbe0a072a	-0.13479295
99	0x3e5e5709	0.21712889
100	0x3e975c5d	0.29562655
101	0xbdf5f735	-0.120100416
102	0xbeebf42d	-0.4608473
103	0xbe34814b	-0.17627446
104	0xbd878530	-0.066172004
105	0xbe792b99	-0.24333037
106	0xbd9bb824	-0.076034814
107	0xbe974b88	-0.29549813
108	0x3de59e06	0.11211781
109	0xbd48a646	-0.048986696
110	0x3daa0efc	0.08303639
111	0x3d63ce34	0.055616572
112	0x3e20d69d	0.15706868
113	0xbe990248	-0.29884553
114	0xbda3268e	-0.07966338
115	0x3e71cdd6	0.23613676
116	0x3e1d7686	0.15377244
117	0x3e76f696	0.24117503
118	0x3efa9def	0.4894862
119	0x3e136673	0.1439455
120	0x3e91acb3	0.28452072
121	0x3c0a08b6	0.008424928
122	0xbe471f9b	-0.1944565
123	0xbe90b0b9	-0.2825983
124	0x3ccf43aa	0.02530082
125	0x3ed1ebaf	0.41000125
126	0x3cf7b745	0.030238757
127	0xbea1b3a2	-0.3158236
128	0x39896b52	0.00026210636
129	0x3f008074	0.50196004
130	0x3ef84b5d	0.48494998
131	0x3d51bc3a	0.051204897
132	0xbe0ac8d6	-0.13553175
133	0xbc133825	-0.008985554
134	0x3eaf0789	0.34185436
135	0x3d720e4c	0.059095666
136	0x3d644f52	0.05573971
137	0xbcf59f24	-0.02998311
138	0xbf17544b	-0.59112996
139	0x3ec1811c	0.37793815
140	0xbc314f1b	-0.010822083
141	0xbe12b35d	-0.14326234
142	0x3d9c389c	0.07627985
143	0xbe07582b	-0.13217227
144	0xbf03c135	-0.51466686
145	0xbdb26cf7	-0.0871219
146	0xbda09ad1	-0.07842029
147	0xbd83de60	-0.06438899
148	0x3cc5fa21	0.024167122
149	0xbd083bc1	-0.03326011
150	0x3f15796b	0.58388394
151	0xbe1aded6	-0.15124068
152	0x3e3c2a04	0.18375403
153	0xbe0b8651	-0.13625456
154	0xbeedc23c	-0.46437252
155	0xbce1fe73	-0.027587151
156	0x3dea22e5	0.11432437
157	0x3d042498	0.03226146
158	0x3eec222d	0.46119824
159	0x3e6e12c9	0.23249353
160	0x3eae460d	0.3403782
161	0xbea2b405	-0.3177797
162	0x3e3ad93b	0.1824693
163	0xbf1b2603	-0.60604876
164	0x3f37f1e0	0.71853447
165	0x3bb5fd31	0.0055538644
166	0xbe33b968	-0.17551196
167	0x3dfcdab9	0.123464055
168	0xbca625da	-0.02028172
169	0x3e13bf83	0.14428525
170	0x3d2414f2	0.040059038
171	0xbdeadf13	-0.11468329
172	0x3e044c3c	0.12919706
173	0xbd78ea81	-0.060770515
174	0x3d6173c5	0.055042047
175	0x3e7f12ec	0.24909562
176	0xbea87744	-0.32903492
177	0xbdb82409	-0.08991248
178	0xb9783395	-0.00023670339
179	0xbeb42530	-0.35184622
180	0x3cc5728b	0.02410247
181	0x3daaee51	0.083462365
182	0xbe29776c	-0.16549462
183	0xbd668b0b	-0.056284945
184	0x3d001bf4	0.03127666
185	0x3da5493b	0.08070608
186	0x3d90a610	0.07062924
187	0xbddfa8a1	-0.10920835
188	0xbd89a7d7	-0.06721466
189	0xbdd5bb9e	-0.10436176
190	0xbe669f4e	-0.22521707
191	0x3e1d9808	0.15390027
192	0x3e48ca0b	0.19608323
193	0xbd9e0b0c	-0.07716951
194	0x3bbdb480	0.0057893395
195	0x3d1297e8	0.0357894
196	0xbe6914da	-0.2276186
197	0xbd7f21ab	-0.062287968
198	0xbdf2e318	-0.11859721
199	0xbe6966ea	-0.22793165
200	0x3df1d390	0.118079305
201	0xbbc3bc9f	-0.005973413
202	0x3dd1b383	0.10239317
203	0x3e1f27a8	0.15542471
204	0x3e21b3f1	0.15791298
205	0xbe5f114c	-0.21783942
206	0xbe0bc847	-0.13650618
207	0xbe255a6a	-0.16147771
208	0x3e43b806	0.19113168
209	0x3db708af	0.08937203
210	0x3cb3a7c3	0.021930581
211	0x3ce74c13	0.028234517
212	0x3e8b7074	0.27234232
213	0x3f004557	0.50105804
214	0xbf1e7273	-0.61893386
215	0x3e6e6b97	0.2328323
216	0xbdf642c5	-0.12024454
217	0xbc1aecac	-0.009455841
218	0xbdf2539f	-0.11832356
219	0xbcef3de1	-0.02920431
220	0xbda060ab	-0.07830938
221	0x3e2386f5	0.15969451
222	0xbe8a2261	-0.26979354
223	0x3e3eee7b	0.1864566
224	0xbe928671	-0.28618196
225	0x3e45e3f0	0.19325233
226	0xbd736e7d	-0.05943154
227	0xbc1b2448	-0.009469099
228	0x3daf6d10	0.08565724
229	0xbe7b0bc4	-0.24516207
230	0xbefcfd3a	-0.49411947
231	0xbe9afd40	-0.3027134
232	0xbe121daa	-0.14269128
233	0xbdcc6856	-0.09980838
234	0xbe2aabfa	-0.16667166
235	0xbe902d94	-0.28159773
236	0x3e3385bf	0.17531489
237	0xbcccbd75	-0.024992684
238	0x3dd0210c	0.10162553
239	0xbd02bf4c	-0.031920716
240	0x3e4d04de	0.20021388
241	0xbe30a0d0	-0.17248845
242	0x3c22ea6b	0.009943585
243	0x3e40998c	0.18808573
244	0x3f0520cf	0.52003187
245	0x3e2b1e94	0.16710883
246	0x3ecfb33d	0.40566435
247	0x3e0e2ab9	0.13883485
248	0x3d8c73c1	0.06858016
249	0x3e921e69	0.28538826
250	0x3e1b40fa	0.15161505
251	0xbe3e54b0	-0.18586993
252	0x3d8b324d	0.067967035
253	0x3e8b4798	0.2720306
254	0x3cc1cf9e	0.02365857
255	0xbf1e2b6c	-0.61785007

fc2.bias f4 [128]
0	0xbe05ddfb	-0.1307296
1	0xbddf3fdb	-0.10900851
2	0x3d2d130c	0.042254493
3	0x3da73b5f	0.08165621
4	0xbe6a0c33	-0.22856216
5	0x3dc8e28f	0.098088376
6	0x3dccb91f	0.099962465
7	0xbe27bb09	-0.16379942
8	0x3d3d0572	0.04614777
9	0x3d8b5b2f	0.06804501
10	0x3c5a43a3	0.01332179
11	0xbe044493	-0.12916784
12	0x3d82e530	0.0639137
13	0x3ba9fe9f	0.005187824
14	0xbda36e70	-0.07980049
15	0x3c5fb55d	0.01365408
16	0xbdbb1076	-0.09133999
17	0x3d7d0b34	0.061778262
18	0xbd0b11f4	-0.03395267
19	0xbd38bcf7	-0.045102086
20	0xbe08bcc5	-0.1335326
21	0xbbdfc218	-0.0068285577
22	0x3d4aebce	0.049541287
23	0xbdb7f6fe	-0.08982657
24	0xbdb9951f	-0.09061646
25	0x3ae08f5e	0.001713257
26	0x3db3d35d	0.08780549
27	0x3d7ae22b	0.061250847
28	0xbdd8fc6e	-0.10595022
29	0xbc819439	-0.015817748
30	0xbdcb4619	-0.099254794
31	0x3d362ba7	0.044475224
32	0xbd657b62	-0.05602587
33	0x3d9ea813	0.07746901
34	0xbd816e19	-0.063198276
35	0x3c5d7db9	0.013518744
36	0x3d80f76d	0.06297193
37	0x3d3331ff	0.043748852
38	0xbc205506	-0.009785896
39	0x3d80a47b	0.06281372
40	0x3dae36e7	0.085065655
41	0x3c6d7550	0.0144933015
42	0x3daa0306	0.08301358
43	0x3cbca911	0.023029836
44	0xbdab264a	-0.083569124
45	0xbdb6dafe	-0.08928488
46	0x3d9b47a6	0.07582025
47	0x3d2ce137	0.04220697
48	0xbd08723b	-0.033312064
49	0x3cfd8954	0.030949272
50	0xbd9c447e	-0.07630251
51	0xba48d8f8	-0.00076617254
52	0x3d756e11	0.05991942
53	0xbd5c70b8	-0.053818434
54	0x3e0c2b95	0.136885
55	0x3d87175e	0.06596254
56	0xbd53a76a	-0.05167333
57	0x3b06fa28	0.0020595882
58	0xbcc2b22d	-0.023766601
59	0x3d7280ca	0.059204854
60	0xbdba17db	-0.09086581
61	0x3d26c502	0.040715225
62	0x3dd5d925	0.10441808
63	0x3cc5f385	0.02416397
64	0x3c0b8907	0.008516557
65	0xbdcb5ffb	-0.09930416
66	0xbbe3aa0e	-0.0069477623
67	0x3d7efcb1	0.062252704
68	0x3dc8bc3c	0.09801528
69	0xbdd8c14d	-0.10583744
70	0xbcf85f41	-0.030318858
71	0xbd48297f	-0.0488677
72	0xbd3ee1ef	-0.046602186
73	0xba1b92da	-0.00059346633
74	0xbd202335	-0.039096076
75	0xbdd7922b	-0.10525926
76	0xbdd40ce0	-0.10354018
77	0x3dbff141	0.093721874
78	0x3d18fd6d	0.03735106
79	0x3cbf5be3	0.023359245
80	0x3da35f10	0.07977116
81	0x3c4ad390	0.012379542
82	0xbe06ce62	-0.13164666
83	0x3ddaeff7	0.10690301
84	0x3e2ce69b	0.16884844
85	0xbd0b5d83	-0.034024727
86	0x3de55033	0.111969374
87	0x3c1a7eaf	0.009429618
88	0xbd6ac7c3	-0.057319414
89	0x3dd02b59	0.10164518
90	0xbe06ce72	-0.1316469
91	0xbc2f5de4	-0.010703538
92	0xbd609c04	-0.054836288
93	0xbc5a5f57	-0.013328395
94	0xbbc0e6ea	-0.005886902
95	0xbc29cb39	-0.010363393
96	0x3dd9ec4f	0.106407754
97	0x3dbdd814	0.09269729
98	0xbe1809eb	-0.14847533
99	0x3d81f514	0.06345573
100	0x3e00dffe	0.12585446
101	0x3c6f6254	0.014610846
102	0xbd66a258	-0.056307167
103	0xbc0ea08a	-0.008705268
104	0x3b89c16e	0.004203967
105	0xbd74a9e8	-0.059732348
106	0xbe0bf009	-0.13665785
107	0x3d80dfa7	0.06292658
108	0xbdccfdf5	-0.10009376
109	0xbc27bda6	-0.010238087
110	0x3d6771b6	0.056504928
111	0xbc0bdf08	-0.0085370615
112	0xbd8732d0	-0.066014886
113	0xbce81dcc	-0.02833452
114	0xbd96749f	-0.073464625
115	0x3c25fbe4	0.010130856
116	0xbd719662	-0.058981307
117	0xbd95be96	-0.07311742
118	0xbe53a153	-0.20667009
119	0xbd477c4c	-0.048702523
120	0xbd8b32c6	-0.06796794
121	0xbdf7f16f	-0.12106597
122	0x3d0ee523	0.03488649
123	0xbd0d5a28	-0.034509808
124	0x3d62d317	0.055377092
125	0x3d25c3f4	0.04047008
126	0x3de8b5a1	0.11362768
127	0xbda89fa3	-0.08233573

fc3.weight f4 [5, 128]
0	0xc0461b60	-3.0954208
1	0xbfe6a069	-1.8017703
2	0xbfe32ac2	-1.7747424
3	0xbe12ae22	-0.14324239
4	0xc04e9917	-3.2280939
5	0x3febfa55	1.843577
6	0x3fe79703	1.809296
7	0xbfe57ed4	-1.792933
8	0x3fdc3dc1	1.7206346
9	0x3f4a6c70	0.7907171
10	0xbeb11add	-0.34590808
11	0xbeb63661	-0.35588363
12	0x3f193d9d	0.5985964
13	0x3fb62eae	1.4232996
14	0xbfdc1452	-1.7193701
15	0x40136d1d	2.3035347
16	0xc042ba81	-3.0426333
17	0x3eaf2324	0.34206498
18	0x3e204ed1	0.15655066
19	0x3e4e09b2	0.20120886
20	0xbfe04280	-1.7520294
21	0x3fa5e8f7	1.296172
22	0xbfd9aa89	-1.7005168
23	0xbfa33260	-1.2749748
24	0x3f9fd057	1.2485455
25	0x4005325b	2.0811985
26	0x3e689097	0.22711407
27	0x40122b73	2.283902
28	0xbeca4013	-0.3950201
29	0xbfa70dc4	-1.3051076
30	0xbeb01bcc	-0.34396207
31	0x401bbd46	2.4334273
32	0xc0117b67	-2.273157
33	0x3ff668d6	1.9250743
34	0xbf9c8652	-1.2228491
35	0x3f0aaa44	0.54166055
36	0x3e44e822	0.19229177
37	0xbfe7ebb2	-1.8118804
38	0xc017a8a3	-2.3696678
39	0x3fc72668	1.5558596
40	0x3f0578fe	0.52137744
41	0x40080a4b	2.1256282
42	0x4015334e	2.3312564
43	0x3e08cf6d	0.13360377
44	0xbfdc2bd4	-1.7200875
45	0xc019a81e	-2.400886
46	0xbfa75db6	-1.3075473
47	0x3ff0d30a	1.8814404
48	0xbfb47f7e	-1.4101408
49	0x4012ec60	2.2956772
50	0xbe41b2d6	-0.18915877
51	0xbfec9816	-1.8483913
52	0x3e609583	0.21932034
53	0x3fdf8d25	1.7464949
54	0x3f102fb8	0.56322813
55	0xbfeb8828	-1.8400927
56	0x3fec385a	1.8454697
57	0x3e69abd5	0.22819455
58	0xc009734e	-2.1476626
59	0xbfa89f07	-1.3173531
60	0xbe966020	-0.29370213
61	0x3fdb7b80	1.7147064
62	0x3f0cc482	0.5498735
63	0x3e1a4534	0.15065461
64	0x3f35f108	0.7107091
65	0x3fac54a0	1.3463326
66	0x3fa53e09	1.2909557
67	0x3fd6ddda	1.6786454
68	0x400f8ea7	2.2430818
69	0xbe98b4d4	-0.2982546
70	0x3fd8a550	1.6925449
71	0x3fdbde7c	1.7177272
72	0xbf90a910	-1.1301594
73	0xbebad9dc	-0.3649434
74	0x3f9fb7b1	1.2477933
75	0xbeb4f431	-0.35342553
76	0x3fe5f37d	1.7964932
77	0x3fda305f	1.7046012
78	0x3fe8115a	1.8130295
79	0xbe7692c4	-0.24079424
80	0x3fd65b03	1.6746525
81	0xbfe6da2e	-1.8035333
82	0xbf450240	-0.7695656
83	0xbfa0c4b3	-1.2560028
84	0x40216e66	2.5223632
85	0x3fa91aa0	1.321125
86	0x3f358b10	0.7091532
87	0xbfe992df	-1.8247947
88	0xbf073f13	-0.5283062
89	0x40486e0a	3.1317163
90	0xbf1312de	-0.57450664
91	0x3fd4747a	1.6598046
92	0x3e29c8de	0.16580531
93	0x3fca3048	1.5795984
94	0x3e41fa4b	0.18943135
95	0xbea4ad02	-0.32163244
96	0x40070cc3	2.110154
97	0x3fe2e08f	1.772478
98	0xbea91e4f	-0.33030936
99	0x3e64217c	0.22278398
100	0x404fedbd	3.2488854
101	0xbec4f413	-0.38467464
102	0x3fe4b8fd	1.7868954
103	0xbfe43e7a	-1.7831566
104	0xbfdc2246	-1.719796
105	0x3e910de5	0.28330913
106	0xc03bfcd5	-2.9373066
107	0x3e63cfce	0.2224724
108	0xbe5c4ef3	-0.21514492
109	0x3fa552ae	1.2915857
110	0x3eb91eae	0.3615622
111	0x3fa69492	1.301409
112	0x3f93b459	1.1539413
113	0xbfafae5e	-1.3725088
114	0xbef4dea5	-0.47826114
115	0x40071584	2.1106882
116	0xbfc132e2	-1.5093653
117	0xc01a5aa1	-2.4117815
118	0xc04732e5	-3.1124814
119	0xbfe5d675	-1.7956072
120	0x3f9a7d94	1.2069573
121	0xbfe9205a	-1.8212998
122	0x4013371d	2.3002388
123	0xbf803ca1	-1.0018502
124	0xbfe35809	-1.7761241
125	0x3fa802ef	1.3125895
126	0xbfa471c1	-1.2847215
127	0xbe8427cd	-0.25811616
128	0xbf35c3c0	-0.71001816
129	0x3dde9263	0.10867765
130	0x3dbdc4d2	0.09266056
131	0x3f672978	0.9029765
132	0xbf8864a4	-1.0655713
133	0xbe5f3d17	-0.21800648
134	0xbdffd9fd	-0.1249275
135	0x3e8a18d8	0.2697208
136	0xbdfa0a44	-0.12208989
137	0xbf85ed6f	-1.0463084
138	0x3f90554e	1.1276033
139	0x3f8ab857	1.0837506
140	0xbf7b585e	-0.9818171
141	0xbf30151f	-0.6878223
142	0x3ecee5a3	0.40409574
143	0x3fa3bf45	1.2792746
144	0xbf525c27	-0.82171863
145	0xbf8e3370	-1.1109447
146	0xbf75c66f	-0.9600591
147	0xbf80a7fd	-1.0051266
148	0x3e36f614	0.17867309
149	0xbf7fa8b6	-0.9986681
150	0xbcc196c2	-0.023631457
151	0x3f8a3f36	1.080054
152	0x3f9fb049	1.2475673
153	0x3f9f7934	1.2458863
154	0xbf8d41c7	-1.1035699
155	0xbfb1c747	-1.388894
156	0x3f722a3d	0.945957
157	0x3f89d802	1.0769045
158	0x3f85c233	1.044989
159	0x3f924a68	1.1428957
160	0xbfa3d12e	-1.2798212
161	0xbe55932f	-0.20856927
162	0x3f86f45b	1.0543321
163	0xbf667bb3	-0.900325
164	0xbf71e887	-0.94495434
165	0x3ea0a8ca	0.31378776
166	0xbfacb4b8	-1.3492651
167	0xbea3f717	-0.32024452
168	0xbf82cf40	-1.0219498
169	0x3f9b851a	1.2149994
170	0x3fab7aba	1.3396828
171	0xbf7db302	-0.9910127
172	0x3e7b1f66	0.24523696
173	0xbfaa39ae	-1.3298852
174	0xbf977d31	-1.183508
175	0xbeb6401b	-0.35595784
176	0xbfa4380a	-1.2829602
177	0x3fa9a613	1.3253807
178	0x3f7a63c1	0.9780846
179	0xbf947ee2	-1.1601222
180	0xbf8417ef	-1.0319804
181	0xbe85d796	-0.26141042
182	0xbf8a461a	-1.0802643
183	0x3e29506d	0.16534586
184	0xbe94fb27	-0.29097864
185	0xbf8bd42f	-1.0924128
186	0xbfa3cf55	-1.2797648
187	0xbf87e6a9	-1.0617267
188	0x3f83c896	1.0295589
189	0xbbeedc40	-0.0072894394
190	0xbf7b7e73	-0.9823982
191	0xbf84eb5b	-1.0384325
192	0xbf8153a9	-1.0103656
193	0x3f949e32	1.1610777
194	0x3fa3b5ab	1.2789816
195	0x3d7a2f59	0.06108031
196	0x3f9f4b37	1.2444829
197	0x3f6d3970	0.9266577
198	0xbed2125b	-0.4102963
199	0xbe13ca19	-0.14432563
200	0xbf9effdb	-1.2421831
201	0x3f842759	1.0324508
202	0x3f8f2bd9	1.1185256
203	0x3f8fd615	1.1237208
204	0xbe65ba35	-0.22434314
205	0xb9547bf8	-0.00020264077
206	0xbd9c07b4	-0.07618657
207	0x3f86c4d4	1.0528817
208	0x3db78ec7	0.089627795
209	0x3d69bdea	0.05706588
210	0x3f83a156	1.0283611
211	0xbf9b4752	-1.213114
212	0x3fbebb8f	1.4900988
213	0x3f965c57	1.174693
214	0xbf6f03ef	-0.9336538
215	0x3e8d2735	0.27568975
216	0x3f82fbb1	1.023306
217	0x3f829fe2	1.0205042
218	0x3f83811c	1.0273776
219	0x3f4c86c1	0.7989312
220	0xbf86be86	-1.0526893
221	0xbf9028ba	-1.1262429
222	0xbf847338	-1.0347662
223	0x3f8ab0d5	1.0835215
224	0xbfa01b5d	-1.2508351
225	0xbd973733	-0.07383575
226	0x3f8349d1	1.0256902
227	0xbf90aa5a	-1.1301987
228	0x3f98856b	1.1915716
229	0x3f8caa9f	1.098957
230	0xbe10c4a7	-0.14137517
231	0x3eae9c0b	0.34103426
232	0x3d661c20	0.056179166
233	0xbf93a934	-1.1536012
234	0xbf8ce338	-1.1006842
235	0xbf90e11c	-1.1318698
236	0x3f722c19	0.9459854
237	0x3fa22a20	1.2669106
238	0xbf92fd7c	-1.1483607
239	0x3f9f18bd	1.2429425
240	0x3f990f1f	1.195774
241	0xbfa7a13b	-1.3096079
242	0x3f86c260	1.0528069
243	0x3f97ccf4	1.1859422
244	0x3f2c5da2	0.6733037
245	0xbea1ba83	-0.3158761
246	0xbf4ea1c6	-0.80715597
247	0x3e0f7cb0	0.14012408
248	0x3f95394c	1.1658111
249	0x3ec92457	0.39285538
250	0x3f9e0b25	1.2347151
251	0x3f5fc7f1	0.8741446
252	0x3e102fe6	0.14080772
253	0x3f82630d	1.0186478
254	0xbf758677	-0.959083
255	0x3f8988c3	1.0744861

fc3.bias f4 [5]
0	0x40056903	2.0845344
1	0x3ea136c3	0.31487092
2	0x3f4ee070	0.80811214
3	0x3e93f677	0.28898975
4	0xbf424c71	-0.7589789
