weights/ez_map_Q.pt (torch, 552012 bytes, 8 tensors)

fc1.weight f4 [256, 16]
-0.025946181 -0.12530094 -0.086725675 -0.16513158 -0.306413 0.016647005 -0.1537757 -0.11069486
-0.07609943 -0.043143492 -0.018506542 -0.09386305 -0.23569043 -0.3101585 -0.14977592 -0.15610121
3.6829252 1.9102321 -3.8913205 -2.40784 0.76533544 0.88182855 0.21231166 -0.16972741
0.10258494 0.43855718 -0.12120772 -0.14057995 1.0464427 0.31832772 0.6397384 -0.079103686
0.42646497 6.68815 0.4126568 -7.163704 0.846053 0.88917094 0.99340296 1.3586127
1.6675022 1.1348535 1.2020227 1.0816596 0.8074996 0.76396596 1.0549381 0.9234564
-0.19824558 -0.18112272 -0.10103786 -0.118863344 -0.059859484 0.13052356 0.027540624 -0.18517554
0.24932283 -0.06807673 0.081588775 -0.06902677 -0.22412288 0.23930699 -0.16771218 -0.18955335
-0.14066221 -0.1321953 -0.09421946 0.091183126 -0.20628214 0.12104369 -0.024261845 0.07121744
0.10738417 -0.14151083 -0.21044189 0.20392942 -0.1604487 -0.020577174 -0.0056285956 -0.28016573
3.515106 3.4212427 0.22764349 -4.719127 2.339347 2.2788832 1.9326352 1.0939329
2.7936792 2.918137 1.6211224 1.6572262 2.8079727 1.9474071 2.6927178 1.9522897
8.047146 9.580031 8.381335 1.7982216 8.641768 8.706462 10.957366 10.676699
10.19033 10.694061 10.595364 10.559369 10.024361 10.88365 10.382037 10.890517
10.754023 11.950446 11.450321 4.724473 10.071741 9.908688 12.214738 12.1945715
11.596356 12.128201 11.769653 11.564073 11.042301 11.977254 12.090315 11.662637
-0.28868252 -0.2191672 0.09478644 -0.2447744 0.17745098 -0.086702906 -0.01041574 0.11197317
0.12643503 -0.10860928 -0.21670821 0.18669838 0.13107273 -0.11906663 -0.08877057 0.061494023
9.305509 11.779099 11.449306 5.8018303 9.714326 9.497038 12.426554 12.171401
11.850251 11.85923 11.720525 11.727082 11.027718 12.110805 11.955775 11.879082
2.9945233 8.7382965 5.011884 -4.660046 4.396612 4.191147 4.96617 4.566973
5.1449137 5.2747335 4.896968 4.6313643 4.877158 4.724369 5.1157513 5.1114044
11.254184 11.299243 10.73047 9.19672 11.124486 11.194096 10.595898 10.743436
10.714788 11.086135 5.053296 5.0910997 10.980213 11.143204 10.782865 5.961823
-0.39997467 0.07955194 0.05489157 -0.5857482 -0.16912223 0.102432944 -0.12493111 -0.13193186
-0.06829821 -0.097545885 -0.023775754 -0.049437508 -0.21255198 -0.22002701 -0.020821566 -0.42938203
-2.9003713 4.78944 3.212356 -5.769193 -0.6408878 -0.5983688 0.54190296 1.1047257
0.6297987 0.43457842 0.4304047 0.42553666 0.048647873 0.5919836 0.539868 0.28476334
9.529694 11.567333 11.778488 4.1075296 10.322346 10.464409 12.81591 12.543827
12.163152 12.382109 12.0851345 11.7964945 11.8566475 12.384814 12.165699 11.855989
12.713915 12.844165 13.295907 10.223052 12.29801 12.320732 12.158009 12.580463
13.381986 12.376938 11.9626875 11.7660055 12.181872 12.27611 12.573739 11.913471
00000000: 168d d4bc e44e 00be 3b9d b1bd 4118 29be
00000010: 2ae2 9cbe 4d5f 883c 6177 1dbe fdb3 e2bd
00000020: 05da 9bbd 3bb7 30bd 089b 97bc 453b c0bd
00000030: d558 71be 18cd 9ebe dc5e 19be ffd8 1fbe
00000040: 0cb5 6b40 7c82 f43f 650b 79c0 0d1a 1ac0
00000050: 06ed 433f 84bf 613f 3a68 593e 06cd 2dbe
00000060: 0e18 d23d 918a e03e c13b f8bd 31f4 0fbe
00000070: d6f1 853f dafb a23e e5c5 233f 1d01 a2bd
00000080: 9e59 da3e 5305 d640 c147 d33e 103d e5c0
00000090: ee96 583f b5a0 633f a84f 7e3f 05e7 ad3f
000000a0: b670 d53f e142 913f e1db 993f d273 8a3f
000000b0: 4bb8 4e3f 4693 433f 3608 873f a367 6c3f
000000c0: e400 4bbe 3c78 39be f0ec cebd a06e f3bd
000000d0: 382f 75bd f8a7 053e e09c e13c a89e 3dbe
000000e0: 7c4e 7f3e d06b 8bbd 0418 a73d e85d 8dbd
000000f0: 7880 65be e40c 753e bebc 2bbe 461a 42be
00000100: c109 10be 345e 07be 22f6 c0bd 38be ba3d
00000110: a03b 53be c1e5 f73d c7c0 c6bc 73da 913d
00000120: 3bec db3d 37e8 10be 147e 57be e0d2 503e
00000130: aa4c 24be 7691 a8bc 1570 b8bb e271 8fbe
00000140: 7ff7 6040 a4f5 5a40 601b 693e 1703 97c0
00000150: dcb7 1540 39d9 1140 9760 f73f fe05 8c3f
00000160: a4cb 3240 c2c2 3a40 f080 cf3f fd1f d43f
00000170: d3b5 3340 a344 f93f 7d55 2c40 a1e4 f93f
00000180: 1cc1 0041 cf47 1941 f319 0641 202c e63f
00000190: af44 0a41 ab4d 0b41 5f51 2f41 c2d3 2a41
000001a0: 970b 2341 e01a 2b41 9c86 2941 2df3 2841
000001b0: c863 2041 6e23 2e41 d31c 2641 8f3f 2e41
000001c0: 7a10 2c41 0735 3f41 8434 3741 e22e 9740
000001d0: da25 2141 fc89 1e41 916f 4341 f71c 4341
000001e0: ad8a 3941 1c0d 4241 8050 3c41 7106 3941
000001f0: 44ad 3041 d5a2 3f41 ee71 4141 299a 3a41
00000200: 32ce 93be 5e6d 60be 651f c23d 24a6 7abe
00000210: b6b5 353e 4b91 b1bd c8a6 2abc 3052 e53d
00000220: 2f78 013e 8b6e debd c2e8 5dbe dc2d 3f3e
00000230: ee37 063e 35d9 f3bd 58cd b5bd 28e1 7b3d
00000240: 5de3 1441 3177 3c41 5b30 3741 98a8 b940
00000250: e16d 1b41 def3 1741 2ad3 4641 0fbe 4241
00000260: a19a 3d41 68bf 3d41 4587 3b41 21a2 3b41
00000270: 8871 3041 dbc5 4141 db4a 3f41 b810 3e41
00000280: 45a6 3f40 10d0 0b41 5b61 a040 191f 95c0
00000290: 0cb1 8c40 e01d 8640 ddea 9e40 a524 9240
000002a0: 22a3 a440 9eca a840 f6b3 9c40 2334 9440
000002b0: ae11 9c40 082e 9740 3cb4 a340 a090 a340
000002c0: 2311 3441 b3c9 3441 01b0 2b41 c425 1341
000002d0: e5fd 3141 041b 3341 cc88 2941 1de5 2b41
000002e0: c66f 2b41 cf60 3141 9ab4 a140 4aea a240
000002f0: f4ae 2f41 904a 3241 9d86 2c41 41c7 be40
00000300: 7bc9 ccbe 21ec a23d fcd5 603d 98f3 15bf
00000310: 612e 2dbe 5dc8 d13d e2db ffbd 2519 07be
00000320: efdf 8bbd 23c6 c7bd 5fc5 c2bc fc7e 4abd
00000330: 3aa7 59be c34e 61be fd91 aabc f6d7 dbbe
00000340: af9f 39c0 1843 9940 3e97 4d40 3b9d b8c0
00000350: 3911 24bf b32e 19bf 27ba 0a3f a767 8d3f
00000360: 7d3a 213f 1081 de3e 015e dc3e f1df d93e
00000370: fe42 473d 3d8c 173f ca34 0a3f 80cc 913e
00000380: a079 1841 cc13 3941 b074 3c41 e270 8340
00000390: 5428 2541 386e 2741 f80d 4d41 84b3 4841
000003a0: 459c 4241 1e1d 4641 b65c 4141 71be 3c41
000003b0: d4b4 3d41 3328 4641 b4a6 4241 22b2 3d41
000003c0: 326c 4b41 b381 4d41 09bc 5441 9f91 2341
000003d0: a6c4 4441 b821 4541 3487 4241 9449 4941
000003e0: 9d1c 5641 f007 4641 2b67 3f41 8f41 3c41
000003f0: f3e8 4241 f26a 4441 092e 4941 949d 3e41

fc1.bias f4 [256]
-0.24446087 0.941948 0.498481 0.15003076 -0.2990707 3.0799136 11.01877 12.085274
-0.2235564 11.976645 5.163493 10.990696 -0.49477908 0.1867745 12.653147 11.492049
0.465625 1.822206 8.901817 -0.30333987 -0.12825276 -0.40748766 13.08621 0.8070229
10.582564 -0.28443927 5.5826974 12.484128 -0.10896779 -0.8032463 -0.22892988 -0.28834435
-0.19175598 -0.24429941 9.973451 0.5243551 8.52113 9.013958 -0.33010596 10.840566
13.0662155 -0.14790203 -0.34468392 1.1510811 -0.086741254 0.48640263 2.5893567 0.39234585
-0.08840828 11.961912 0.022170419 0.047910802 0.9047492 -0.34894514 -0.031673122 11.368449
0.2334935 10.842274 -0.40651175 11.845272 0.7040827 5.333429 -0.26048216 10.062979
3.8692782 11.663782 0.13795929 11.994138 0.8439543 9.633769 0.057294726 13.159016
0.028805465 12.950632 8.813503 1.0272373 -0.13317427 -0.31067148 -0.7249515 0.95093715
-0.14437263 12.663264 -0.62813884 10.274022 -0.6870028 10.322851 0.11561644 -1.3035039
11.697811 -0.1022343 4.1779532 0.31023616 -0.30304492 12.26932 0.18377635 -0.08605263
1.4533972 0.13946533 4.6242433 1.6031632 7.692967 -0.23091893 -0.2660525 12.273538
0.5557688 4.770483 11.775803 -0.17969224 -0.732852 8.711558 -0.40281025 8.638376
0.07842204 12.839025 -0.38432917 0.04011017 9.918166 10.234234 -0.29075205 10.644309
-0.18355608 13.37106 -0.73121893 1.4220877 13.388091 12.391176 11.429391 -0.27118605
-0.24295485 11.1261425 -0.36020097 13.217189 9.153287 -0.40104657 0.6032056 8.570982
5.5565004 2.0931144 -0.26633757 -0.33440226 0.12981947 12.720528 12.802652 0.17811754
1.4428438 1.7007909 13.1427765 0.24019387 9.054025 0.96558076 13.50686 10.408658
9.809903 13.061716 10.680712 1.320276 -0.28736374 0.38072082 7.600641 3.4800723
11.236747 -0.08926624 0.71208024 -0.15304075 -0.17575435 13.053142 0.16255368 0.8659015
12.2300005 6.6889067 -0.21755308 0.021396289 0.20582353 -0.027126005 0.06122586 0.21050435
0.27839193 12.451397 13.372422 13.651272 0.22726944 0.8869574 -0.22712046 7.6188183
-0.3105238 -0.23982269 12.602248 -0.7713308 8.225921 0.9303403 8.663485 1.289465
1.0105225 13.223863 11.173554 0.33875266 0.12674004 0.16868383 -0.32221723 1.0823193
0.58644867 1.7402383 13.111221 -0.31853226 8.60039 -0.08425814 7.8981185 11.462416
-0.007094441 -0.5458585 10.211699 12.25493 -0.34313527 0.5299818 -0.22227201 -0.28435165
-0.18275113 0.7273998 1.1417496 0.5837885 13.805608 11.909517 12.19834 0.048628483
0.6965327 12.873285 10.700909 1.4809577 0.53992474 0.4437013 -0.36055207 10.164473
-0.12181897 0.42860055 -0.56310856 0.6286089 11.826043 12.971814 0.7542763 -0.78400606
0.38424978 11.870468 0.9254044 12.539452 8.957623 -0.22134675 0.74245304 11.7895355
1.5134263 -1.2763935 -0.09883299 -0.1946958 3.2535458 12.44156 12.54587 -0.21315052
00000000: f353 7abe 8123 713f e738 ff3e aaa1 193e
00000010: cb1f 99be 4e1d 4540 e24c 3041 485d 4141
00000020: f8eb 64be 57a0 3f41 563b a540 e4d9 2f41
00000030: af53 fdbe d141 3f3e 4a73 4a41 6fdf 3741
00000040: 6666 ee3e 0c3e e93f d86d 0e41 5d4f 9bbe
00000050: b154 03be 39a2 d0be 1e61 5141 0e99 4e3f
00000060: 2f52 2941 06a2 91be 75a5 b240 fdbe 4741
00000070: 812a dfbd 8da1 4dbf 986c 6abe dfa1 93be
00000080: ae5b 44be a029 7abe 4193 1f41 233c 063f
00000090: 8c56 0841 2c39 1041 a603 a9be f572 2d41
000000a0: 380f 5141 a173 17be 697a b0be a056 933f
000000b0: 66a5 b1bd c409 f93e 05b8 2540 8ee1 c83e
000000c0: 660f b5bd fe63 3f41 bd9e b53c 1e3e 443d
000000d0: a59d 673f f0a8 b2be adbb 01bd 2be5 3541
000000e0: ec18 6f3e f479 2d41 4f22 d0be 3c86 3d41
000000f0: c43e 343f 73ab aa40 eb5d 85be f601 2141
00000100: 41a2 7740 da9e 3a41 3345 0d3e fde7 3f41
00000110: 640d 583f eb23 1a41 e0ad 6a3d 548b 5241
00000120: 70f9 eb3c ca35 4f41 1c04 0d41 837c 833f
00000130: d65e 08be 5510 9fbe 6c96 39bf 9e70 733f
00000140: 6bd6 13be bb9c 4a41 b5cd 20bf 6562 2441
00000150: 6adf 2fbf 662a 2541 50c8 ec3d 37d9 a6bf
00000160: 3c2a 3b41 3760 d1bd cbb1 8540 46d7 9e3e
00000170: b428 9bbe 224f 4441 de2f 3c3e 5c3c b0bd
00000180: eb08 ba3f 00d0 0e3e cdf9 9340 7434 cd3f
00000190: c92c f640 0376 6cbe 0938 88be 6960 4441
000001a0: dd46 0e3f cca7 9840 b069 3c41 3e01 38be
000001b0: 309c 3bbf 8b62 0b41 253d cebe ca36 0a41
000001c0: bc9b a03d a56c 4d41 cbc6 c4be 904a 243d
000001d0: cfb0 1e41 6cbf 2341 74dd 94be 174f 2a41
000001e0: 20f6 3bbe ddef 5541 2a31 3bbf f806 b63f
000001f0: 9f35 5641 4242 4641 c9de 3641 e6d8 8abe
00000200: 28c9 78be ae04 3241 436c b8be 9b79 5341
00000210: dd73 1241 fa55 cdbe af6b 1a3f be22 0941
00000220: dace b140 96f5 0540 665d 88be c636 abbe
00000230: 65ef 043e 4887 4b41 aad7 4c41 7264 363e
00000240: 1baf b83f 84b3 d93f d048 5241 62f5 753e
00000250: 49dd 1041 4d30 773f 191c 5841 dd89 2641
00000260: 5df5 1c41 cafc 5041 32e4 2a41 cefe a83f
00000270: 5721 93be d7ed c23e 7338 f340 81b9 5e40
00000280: b7c9 3341 38d1 b6bd e44a 363f b7b6 1cbe
00000290: f3f8 33be abd9 5041 7974 263e b9ab 5d3f
000002a0: 15ae 4341 860b d640 3cc6 5ebe 4547 af3c
000002b0: 67c3 523e 5b37 debc f8c7 7a3d 748e 573e
000002c0: 6389 8e3e ec38 4741 71f5 5541 9c6b 5a41
000002d0: 52b9 683e a40f 633f 4492 68be 5ccd f340
000002e0: fafc 9ebe 1494 75be cfa2 4941 ef75 45bf
000002f0: 5f9d 0341 c82a 6e3f a29d 0a41 300d a53f
00000300: cd58 813f f194 5341 e1c6 3241 fd70 ad3e
00000310: 24c8 013e 74bb 2c3e a8f9 a4be 7089 8a3f
00000320: 8021 163f 21c0 de3f 90c7 5141 a916 a3be
00000330: 339b 0941 888f acbd 63bd fc40 0e66 3741
00000340: 7c78 e8bb 62bd 0bbf 1e63 2341 3114 4441
00000350: 6daf afbe e3ac 073f 469b 63be 8a96 91be
00000360: 1d23 3bbe e036 3a3f da24 923f 2a73 153f
00000370: c5e3 5c41 628d 3e41 672c 4341 a92e 473d
00000380: f84f 323f faf8 4d41 ec36 2b41 0690 bd3f
00000390: 8238 0a3f d12c e33e 489a b8be aea1 2241
000003a0: 397c f9bd 8871 db3e e227 10bf 83ec 203f
000003b0: 7937 3d41 8d8c 4f41 4018 413f 9fb4 48bf
000003c0: 63bc c43e 70ed 3d41 4ee7 6c3f 98a1 4841
000003d0: 6c52 0f41 b9a8 62be 6711 3e3f f0a1 3c41
000003e0: f4b7 c13f dd60 a3bf f368 cabd 565e 47be
000003f0: 183a 5040 a110 4741 e2bb 4841 2144 5abe

fc2.weight f4 [256, 256]
0.003993389 -16.78963 -16.152594 -0.0015709177 0.049409404 -7.1196527 -0.005755819 0.3254481
-0.043588564 0.1495797 -1.6053697 1.470809 -0.0677665 -18.878754 0.7100386 1.1356486
7.620155 -8.804179 0.13372613 0.009403438 -6.6481547 8.129841 1.0696663 -15.484867
0.35080415 -0.025383197 -2.5409524 1.1780131 -0.1584278 -0.39488453 -18.529812 -0.23883605
-0.027838316 -0.010088526 1.1209298 -15.640034 -0.3950352 -0.46206918 0.060376056 0.34221554
1.0278332 -0.040810917 0.32839102 9.632709 -0.030542094 -15.449815 -5.6179967 -15.928355
-0.21308704 1.2124513 -17.105568 0.035247155 -14.00825 0.056062136 0.023342565 0.23137444
-19.281643 0.9789659 7.660226 0.014068495 -15.456743 -3.770276 -0.030469066 0.01557265
-2.3490505 -0.4721088 0.008608635 0.3374328 8.783979 -0.062107418 0.025227712 0.35848686
-0.14644215 1.2095412 -0.5918343 9.15815 -0.04033805 0.023507409 -5.06802 -17.505922
0.4450555 0.7823077 9.133863 0.04817399 0.4413913 0.402585 0.0821608 9.060467
0.7929984 -0.009416351 -2.3648756 6.7400136 0.110906124 0.991571 -17.865492 6.417941
9.912584 -15.321762 -1.1109989 -8.037614 0.69625264 -18.996628 2.8471816 0.67518544
-17.602798 -0.16597626 0.270593 0.10282149 8.580974 0.34666616 -0.06495455 0.085659765
0.005691155 0.60924274 -0.022132138 -0.039705995 1.6926942 -0.43718758 -0.15014854 1.3149052
0.18082859 1.265462 0.16510662 3.7672653 0.35640472 0.783087 -0.4343407 -0.004601747
0.2565069 0.061281256 -0.0017020688 0.5953587 0.049816445 0.0648395 6.22113 -0.7657835
3.5153623 -6.413046 0.081164025 0.11139122 1.4614332 1.184646 0.3250123 -15.467496
8.941636 9.052142 1.2480544 7.25247 -0.5784451 8.4169 0.2924989 0.14681306
-0.09104681 1.0052279 1.079249 8.843547 -0.05931747 11.533761 -0.6569936 -3.0114028
1.3721173 -0.013036855 4.9855194 0.02616441 0.0847773 1.3789757 -16.980646 5.3339453
0.42245072 -1.0460167 -0.012138806 -21.76598 -18.083338 -16.068884 0.014468744 1.9122912
6.1854835 1.1085879 0.8152821 0.9697145 2.9840984 10.130184 -0.09235364 0.8673438
-0.00080087 -0.03640143 0.18627147 0.25382063 -0.32849732 -15.69007 -0.6510213 10.237681
-8.082503 0.5687795 0.14688182 0.22183385 0.080798596 -13.342293 0.028983077 9.19834
-16.188135 -8.860625 0.28355202 0.4474898 0.24439618 0.06725507 -0.7004627 0.2194808
5.8323417 6.787028 0.48688802 1.1622049 -0.08080196 -19.928679 0.0043295994 0.057111636
-14.699802 -15.99606 9.034496 5.161859 0.7262572 1.0479041 1.3897588 0.17132528
-15.92125 1.1848772 1.1772368 10.86904 5.771933 8.17955 -16.352516 0.36829382
0.051884796 -16.966541 6.5270524 -15.127818 -0.24210146 0.5843173 -16.723888 8.278794
0.6609611 0.24733682 -19.49857 0.4135354 -0.116474144 -0.09517793 -16.219063 0.8254902
11.739797 7.835282 -18.238037 0.0025723279 -5.1424804 1.2068259 -0.11054003 0.029240387
00000000: fada 823b 2a51 86c1 8338 81c1 40e7 cdba
00000010: 8461 4a3d 32d4 e3c0 4f9b bcbb 22a1 a63e
00000020: ec89 32bd 6c2b 193e c17c cdbf 7843 bc3f
00000030: 2ac9 8abd b007 97c1 17c5 353f ef5c 913f
00000040: 4fd8 f340 ebdd 0cc1 81ef 083e e110 1a3c
00000050: afbd d4c0 d413 0241 d3ea 883f 04c2 77c1
00000060: 9a9c b33e 6cf0 cfbc f79e 22c0 22c9 963f
00000070: e63a 22be 4e2e cabe 0e3d 94c1 7091 74be
00000080: 2e0d e4bc 584a 25bc a17a 8f3f 943d 7ac1
00000090: 0e42 cabe 5594 ecbe e24c 773d e036 af3e
000000a0: 0a90 833f 5929 27bd de22 a83e 931f 1a41
000000b0: 6a33 fabc 7132 77c1 a1c6 b3c0 8bda 7ec1
000000c0: 7d33 5abe 9b31 9b3f 34d8 88c1 525f 103d
000000d0: cb21 60c1 69a1 653d e838 bf3c 6ced 6c3e
000000e0: ce40 9ac1 829d 7a3f 9220 f540 8b7f 663c
000000f0: d24e 77c1 344c 71c0 439a f9bc 6e24 7f3c
00000100: d856 16c0 3fb8 f1be 3b0b 0d3c fec3 ac3e
00000110: 2e8b 0c41 5964 7ebd 59aa ce3c 978b b73e
00000120: eef4 15be 3fd2 9a3f 7482 17bf c887 1241
00000130: 8339 25bd 9c92 c03c 382d a2c0 210c 8cc1
00000140: 51de e33e 5145 483f 4e24 1241 1752 453d
00000150: 0afe e13e 9f1f ce3e ec43 a83d acf7 1041
00000160: f101 4b3f 0a47 1abc 1f5a 17c0 31ae d740
00000170: c022 e33d 99d7 7d3f 87ec 8ec1 c65f cd40
00000180: f299 1e41 f025 75c1 3635 8ebf 119a 00c1
00000190: 9d3d 323f 18f9 97c1 3938 3640 f4d8 2c3f
000001a0: 88d2 8cc1 aef5 29be 2a8b 8a3e 1394 d23d
000001b0: ab4b 0941 3a7e b13e e406 85bd 636e af3d
000001c0: de7c ba3b 55f7 1b3f 754e b5bc c1a2 22bd
000001d0: 34aa d83f 0dd7 dfbe 8ac0 19be d04e a83f
000001e0: 212b 393e a9fa a13f b611 293e e01a 7140
000001f0: ae7a b63e 6478 483f e761 debe 40ca 96bb
00000200: df54 833e 0e02 7b3d f417 dfba 6e69 183f
00000210: 540c 4c3d 92ca 843d 7f13 c740 630a 44bf
00000220: b2fb 6040 ac37 cdc0 5339 a63d 1421 e43d
00000230: 3e10 bb3f 7ba2 973f 0368 a63e dd7a 77c1
00000240: f110 0f41 93d5 1041 3fc0 9f3f 3c14 e840
00000250: fa14 14bf 9fab 0641 6ac2 953e 2a56 163e
00000260: c076 babd 4fab 803f d524 8a3f 2b7f 0d41
00000270: e0f6 72bd 498a 3841 bc30 28bf d3ba 40c0
00000280: 8aa1 af3f 8898 55bc 6089 9f40 bf56 d63c
00000290: b99f ad3d 4782 b03f 5dd8 87c1 aeaf aa40
000002a0: 764b d83e e0e3 85bf d8e1 46bc ba20 aec1
000002b0: adaa 90c1 138d 80c1 500e 6d3c f5c5 f43f
000002c0: 7bef c540 35e6 8d3f 54b6 503f 363f 783f
000002d0: 78fb 3e40 3c15 2241 e823 bdbd 3e0a 5e3f
000002e0: 7af1 51ba aa19 15bd f3bd 3e3e c7f4 813e
000002f0: cd30 a8be 870a 7bc1 55a9 26bf 8bcd 2341
00000300: ef51 01c1 899b 113f 3068 163e 6a28 633e
00000310: bc79 a53d 087a 55c1 eb6d ed3c 672c 1341
00000320: 4d81 81c1 1fc5 0dc1 bb2d 913e 621d e53e
00000330: fe42 7a3e 07bd 893d 8651 33bf 93bf 603e
00000340: 8ba2 ba40 552f d940 6349 f93e 21c3 943f
00000350: 7f7b a5bd ef6d 9fc1 50df 8d3b e4ed 693d
00000360: 6432 6bc1 ddef 7fc1 4c8d 1041 f32d a540
00000370: feeb 393f b921 863f 9ee3 b13f e56f 2f3e
00000380: 71bd 7ec1 0eaa 973f b2af 963f 96e7 2d41
00000390: adb3 b840 70df 0241 f4d1 82c1 0291 bc3e
000003a0: 2785 543d 7abb 87c1 9ddd d040 8b0b 72c1
000003b0: 72e9 77be d295 153f 86ca 85c1 f175 0441
000003c0: bf34 293f dd45 7d3e 12fd 9bc1 e9ba d33e
000003d0: ff89 eebd a6ec c2bd a4c0 81c1 5353 533f
000003e0: 35d6 3b41 a1ba fa40 80e7 91c1 8094 283b
000003f0: 338f a4c0 4579 9a3f d062 e2bd 8989 ef3c

fc2.bias f4 [256]
0.23839411 0.906871 -0.10140809 1.6244723 11.533442 -0.083700046 0.6662462 1.6906896
-0.0755591 1.6633106 0.29102388 1.322301 -0.021074317 -0.007355606 -0.0173298 -0.010760806
0.7462114 0.01731793 11.475909 -0.10945665 0.28807914 -0.086826645 11.161164 1.2307262
1.2305666 6.613288 9.313148 1.3157096 0.5685893 0.0072451164 -0.023457827 -0.023205554
-0.085736625 1.0473458 1.0948744 10.616186 7.4760756 1.3474615 0.71345747 1.1735722
0.41832954 1.0603719 -0.068878874 -0.07806831 -0.0072613447 10.165288 -0.019088693 1.1301022
-0.0035442694 0.46217704 0.008516653 -0.3168712 -0.014900964 10.812236 -0.0224039 -0.111605465
-0.14781485 -0.07636059 -0.06511972 -0.006417426 1.2106425 -0.01314871 -0.051714778 0.69261134
0.036387123 -0.08419676 -0.040183738 -0.019871056 -0.082428195 -0.037090987 -0.07857691 -0.03857351
-0.025216468 -0.025157383 -0.08996875 -0.11004612 10.490077 -0.13242927 -0.017097406 11.547396
10.922295 -0.06586445 -0.11348183 -0.088829614 10.090543 1.307127 1.5082108 0.89338386
1.3084325 -0.07847963 -0.050223567 9.966057 -0.0057353843 -0.049986232 1.1689527 1.5719501
-0.08756276 -0.030147165 0.5518489 0.49970296 -0.088688456 -0.1516128 1.2364454 8.959686
-0.09609357 -0.055997923 1.2713472 0.79417396 -0.07452313 10.40936 1.1345693 0.95591426
10.403284 -0.06047891 1.1753217 10.260128 0.91736555 0.14039272 11.342107 1.5130409
0.69229656 -0.030875124 1.4690768 -0.06566073 -0.011972649 0.6392204 0.5951648 0.5323482
-0.03548756 0.023718253 0.0011437126 0.2303224 0.9069384 12.082498 -0.101142876 1.1860142
-0.0022858405 -0.08662259 1.7020508 0.847801 1.4809495 0.69535583 -0.043088023 -0.073636025
10.91519 0.38603762 -0.093130894 0.89357966 1.2062675 -0.122934796 -0.0051465207 -0.013067921
1.0976193 -0.42166233 7.674419 1.2795919 1.0844373 -0.057660565 -0.049045406 -0.0566916
0.021102127 0.8149109 10.787181 -0.10790206 -0.05046253 0.6728066 0.67476875 0.09628002
10.738408 0.013768572 -0.06166105 -0.118650846 0.97298574 10.951699 0.028699959 11.544267
0.76316124 0.99770904 -0.043652438 -0.24440344 1.1901314 1.0408715 10.90342 0.83894074
-0.1157536 0.43629858 0.74156326 -0.08609556 -0.086798854 11.034611 -0.05175139 9.889584
11.356052 -0.09075853 -0.02880147 1.530516 -0.03414277 1.4880544 -0.13440876 10.662629
0.83531225 1.3438063 -0.074648194 10.302798 1.0333287 -0.087845735 -0.008246755 -0.07250764
-0.060193013 -0.03603381 -0.0099297855 11.654097 0.28757438 -0.013285837 0.71020037 0.40396374
-0.038227573 -0.050601356 -0.09698116 8.996035 -0.046062764 0.761105 9.979166 -0.06249654
10.813607 1.3204583 -0.37370864 11.506875 0.8678249 7.3209352 10.569919 -0.02952532
10.878389 -0.08159036 -0.08768525 1.1905375 0.02707619 11.455213 0.7473891 -0.04357452
-0.11474936 -0.021025768 -0.114333436 1.0954068 9.854272 -0.23490682 -0.061436515 -0.0672564
1.022348 -0.09117963 -0.13152054 9.441437 1.7032479 -0.07124836 0.4472048 -0.05550515
00000000: 961d 743e b328 683f 0baf cfbd b5ee cf3f
00000010: fa88 3841 ee6a abbd 1c8f 2a3f 8468 d83f
00000020: bbbe 9abd 5de7 d43f 1501 953e 2941 a93f
00000030: 0ca4 acbc 4c07 f1bb 3af7 8dbc 174e 30bc
00000040: b607 3f3f 55de 8d3c 539d 3741 cf2a e0bd
00000050: 1c7f 933e 2bd2 b1bd 2194 3241 7088 9d3f
00000060: 3583 9d3f 0ea0 d340 a702 1541 2c69 a83f
00000070: 128f 113f 7168 ed3b a12a c0bc 9319 bebc
00000080: af96 afbd 6d0f 863f d824 8c3f e6db 2941
00000090: 033c ef40 9e79 ac3f 26a5 363f 9d37 963f
000000a0: 4a2f d63e 44ba 873f 5e10 8dbd 47e2 9fbd
000000b0: 93f0 edbb 05a5 2241 e45f 9cbc 30a7 903f
000000c0: f946 68bb 78a2 ec3e 6f89 0b3c f13c a2be
000000d0: 2c23 74bc ebfe 2c41 6288 b7bc 6891 e4bd
000000e0: c75c 17be f162 9cbd 7d5d 85bd 4549 d2bb
000000f0: 55f6 9a3f b06d 57bc e0d2 53bd fa4e 313f
00000100: aa0a 153d 5a6f acbd b497 24bd a0c8 a2bc
00000110: 1dd0 a8bd b8ec 17bd eeec a0bd 42ff 1dbd
00000120: c492 cebc db16 cebc 8941 b8bd dc5f e1bd
00000130: 5bd7 2741 8a9b 07be dc0f 8cbc 22c2 3841
00000140: b8c1 2e41 f1e3 86bd 2969 e8bd 4dec b5bd
00000150: dd72 2141 f04f a73f 0d0d c13f ceb4 643f
00000160: b77a a73f eeb9 a0bd 3ab7 4dbd f874 1f41
00000170: e4ef bbbb 5dbe 4cbd 3ea0 953f a935 c93f
00000180: 1b54 b3bd 30f7 f6bc f845 0d3f 11d9 ff3e
00000190: 4ba2 b5bd 6340 1bbe d843 9e3f e05a 0f41
000001a0: b5cc c4bd 145e 65bd 81bb a23f fc4e 4b3f
000001b0: 959f 98bd bd8c 2641 9139 913f ccb6 743f
000001c0: da73 2641 bcb8 77bd f170 963f 7c29 2441
000001d0: 78d8 6a3f 1cc3 0f3e 4579 3541 53ab c13f
000001e0: 593a 313f d4ed fcbc b50a bc3f 2279 86bd
000001f0: ee28 44bc f3a3 233f b85c 183f f947 083f
00000200: 675b 11bd c84c c23c a0e8 953a a3d9 6b3e
00000210: 1d2d 683f e951 4141 ff23 cfbd 50cf 973f
00000220: 0ace 15bb 2f67 b1bd cddc d93f 7d09 593f
00000230: c18f bd3f d702 323f 117d 30bd 7cce 96bd
00000240: 9ea4 2e41 b9a6 c53e 69bb bebd a3c1 643f
00000250: f966 9a3f 3dc5 fbbd 25a4 a8bb d51a 56bc
00000260: ca7e 8c3f 20e4 d7be d794 f540 abc9 a33f
00000270: d7ce 8a3f 7c2d 6cbd d6e3 48bd 7335 68bd
00000280: 5ede ac3c 009e 503f 4b98 2c41 c1fb dcbd
00000290: ccb1 4ebd 0e3d 2c3f a5bd 2c3f 762e c53d
000002a0: 85d0 2b41 9495 613c 4c90 7cbd 37ff f2bd
000002b0: 9815 793f 293a 2f41 2d1c eb3c 51b5 3841
000002c0: 895e 433f dc69 7f3f e6cc 32bd e544 7abe
000002d0: 3a56 983f 473b 853f 6974 2e41 d2c4 563f
000002e0: 3910 edbd 8762 df3e 17d7 3d3f de52 b0bd
000002f0: 99c3 b1bd c48d 3041 44f9 53bd bc3b 1e41
00000300: 64b2 3541 9cdf b9bd 0ff1 ebbc f3e7 c33f
00000310: 4ad9 0bbd 9178 be3f 73a2 09be 219a 2a41
00000320: 06d7 553f d801 ac3f 27e1 98bd 43d8 2441
00000330: 1d44 843f 77e8 b3bd 661d 07bc e37e 94bd
00000340: f38c 76bd 3098 13bd 8ab0 22bc 2e77 3a41
00000350: f33c 933e d7ac 59bc b1cf 353f 56d4 ce3e
00000360: 8494 1cbd 5e43 4fbd 0f9e c6bd c2ef 0f41
00000370: 4fac 3cbd c7d7 423f aaaa 1f41 5ffc 7fbd
00000380: 8904 2d41 c704 a93f bd56 bfbe 291c 3841
00000390: c629 5e3f 1a45 ea40 631e 2941 15df f1bc
000003a0: e20d 2e41 d918 a7bd 5394 b3bd 8863 983f
000003b0: e3ce dd3c 8d48 3741 e454 3f3f 327b 32bd
000003c0: b601 ebbd 3b3e acbc a627 eabd 4a36 8c3f
000003d0: 19ab 1d41 6a8b 70be dba4 7bbd b9bd 89bd
000003e0: 4ddc 823f 63bc babd 52ad 06be 2010 1741
000003f0: 0704 da3f a9ea 91bd 07f8 e43e 5e59 63bd

fc3.weight f4 [256, 256]
0.0012979346 0.047715683 0.025447462 -0.00355339 0.018917914 0.04327502 -0.010484945 -0.013415122
0.008298591 -0.017964084 -0.025745727 -0.0057719913 0.022785697 0.05447688 -0.038055345 -0.027260222
-0.037240684 -0.040911607 -0.0777133 0.023017604 -0.048490684 -0.023689829 -0.08993713 -0.052129075
-0.026865188 0.0039570904 -0.061735183 0.024025492 -0.044061977 -0.059593823 -0.053956576 0.055951953
0.03321995 -0.055737372 -0.054521207 -0.0355056 -0.035430923 0.011269979 0.031004747 -0.03728226
-0.045500398 -0.006878849 0.04287615 0.006200624 0.0554286 -0.07462867 -0.04623983 -0.021378713
-0.012602425 -0.021480853 -0.008499876 0.05220305 0.045061864 -0.041097388 -0.056310765 -0.015781164
-0.060531616 0.03218408 0.03558127 -0.044823244 -0.041113146 0.02921822 -0.05977516 0.026957728
-0.018790863 -0.031971052 0.04144816 -0.015457697 -0.030442005 0.05013655 -0.043189872 0.022130132
-0.017834269 0.052821577 -0.03955005 0.051028688 0.031496316 0.028134286 -0.0047347695 -0.05987281
-0.05331102 -0.004159145 0.047611162 -0.060584508 -0.041681565 0.02206177 0.0077907057 0.00030367624
0.009981336 -0.028818429 -0.005803399 -0.034007635 -0.046295606 0.00038871422 -0.04770241 0.0007595555
0.046958588 -0.041954383 0.0033584686 0.0201588 -0.047399342 0.050890006 -0.00012611198 -0.0017955154
-0.025565147 -0.009350278 -0.0704121 0.05011781 -0.029746242 -0.02232704 -0.0011096695 -0.07965397
-0.037569523 -0.019140936 -0.031354807 0.040390864 -0.07171101 0.023204394 -0.086601235 -0.030505313
0.031007418 0.0240779 0.0006100667 0.004724294 0.048074946 0.026872737 0.0114052845 0.025502736
0.006825216 -0.020710032 0.02450316 -0.0024769027 0.021990014 -0.027890056 -0.041438334 0.03210302
0.017555121 -0.030142225 -0.031557117 -0.05962665 0.02839776 -0.0016202703 -0.0079519525 0.049434
0.011460021 -0.045226574 0.012205872 -0.06206761 0.025612874 -0.001609534 0.015306331 0.03903631
-0.025450826 -0.013889502 0.006745627 -0.0051858174 0.0025683844 -0.052948162 -0.049459554 -0.044155635
0.01780513 0.003801525 0.013109103 0.015549618 0.012487754 0.02265416 -0.030677805 -0.07585015
0.0012240633 -0.016814739 -0.034357086 -0.00952632 -0.038682405 -0.009515143 -0.05022356 0.025950989
-0.057800736 -0.024666548 0.034805447 -0.03472268 -0.078613564 -0.043030392 -0.022754211 0.03298222
0.013715245 -0.01507174 -0.05860876 0.013689131 0.014730193 -0.116328865 -0.019176515 0.014939321
0.0339506 0.04486645 -0.0042312816 0.039354812 0.03724071 -0.062131718 0.012685797 -0.07104277
0.018080657 0.022038532 -0.011920996 -0.08841476 -0.050698776 -0.04026015 0.014732164 0.017816022
-0.0034437403 -0.052871056 0.046380073 -0.0030710048 -0.067741446 0.041315198 -0.059337866 -0.06730667
-0.039432436 0.0016998748 0.009120084 -0.04940771 -0.008542753 0.010710643 -0.024703741 -0.03220541
0.012378699 -0.054043226 -0.030724967 -0.022420634 0.026898455 -0.076835275 -0.03564512 -0.034099758
0.006839758 0.029176308 -0.02863323 0.029152904 0.044627346 0.04928337 -0.027026571 0.042761616
0.003932269 0.012467027 0.03839077 0.03222535 0.023563867 0.0053629354 -0.025269598 0.0253523
-0.039858643 0.050472863 0.013127719 -0.034392707 0.046652164 -0.0054860413 -0.07790615 -0.034070887
00000000: 751f aa3a 8571 433d 3277 d03c fedf 68bb
00000010: bef9 9a3c 2641 313d 0cc9 2bbc 1acb 5bbc
00000020: d0f6 073c 6a29 93bc b4e8 d2bc f922 bdbb
00000030: 12a9 ba3c 2623 5f3d ecdf 1bbd d450 dfbc
00000040: b089 18bd ee92 27bd 2728 9fbd 6a8f bc3c
00000050: 2b9e 46bd 2c11 c2bc f530 b8bd 4c85 55bd
00000060: 6214 dcbc 7baa 813b 08de 7cbd 1cd1 c43c
00000070: 557a 34bd a718 74bd 9201 5dbd e02d 653d
00000080: a411 083d df4c 64bd a151 5fbd 526e 11bd
00000090: 0420 11bd b8a5 383c abfd fd3c 48b5 18bd
000000a0: a05e 3abd f867 e1bb e79e 2f3d 9b2e cb3b
000000b0: 1a09 633d ebd6 98bd fa65 3dbd 6922 afbc
000000c0: 677a 4ebc 9df8 afbc 1043 0bbc ded2 553d
000000d0: ca92 383d bc55 28bd 1ea6 66bd 8047 81bc
000000e0: 00f0 77bd 74d3 033d aabd 113d 9498 37bd
000000f0: 4266 28bd 0c5b ef3c ccd6 74bd 74d6 dc3c
00000100: 4cef 99bc 14f4 02bd 8cc5 293d 4842 7dbc
00000110: 8361 f9bc fc5b 4d3d dde7 30bd 404a b53c
00000120: 2c19 92bc 705b 583d 3cff 21bd 7503 513d
00000130: 4802 013d e079 e63c 2026 9bbb 313d 75bd
00000140: a85c 5abd 7049 88bb ec03 433d 7627 78bd
00000150: 4aba 2abd e3ba b43c 2d49 ff3b bc36 9f39
00000160: c288 233c a014 ecbc 702a bebb 974b 0bbd
00000170: 76a0 3dbd 57cc cb39 9a63 43bd e81c 473a
00000180: a657 403d 5cd8 2bbd c119 5c3b 1124 a53c
00000190: d025 42bd 0a72 503d ed3c 04b9 8057 ebba
000001a0: 006e d1bc e931 19bc 3834 90bd 5548 4d3d
000001b0: 64ae f3bc 32e7 b6bc 5472 91ba 9f21 a3bd
000001c0: 80e2 19bd 74cd 9cbc e66d 00bd e470 253d
000001d0: 39dd 92bd 2417 be3c fd5b b1bd 47e6 f9bc
000001e0: 4503 fe3c 043f c53c e2ec 1f3a 40ce 9a3b
000001f0: 3cea 443d 3724 dc3c 3bdd 3a3c 1deb d03c
00000200: 10a6 df3b 16a8 a9bc daba c83c 8853 22bb
00000210: 6724 b43c b079 e4bc 3ebb 29bd 757e 033d
00000220: c2cf 8f3c d4ec f6bc 0942 01bd 133b 74bd
00000230: 6ba2 e83c 405f d4ba e848 02bc 4e7b 4a3d
00000240: d0c2 3b3c 803f 39bd 23fb 473c 9b3a 7ebd
00000250: 17d2 d13c 00f7 d2ba 68c7 7a3c 8ae4 1f3d
00000260: 407e d0bc cb90 63bc 6c0a dd3b caed a9bb
00000270: 5752 283b 2ce0 58bd 1a96 4abd 8adc 34bd
00000280: 10dc 913c 0223 793b 90c7 563c d3c3 7e3c
00000290: 7099 4c3c 3895 b93c 0550 fbbc 5357 9bbd
000002a0: c070 a03a 10bf 89bc 04ba 0cbd 4814 1cbc
000002b0: 7171 1ebd 67e5 1bbc 38b7 4dbd 2b97 d43c
000002c0: 77c0 6cbd 8011 cabc 2890 0e3d 5e39 0ebd
000002d0: 2600 a1bd a340 30bd 0a67 babc 5d18 073d
000002e0: e8b5 603c 76ef 76bc bd0f 70bd 6048 603c
000002f0: e856 713c d43d eebd 1118 9dbc 0ec4 743c
00000300: c90f 0b3d e2c5 373d 90a6 8abb 8332 213d
00000310: b789 183d d47d 7ebd 17d8 4f3c df7e 91bd
00000320: e31d 943c 278a b43c 4850 43bc cc12 b5bd
00000330: 85a9 4fbd d4e7 24bd 2d5f 713c e8f2 913c
00000340: 60b0 61bb 528f 58bd 08f9 3d3d e942 49bb
00000350: 07bc 8abd 203a 293d 430c 73bd 14d8 89bd
00000360: e883 21bd 55ce de3a 686c 153c bd5f 4abd
00000370: e7f6 0bbc b17b 2f3c 805f cabc d2e9 03bd
00000380: 07d0 4a3c 6e5c 5dbd edb2 fbbc 7aab b7bc
00000390: 265a dc3c d05b 9dbd 9e00 12bd 30ac 0bbd
000003a0: 0c20 e03b 2703 ef3c 3c90 eabc 12d2 ee3c
000003b0: 2acb 363d 5cdd 493d d466 ddbc ce26 2f3d
000003c0: 43da 803b 8042 4c3c a43f 1d3d bbfe 033d
000003d0: 0309 c13c 90bb af3b 3002 cfbc a0af cf3c
000003e0: d142 23bd a2bc 4e3d a515 573c 5edf 0cbd
000003f0: 5716 3f3d 40c4 b3bb 428d 9fbd ea8d 0bbd

fc3.bias f4 [256]
-0.04677881 -0.411123 1.4769266 10.53615 -0.12072505 -0.06764947 0.03804781 11.239417
0.049508713 10.516426 -0.31092128 11.0148535 -0.014816481 0.7426335 11.344791 0.6959357
-0.055663705 -0.021738078 -0.34987223 1.1537123 0.05013165 0.41735098 -0.13474666 10.10719
0.8538535 -0.08471519 -0.035155747 -0.03583192 10.110358 -0.09570765 0.4831384 1.2655375
-0.18337476 10.716945 8.982183 10.514978 10.455926 -0.06478866 -0.067897715 -0.7540166
0.8683695 11.408853 -0.08264566 1.0546389 11.164817 11.747185 -0.089574404 10.868998
10.882374 -0.029321669 -0.007276214 -0.326463 -0.06626118 -0.032588582 -0.5470754 9.065913
-0.17048271 -0.070126146 10.073615 -0.008986362 -0.42287198 9.189156 0.003344383 -0.026177565
-0.070427634 -0.052927513 -0.07310178 11.447484 11.461926 9.630772 10.769805 10.25841
1.1104989 1.3129724 -0.12122733 0.0021485635 10.315453 7.6847 -0.050436065 -0.041557748
9.923783 1.7062428 -0.015773227 -0.010150844 11.740742 0.80057204 0.023704076 -0.09884118
-0.72285044 0.7412626 9.178531 10.196413 -0.0393456 8.406175 10.965304 -0.007040945
-0.02487812 1.7063228 0.9306835 11.405439 6.329092 -0.03376819 1.0400057 10.685958
10.087522 0.51396334 -0.042853888 8.812404 -0.024635524 -0.070991054 -0.120141655 10.948789
0.8751686 -0.048381705 -0.06896106 -0.10690594 0.8661261 0.97003543 1.4327468 10.790362
1.6978713 0.016788889 -0.024079507 11.061344 -0.058232985 1.1399115 -0.09388348 10.862802
10.174188 10.4063635 -0.5149767 -0.0647248 -0.015456176 9.947443 -0.028508617 -0.5528053
-0.087400205 -0.04038441 11.011567 1.5989434 1.6456854 -0.01212569 9.155569 11.065916
1.049159 -0.100689985 10.927709 -0.07434905 -0.19132477 9.900479 -0.6207621 1.2039036
-0.043929316 -0.03319091 -0.097222336 -0.057512145 -0.09266704 0.75193834 1.6942028 -0.030566007
0.82214725 5.2660637 0.6774128 9.758827 9.250318 1.2113731 11.144206 1.3585291
1.1917125 8.414922 10.752833 11.468924 -0.55996454 -0.06732047 9.518718 0.6802135
11.265202 -0.08074736 -0.11197948 -0.10307507 10.590966 9.336134 0.14061905 -0.03210914
10.418982 0.7012564 -0.0151119735 0.37142977 -0.12091868 -0.05206029 11.442489 1.568615
0.99924254 0.017572103 9.714907 8.24328 0.81361663 8.243202 10.797214 11.2619
0.00054202677 0.31894246 10.611595 9.327012 1.1907171 1.1100191 -0.04815961 10.582163
0.46811923 -0.12032231 -0.028720679 10.63716 11.141039 1.0475985 10.848237 -0.019640537
1.3787527 0.8144483 10.378064 0.13845545 -0.04591277 8.488612 1.1786591 1.1434397
-0.19221939 0.6549705 1.169548 -0.096726 -0.07196819 10.851246 10.681271 -0.007090795
-0.15546219 1.2615653 10.115299 1.2486614 -0.22981746 0.51395786 11.481831 -0.054210737
-0.10539888 -0.09482101 9.580915 10.568197 -0.19268553 8.751623 8.437147 0.02275303
11.4052105 11.418168 8.884454 1.0151421 -0.9199717 -0.12042072 11.090827 10.214738
00000000: 239b 3fbd b77e d2be ee0b bd3f 1294 2841
00000010: b23e f7bd ce8b 8abd 05d8 1b3d a7d4 3341
00000020: a6c9 4a3d 4843 2841 1331 9fbe d73c 3041
00000030: d3c0 72bc 3b1d 3e3f 4484 3541 d828 323f
00000040: a0ff 63bd 0e14 b2bc 7422 b3be d8ac 933f
00000050: d856 4d3d 07af d53e 07fb 09be 0db7 2141
00000060: 2596 5a3f 287f adbd 79ff 0fbd 7ec4 12bd
00000070: 07c4 2141 5f02 c4bd eb5d f73e 22fd a13f
00000080: 98c6 3bbe 9b78 2b41 06b7 0f41 5a3d 2841
00000090: 794b 2741 ebaf 84bd f50d 8bbd 3b07 41bf
000000a0: 774d 5e3f a98a 3641 2142 a9bd 68fe 863f
000000b0: 17a3 3241 78f4 3b41 c972 b7bd 6ae7 2d41
000000c0: 341e 2e41 ff33 f0bc 4f6d eebb 2926 a7be
000000d0: f1b3 87bd 9b7b 05bd 220d 0cbf fb0d 1141
000000e0: 0593 2ebe 4c9e 8fbd 872d 2141 893b 13bc
000000f0: ad82 d8be c806 1341 702d 5b3b 5572 d6bc
00000100: 5d3c 90bd 85ca 58bd 63b6 95bd e528 3741
00000110: 0d64 3741 a417 1a41 1f51 2c41 7322 2441
00000120: d424 8e3f 7b0f a83f 0946 f8bd eace 0c3b
00000130: 180c 2541 10e9 f540 0c96 4ebd 7538 2abd
00000140: d1c7 1e41 2a66 da3f db36 81bc ba4f 26bc
00000150: 14da 3b41 4af2 4c3f 0d2f c23c 3f6d cabd
00000160: ba0c 39bf 63c3 3d3f 43db 1241 8224 2341
00000170: da28 21bd b17f 0641 e371 2f41 bab7 e6bb
00000180: 33cd cbbc c968 da3f 4641 6e3f ae7c 3641
00000190: ec87 ca40 8350 0abd e81e 853f aff9 2a41
000001a0: 7d66 2141 1a93 033f 8f87 2fbd 9bff 0c41
000001b0: 70d0 c9bc c263 91bd d40c f6bd 3d2e 2f41
000001c0: 0d0b 603f e52b 46bd 753b 8dbd 80f1 dabd
000001d0: 71ba 5d3f 3e54 783f 3f64 b73f 53a5 2c41
000001e0: d953 d93f da88 893c 6342 c5bc 44fb 3041
000001f0: b685 6ebd 9fe8 913f fb45 c0bd 09ce 2d41
00000200: 79c9 2241 7780 2641 83d5 03bf 708e 84bd
00000210: e73b 7dbc ba28 1f41 e78a e9bc a684 0dbf
00000220: e1fe b2bd 206a 25bd 612f 3041 2daa cc3f
00000230: d2a5 d23f d4aa 46bc 367d 1241 fe0d 3141
00000240: d84a 863f 8d36 cebd e5d7 2e41 5144 98bd
00000250: a4ea 43be 5d68 1e41 44ea 1ebf 8319 9a3f
00000260: 3aef 33bd 31f3 07bd 811c c7bd db91 6bbd
00000270: 38c8 bdbd 087f 403f a3db d83f 9065 fabc
00000280: 3e78 523f 9883 a840 ed6a 2d3f 2824 1c41
00000290: 4d01 1441 460e 9b3f ab4e 3241 48e4 ad3f
000002a0: 098a 983f 85a3 0641 9b0b 2c41 b680 3741
000002b0: d659 0fbf 51df 89bd ab4c 1841 7922 2e3f
000002c0: 443e 3441 df5e a5bd 7f55 e5bd 0619 d3bd
000002d0: 9974 2941 ce60 1541 71fe 0f3e e084 03bd
000002e0: 26b4 2641 8a85 333f 3698 77bc 0b2c be3e
000002f0: 37a4 f7bd 2c3d 55bd 6f14 3741 60c8 c83f
00000300: 5cce 7f3f 5ff3 8f3c 4270 1b41 7ae4 0341
00000310: 2e49 503f 28e4 0341 63c1 2c41 be30 3441
00000320: cd16 0e3a 6d4c a33e 18c9 2941 713b 1541
00000330: 6b69 983f 1b15 8e3f 0343 45bd 8a50 2941
00000340: 53ad ef3e 8b6b f6bd a147 ebbc cf31 2a41
00000350: b241 3241 b517 863f 6192 2d41 31e5 a0bc
00000360: f87a b03f af7f 503f 8d0c 2641 44c7 0d3e
00000370: 070f 3cbd 5bd1 0741 4dde 963f 3b5c 923f
00000380: 29d5 44be 26ac 273f c0b3 953f 4818 c6bd
00000390: 0f64 93bd b49e 2d41 7ce6 2a41 e659 e8bb
000003a0: 7b31 1fbe f97a a13f 44d8 2141 23d4 9f3f
000003b0: 4555 6bbe be92 033f 94b5 3741 140c 5ebd
000003c0: 5edb d7bd 8531 c2bd 6e4b 1941 5617 2941
000003d0: 5b4f 45be a606 0c41 8efe 0641 9064 ba3c
000003e0: be7b 3641 d1b0 3641 b926 0e41 2df0 813f
000003f0: 4483 6bbf 239f f6bd 0774 3141 916f 2341

fc4.weight f4 [5, 256]
0.026186993 1.3055711 -12.832175 10.762856 -2.8509717 0.0073095057 -0.005660553 9.293703
0.04966675 9.405705 0.824744 14.170077 0.04004713 -1.7008767 9.708762 -10.597077
-0.0543805 0.019117326 2.0679057 -4.0565786 0.055773336 -1.9511502 -0.03487749 10.85875
-4.0832415 0.02796359 -0.01712559 -0.037896838 11.26189 0.023691311 -9.725221 -7.0455995
-0.22534181 12.28849 2.7191885 10.645701 10.422691 -0.012979758 0.019335339 -0.32822186
-9.412987 8.185457 0.01728214 -2.411476 11.270407 9.740033 0.011126813 10.835386
10.248403 -0.041704413 -0.030407986 -0.707961 -0.008491373 0.0019285922 1.0272115 2.7126079
-0.031284526 0.041074876 6.5628595 0.04620379 1.2477556 9.615315 0.011644191 0.0005474977
0.04611165 -0.011555463 0.022371823 13.082703 10.437808 16.560345 13.10742 15.734543
-4.007447 -10.896391 0.009146689 -3.9624956 15.481139 11.10419 0.032938525 0.012707514
9.930412 -11.111278 -0.045482054 -0.0398921 9.676721 -8.140756 -0.07395362 -0.050460815
-3.7280018 -1.344571 15.58556 9.764484 -0.042193122 12.146053 11.027501 0.05398155
-0.017065456 -9.073724 -1.4688745 10.474061 13.432146 0.003907312 -5.526451 14.611327
8.134806 -2.919791 0.044892937 9.728976 0.024646066 -0.027003186 0.06763411 11.227064
-6.940867 -0.06271224 0.014057377 -0.100725316 -2.8592496 -3.6138206 -8.985846 7.899182
-10.553561 0.0015383288 0.025145525 9.101552 0.020087495 -2.8514717 0.0075127697 9.8231325
11.873848 12.017807 1.4845299 0.015899286 -0.04570651 13.572366 0.016130669 0.17812525
-0.030888103 0.22524433 11.660209 -7.31895 -9.083227 -0.008840295 9.62666 9.500142
-4.794896 -0.08943496 11.20351 -0.05261585 -2.5820792 15.20462 1.2271143 -6.4567313
0.043910135 0.021032417 -0.05145233 0.021746354 0.03732514 -2.9371502 -8.620389 -0.016397176
-4.818494 -0.16843185 -9.864862 13.396914 12.545931 -9.245877 10.374526 -7.326323
-10.999669 12.709839 11.1921 8.548243 0.094499886 0.014332974 10.482319 -10.883633
11.085973 0.03658287 0.03535162 0.53727514 11.871084 11.689677 -4.7604394 -0.008697262
11.345717 -8.236999 0.04623264 -0.19463427 0.0050639114 0.019634992 9.760343 0.33012924
-4.521681 0.047001846 9.622373 12.315812 -10.672558 2.5366547 11.844452 9.509607
0.04472339 -0.012923835 10.948712 7.569147 0.056555893 -0.79615355 -0.035619896 13.405375
4.6299787 -0.06169376 0.08414106 13.90086 7.7815247 -9.667835 9.513841 0.021508561
-6.7683096 -9.665815 15.814416 -5.538978 -0.011361339 7.4355593 -5.1520176 -3.2949274
1.1657014 -9.932577 -4.0736575 0.028515998 -0.023594234 12.732461 16.51835 -0.023997864
-2.4317894 -4.685587 10.394506 -4.4644036 0.65355194 -1.5620497 9.514066 0.016563693
0.0147580365 0.019043764 12.567225 9.872894 0.09817772 2.3961265 1.8856071 0.04378182
12.988828 8.271861 11.020903 -2.8704093 1.8344122 0.02300493 10.916471 7.010787
00000000: 1b86 d63c f41c a73f 9750 4dc1 a834 2c41
00000010: 5276 36c0 9484 ef3b 297c b9bb 02b3 1441
00000020: 5d6f 4b3d c57d 1641 6c22 533f a3b8 6241
00000030: 7608 243d 54b6 d9bf 1757 1b41 a18d 29c1
00000040: 16be 5ebd f09b 9c3c 9158 0440 7ecf 81c0
00000050: 9572 643d 4abf f9bf b3db 0ebd 71bd 2d41
00000060: eaa9 82c0 e613 e53c f74a 8cbc b739 1bbd
00000070: b430 3441 4814 c23c 819a 1bc1 8d75 e1c0
00000080: 01c0 66be a89d 4441 2f07 2e40 cb54 2a41
00000090: 58c3 2641 0da9 54bc 2565 9e3c b20c a8be
000000a0: 989b 16c1 a2f7 0241 4693 8d3c 9f55 1ac0
000000b0: 9653 3441 2dd7 1b41 3c4d 363c be5d 2d41
000000c0: 75f9 2341 3fd2 2abd 2b1a f9bc ef3c 35bf
000000d0: 661f 0bbc d1c8 fc3a ab7b 833f 5e9b 2d40
000000e0: 3424 00bd 213e 283d f202 d240 2f40 3d3d
000000f0: 75b6 9f3f 55d8 1941 47c7 3e3c f385 0f3a
00000100: 92df 3c3d 2053 3dbc 1d45 b73c c052 5141
00000110: 4301 2741 967b 8441 feb7 5141 b0c0 7b41
00000120: 013d 80c0 9e57 2ec1 ffdb 153c 8799 7dc0
00000130: bfb2 7741 c3aa 3141 8cea 063d 2d33 503c
00000140: f8e2 1e41 cbc7 31c1 644b 3abd e665 23bd
00000150: d9d3 1a41 8940 02c1 ff74 97bd 00b0 4ebd
00000160: 9597 6ec0 e71a acbf 745e 7941 543b 1c41
00000170: b2d2 2cbd 3c56 4241 a570 3041 c21b 5d3d
00000180: dbcc 8bbc f92d 11c1 1404 bcbf c195 2741
00000190: 12ea 5641 e908 803b b0d8 b0c0 ffc7 6941
000001a0: 2a28 0241 dbdd 3ac0 a8e1 373d e3a9 1b41
000001b0: 8ce6 c93c c935 ddbc c183 8a3d 0ea2 3341
000001c0: 951b dec0 466f 80bd ea50 663c 1349 cebd
000001d0: f2fd 36c0 d648 67c0 06c6 0fc1 19c6 fc40
000001e0: 63db 28c1 c0a1 c93a fdfd cd3c f59f 1141
000001f0: 888e a43c 837e 36c0 ae2d f63b 8d2b 1d41
00000200: 48fb 3d41 f048 4041 1305 be3f 383f 823c
00000210: c036 3bbd 6928 5941 7724 843c 7766 363e
00000220: 0c09 fdbc 73a6 663e 3790 3a41 d734 eac0
00000230: e654 11c1 e2d6 10bc cd06 1a41 9500 1841
00000240: ca6f 99c0 ad29 b7bd 9441 3341 b883 57bd
00000250: c940 25c0 2046 7341 1512 9d3f 8b9d cec0
00000260: 1ddb 333d 2d4c ac3c aebf 52bd 6925 b23c
00000270: 3fe2 183d 45fa 3bc0 1ded 09c1 5f53 86bc
00000280: 1a31 9ac0 6679 2cbe 7ad6 1dc1 c259 5641
00000290: 22bc 4841 1def 13c1 0ffe 2541 3d71 eac0
000002a0: a5fe 2fc1 805b 4b41 d712 3341 9ac5 0841
000002b0: 2889 c13d dad4 6a3c 94b7 2741 5c23 2ec1
000002c0: 2560 3141 ebd7 153d dccc 103d dd8a 093f
000002d0: f6ef 3d41 eb08 3b41 8555 98c0 f67e 0ebc
000002e0: 0f88 3541 bfca 03c1 705e 3d3d 354e 47be
000002f0: 2bef a53b 90d9 a03c 5d2a 1c41 b306 a93e
00000300: 9cb1 90c0 0285 403d 3df5 1941 910d 4541
00000310: ccc2 2ac1 8d58 2240 e082 3d41 5a27 1841
00000320: e02f 373d 7ebe 53bc ed2d 2f41 7436 f240
00000330: 27a7 673d b8d0 4bbf 2be6 11bd 6a7c 5641
00000340: c928 9440 99b2 7cbd 2652 ac3d ec69 5e41
00000350: 4002 f940 74af 1ac1 b138 1841 b932 b03c
00000360: fe95 d8c0 2ea7 1ac1 d907 7d41 4f3f b1c0
00000370: e924 3abc 1af0 ed40 54dd a4c0 17e0 52c0
00000380: b435 953f d6eb 1ec1 675b 82c0 629a e93c
00000390: b248 c1bc 29b8 4b41 9525 8441 2b97 c4bc
000003a0: 70a2 1bc0 54f0 95c0 e64f 2641 65dc 8ec0
000003b0: 2e4f 273f 3ff1 c7bf 9d39 1841 95b0 873c
000003c0: b1cb 713c ab01 9c3c 5b13 4941 60f7 1d41
000003d0: 6711 c93d 235a 1940 935b f13f 9154 333d
000003e0: 3dd2 4f41 8b59 0441 9e55 3041 c9b4 37c0
000003f0: 05ce ea3f d674 bc3c dda9 2e41 5e58 e040

fc4.bias f4 [5]
7.010952 9.106988 7.779787 8.411889 5.876554
00000000: b859 e040 39b6 1141 04f4 f840 1997 0641
00000010: bb0c bc40
