weights/ez_map_Q.pt (torch, 142412 bytes, 8 tensors)

fc1.weight f4 [128, 8]
000000 5c ff 04 3e 74 e0 88 be d1 e7 83 3e a8 33 f2 bd
       0.12988037 -0.26733744 0.257628 -0.11826259
000010 b5 74 a5 bd e0 c2 af bd 48 49 93 3e 26 78 36 bd
       -0.08078901 -0.08582091 0.28766847 -0.044548176
000020 4e b7 bb 3d 74 46 92 be d1 58 1e 3e 50 4d 60 3d
       0.09165822 -0.28569376 0.15463568 0.05476123
000030 a2 40 83 3e ea b8 86 bd 7e 90 ef bd 38 0e 9e 3d
       0.25635248 -0.06578238 -0.116974816 0.07717556
000040 ef 36 08 bd de de 17 3d b9 a3 8c be 88 cd 8d 3e
       -0.033255514 0.037077777 -0.2746866 0.2769587
000050 43 c7 4d be 97 7e 1c 3d c3 5d b1 3e 36 d1 62 bb
       -0.20095544 0.038206663 0.34641847 -0.0034609563
000060 c5 f9 9c 3e 57 ee a5 3d b4 a4 ba 3e 3b 4c 87 be
       0.3065931 0.081021 0.36453784 -0.26425347
000070 c8 42 b0 bd 83 79 bf bd d7 6f 24 3d af 6b c4 bd
       -0.086064875 -0.093493484 0.04014572 -0.095908515
000080 fe b4 52 bd ca ee 77 3e e5 bb f5 3c 50 6a b9 3d
       -0.05144214 0.24212185 0.029996822 0.090534806
000090 09 25 67 bd e2 76 94 be 7d e8 c7 3e 30 5f 4b be
       -0.056431804 -0.2899695 0.39044562 -0.1986053
0000a0 ef 7e 0a 3e f3 62 13 be 9d aa ae 3e 38 0e a9 be
       0.13524984 -0.14393215 0.34114543 -0.3301866
0000b0 b2 5a 52 be 77 fb 7d be d6 dc dd 3c c8 76 9c be
       -0.2054241 -0.24802957 0.027082842 -0.30559373
0000c0 09 84 58 be 08 26 24 be 34 97 45 be c0 64 f6 bb
       -0.21144117 -0.16030133 -0.1929596 -0.0075193346
0000d0 30 ac a7 be f4 c9 c0 3d 52 d2 53 3e ba fd b1 be
       -0.32748556 0.094135195 0.206857 -0.3476389
0000e0 06 c3 98 3e 00 a8 7c 3e ef 50 36 3e ab 96 92 3d
       0.2983629 0.24673462 0.17804311 0.07157644
0000f0 61 83 7c be 1a cd 5f 3e 5b c8 d1 3d 53 37 de 3e
       -0.24659492 0.21855584 0.10243293 0.43401584
000100 a0 ab 8a 3e 93 71 8e 3e a3 b6 c1 3d aa 0d 27 bd
       0.27084064 0.27821025 0.09458663 -0.040784515
000110 e4 a6 2d be 9e 25 ea bb 79 66 18 be 70 0f 98 3e
       -0.16958195 -0.0071455976 -0.1488284 0.29699278
000120 9b 1a 4d 3e 10 cc ee 3d 7f a2 4f bd 47 ca 18 be
       0.2002968 0.116600156 -0.050692078 -0.14920913
000130 9f 4f 50 be 0c 5c 3e 3e 90 7d 37 3e 94 f4 da 3e
       -0.20342873 0.185898 0.17918992 0.42764723
000140 da f4 df bd 97 79 8e 3e 63 96 c0 3e 79 ba 98 3e
       -0.109353736 0.2782714 0.37614736 0.29829767
000150 9f a6 b7 bd fc 6a 0d be 86 92 ca 3e 3d e5 28 be
       -0.08967327 -0.13810343 0.39564914 -0.16493697
000160 ec aa e2 3b b8 ea b8 3e 26 de 88 be 85 cd b3 3e
       0.006917348 0.36116576 -0.26731986 0.35117736
000170 6a 5e 9d 3e 58 5c a8 3e 46 9f 08 3e ac 22 3a 3e
       0.30736095 0.32882953 0.13342008 0.18177289
000180 b0 ea 1e 3d 6b b5 b4 be 42 3a 6a be 07 41 93 be
       0.038798034 -0.3529466 -0.22873786 -0.2876055
000190 40 9f 86 3c 92 a1 8e be 62 d2 51 be e0 2a 9f 3d
       0.016433358 -0.27857643 -0.20490411 0.0777185
0001a0 15 d6 81 bd e6 54 48 3e 55 6e 84 be a7 3b 25 3e
       -0.06339661 0.19563636 -0.25865427 0.16136037
0001b0 3e ec fe 3d 4d 67 16 3e 17 c4 e7 bc 22 1a d9 bd
       0.12447403 0.14687844 -0.028291745 -0.106006876
0001c0 3e bf c5 3e a0 62 a4 3e a9 32 a5 3e c4 13 1b 3e
       0.3862247 0.32106495 0.32265213 0.15144259
0001d0 14 07 b2 3e 5f a6 08 3e 36 36 32 3b d7 a4 30 be
       0.34771025 0.13344716 0.0027192957 -0.17250381
0001e0 aa e7 5a 3c b7 20 b4 3e 93 c4 95 3d ce eb 93 3e
       0.013360897 0.3518121 0.07312884 0.28890842
0001f0 3d e3 51 be a4 aa 3e 3e cc 2d a3 bc c2 6d ce bd
       -0.20496841 0.18619782 -0.019919299 -0.100795284
000200 96 18 ee bd 8e 23 36 3d d4 ce 85 be e0 62 a4 3e
       -0.11625783 0.0444675 -0.2613436 0.32106686
000210 09 49 7e 3e 34 2a 70 3e 75 1d d7 3e 35 5f 3a 3e
       0.24832548 0.23453599 0.4201466 0.18200381
000220 41 dc d0 3e 87 4c 9f be 5f cd 35 be 1d 60 5f 3e
       0.4079304 -0.31113073 -0.17754124 0.21814008
000230 1a 48 ce 3e 82 9e 1c bd 02 09 ad 3d 6a 0c ce 3d
       0.40289384 -0.038237102 0.08448984 0.100609615
000240 d8 35 32 bc 09 46 ca 3e 12 0a 91 3e de 40 cd 3e
       -0.010877095 0.39506558 0.28327996 0.40088552
000250 ef c6 14 3d 05 e1 10 3e 63 c5 dd 3d 5b bb 01 3e
       0.03632253 0.14148338 0.10828664 0.12669127
000260 60 ff b4 3e 5b 1f a3 3e bb 57 b8 bd 1d 2c 23 be
       0.35351086 0.3185986 -0.09001108 -0.15934797
000270 ba 17 0f be 45 9b bc 3d 28 47 64 3e ec dd 8a 3e
       -0.13973895 0.09209303 0.22292769 0.27122438
000280 13 bb 50 bd e5 65 70 3e 31 bd 69 be ba ca c6 3e
       -0.050959658 0.2347637 -0.22826077 0.38826543
000290 9e 1e d4 bd f0 4f b3 3d c4 96 cb 3e c5 1c 82 3e
       -0.10357402 0.08755481 0.39763463 0.25412574
0002a0 09 3e 86 3e 5a 1e 9e bd ff 6c 38 bc 59 f5 5a 3e
       0.26219204 -0.07720633 -0.011256455 0.21382655
0002b0 ea b4 d5 3e 29 60 48 be 2d fb 47 3e 62 03 ac 3e
       0.4173959 -0.19567932 0.1952941 0.3359633
0002c0 6e 36 ba 3b 2a a9 7d bc 78 76 22 bd 8b e4 bf 3e
       0.005682758 -0.015482226 -0.03966376 0.37479052
0002d0 0e cd 81 3e e8 72 9e 3e 72 95 9f 3e cc 8f f5 3d
       0.25351757 0.30947042 0.31168705 0.11990318
0002e0 95 6f 60 3e e5 75 85 bd 94 77 94 3e 28 5f 66 be
       0.21917565 -0.06516627 0.2899748 -0.22497237
0002f0 c0 b8 57 be 0c 4a 8e be 03 05 90 3d 2d 11 bd 3e
       -0.2106657 -0.27790868 0.07032206 0.36927167
000300 c9 69 94 be 4c 0f 02 3e a5 e7 48 be b8 5c 94 be
       -0.28986958 0.12701148 -0.19619615 -0.2897699
000310 e0 ea e3 3d 9c be 9b 3d 24 83 ca 3d a0 5f d9 bd
       0.11128783 0.07604715 0.09888294 -0.10613942
000320 26 c7 91 3d c9 0d 24 be 9f c2 91 be 9c 8c ac 3d
       0.07118063 -0.16020884 -0.28468797 0.084252566
000330 33 a3 c2 3e 15 3d a9 3d c5 92 28 be 68 e8 dd 3d
       0.38015136 0.082636036 -0.16462238 0.108353436
000340 41 46 82 3e ce a1 b3 3e d5 65 16 3d fb 11 94 be
       0.25444224 0.35084385 0.03671821 -0.28919968
000350 8c ae 88 3e ca bd b2 3e d0 55 64 be b2 ae 22 be
       0.2669567 0.34910423 -0.2229836 -0.15886953
000360 0e 82 c7 3e d2 1b 39 be be 15 1f be d9 aa 44 be
       0.3896641 -0.18077019 -0.15535638 -0.19205798
000370 64 57 eb 3e 59 d6 c4 3e 90 c6 7b be 9e 6d 12 bd
       0.4596511 0.38444784 -0.24587464 -0.03574907
000380 11 71 6c 3e 8d a6 90 3e 72 1c 5a 3d ca 83 08 be
       0.23090006 0.28252068 0.053249784 -0.13331524
000390 c6 09 62 3e 95 76 5a be f6 50 ae 3e 82 ab f9 bd
       0.22074041 -0.21334298 0.34046143 -0.12190916
0003a0 91 d2 18 be 2f f7 14 ba 81 da 56 be 7c 3e b1 3e
       -0.14924075 -0.0005682585 -0.2098179 0.34617984
0003b0 cb 12 50 be 76 6f c4 bc 4b 05 54 bd b1 c5 37 3e
       -0.20319669 -0.02397893 -0.05176286 0.17946507
0003c0 47 4b 79 3e 65 2c 41 3e da b1 65 3e 59 75 b7 3e
       0.24345122 0.18864591 0.22431126 0.35831717
0003d0 f7 74 8f 3d 23 4e 56 be d2 13 06 3e de d0 01 3e
       0.07004731 -0.20928244 0.13093498 0.12677333
0003e0 1e 7b 2d bd 4b 3f de 3d f3 9b 67 3e eb 9c 23 3e
       -0.04235374 0.10851916 0.22618084 0.15977828
0003f0 2e ee 8c 3e ff e4 0d be 7b 88 12 3d 8a 65 4c 3e
       0.27525467 -0.13856886 0.03577469 0.19960609

fc1.bias f4 [128]
000000 e2 3c 5f bc d8 3b 7c 3e a6 f8 b6 3d bd 00 66 be
       -0.013625355 0.24632204 0.08934145 -0.22461219
000010 1e 32 da 3d ee 71 bd 3e a7 29 9c be dd ed a4 3e
       0.1065409 0.37000984 -0.30500528 0.32212725
000020 d4 71 9a 3e 9b fa 8b 3e c5 57 67 bd 96 5f 7b 3e
       0.3016497 0.27339634 -0.056480188 0.24548182
000030 40 90 c9 bc 3a ae fb 3d 2e 3f 28 be e0 39 84 3e
       -0.024604917 0.122890905 -0.16430351 0.25825405
000040 8f 2f c8 bd 8e 35 1d be 39 ca 9f bd 97 ca b0 3d
       -0.09774696 -0.1535246 -0.07802243 0.08632391
000050 09 83 46 3e 62 6e 78 3e cb e3 6f 3e 96 2d a9 3e
       0.19385923 0.24260858 0.2342674 0.33042592
000060 02 d5 3b 3e 1b d2 c3 3e 0d eb 9e 3d d0 5a e5 3e
       0.18342975 0.38246235 0.07759676 0.44795847
000070 1e 6b 7e bd 13 a2 cd 3e c8 bb c0 bd 3e 45 ec 3e
       -0.062113874 0.40162715 -0.094108164 0.46146578
000080 53 d7 03 be 7e fc 30 3e b5 6f 9d 3e 0a 5d 33 3e
       -0.12875108 0.17283818 0.30749288 0.1751596
000090 6a 1c 8c be 3a 44 ed 3e a1 72 2c bd 30 1e e0 bd
       -0.27365428 0.46341115 -0.042101506 -0.10943258
0000a0 12 54 92 3d fe c4 9b 3e 39 df 7e 3e 79 51 85 3e
       0.071449414 0.3042373 0.2488984 0.2603872
0000b0 14 cf ca 3e 8a 9f cc 3e 40 47 ac bd fa b8 65 be
       0.39611113 0.3996547 -0.08412027 -0.22433844
0000c0 f8 7b 22 be e7 f3 bf 3e 44 95 ad 3e 8c e6 30 be
       -0.15867603 0.3749077 0.33902943 -0.17275447
0000d0 af d7 05 3b e9 65 c0 3e 2a d1 d0 3e 8d 0b ab 3e
       0.0020422747 0.3757775 0.4078458 0.3340725
0000e0 0f 1a 5f 3e e8 64 45 be cf a9 25 be 3e 2f df 3e
       0.21787284 -0.19276774 -0.16178058 0.4359073
0000f0 b5 df 72 be ba 5d ae bd 58 0d 3f be 49 67 b1 3e
       -0.2371815 -0.08513971 -0.18657434 0.34649113
000100 a8 b6 c0 bd 43 c3 26 be d7 b2 4f 3e 77 ee 69 bd
       -0.09409839 -0.16285424 0.20283066 -0.057112183
000110 86 bc 69 3e 4e eb 87 be 19 bb 70 3e 90 2c d2 3b
       0.22825822 -0.2654671 0.23508872 0.0064140037
000120 d6 26 a4 3b da 4f 02 be 60 bf b5 3e 8f 4d fe bd
       0.0050095124 -0.12725773 0.3549757 -0.12417137
000130 e5 88 54 be 8b f7 9b 3e 28 b5 9a be 8a 55 be bd
       -0.20755346 0.30462298 -0.30216336 -0.09293659
000140 38 fc 9d 3a cf 1e 49 be 77 ed 3a be 62 30 bd bd
       0.0012053316 -0.19640659 -0.18254648 -0.09237744
000150 c7 17 ee bd 51 5f 89 3e 15 48 ad 3e 79 6e ab 3d
       -0.11625629 0.26830533 0.33844057 0.0837068
000160 3c c5 fd bd de 62 58 3e e6 48 79 3d 41 42 59 be
       -0.12391135 0.21131465 0.060860537 -0.2121668
000170 bc 66 8b bd 92 6e de 3e 2d 65 c8 3d 57 8a 56 bc
       -0.068067044 0.43443733 0.09784923 -0.013094506
000180 9a 4a 28 be b0 40 ab 3e f0 b0 51 3e c3 35 83 3e
       -0.16434708 0.3344779 0.20477653 0.25626954
000190 1c 98 94 3e 10 ee d9 3e 5e dd a8 3e c5 39 fd 3c
       0.290223 0.4256444 0.3298139 0.030911336
0001a0 de 5e b2 3e d3 f4 3b be f8 3e 99 3e 2d b0 f4 bd
       0.34838003 -0.18355112 0.29930854 -0.11947665
0001b0 aa a8 32 3e a9 04 7e 3e dc 8e 5a be e6 b9 32 3e
       0.17447153 0.24806465 -0.21343559 0.17453727
0001c0 f5 15 81 bd 13 4d c0 3e 12 dc d6 bd 52 5d f0 3e
       -0.06303016 0.37558803 -0.10491194 0.46946198
0001d0 06 06 a3 3e 6e 70 a0 be 5a f7 cd 3e 34 0a 45 be
       0.31840533 -0.31335777 0.40227777 -0.19242173
0001e0 76 38 21 3e b4 c1 8a 3e a4 42 97 bd 10 e0 5d bd
       0.15744194 0.2710091 -0.073857576 -0.05416876
0001f0 db 22 b6 bd c0 5e 70 be 47 c9 a0 bd de 25 bc 3d
       -0.08893367 -0.23473644 -0.078508906 0.0918691

fc2.weight f4 [128, 128]
000000 cd a0 dc 3d ee 91 1c 3e 06 08 01 3d 1c 6c f5 3d
       0.10772858 0.15290043 0.031501792 0.11983511
000010 b2 9d 74 3d 29 65 82 3d 00 f2 a2 bd 19 70 c3 3d
       0.059720702 0.06366951 -0.07956314 0.09542865
000020 a3 10 12 3e 81 8c 17 3e 85 cd bc 3c 46 e0 c2 bc
       0.14264159 0.14799692 0.023047218 -0.023788583
000030 9c e2 0e 3d 34 1f 3a 3d cf 9c 06 3e 41 4d 60 3d
       0.03488408 0.045439914 0.13145755 0.054761175
000040 b0 fb 38 3e 71 25 0d 3e 47 7c 08 3e 67 c0 ac 3d
       0.18064761 0.13783814 0.13328658 0.08435135
000050 78 f4 ed 3d c7 da 14 3e 3d 89 a7 3c d1 ac 4d 3d
       0.11618894 0.14536582 0.020451182 0.05021364
000060 62 a1 12 3d 95 b8 10 3e 4a ae bb 3d fe d3 39 3e
       0.035798438 0.14132912 0.091641024 0.18147275
000070 02 4f 12 3e cb e4 23 3e 90 b4 06 3d f2 cb d0 3c
       0.14287952 0.16005246 0.03288704 0.025487874
000080 1d 4c 07 3e 40 9e 3f bc 17 8e b7 3d 6c f8 0a 3e
       0.13212629 -0.011695445 0.08962648 0.13571328
000090 bb 93 7a 3c 8b d7 13 3e ca f7 03 3e 4c 3f 21 3e
       0.015294011 0.14437692 0.12887493 0.15746802
0000a0 28 16 06 3e 63 43 8e 3d 48 bb 3d 3d 3a 41 31 3e
       0.1309439 0.06946447 0.046321183 0.17310038
0000b0 bb 02 a3 3d 66 6f 56 3e 78 5b 2b bd 7a 25 e0 3d
       0.07959505 0.20940933 -0.04183528 0.10944648
0000c0 0e 49 e1 3d 9a 3a cb 3d e4 c1 8b 3d 06 30 6f 3c
       0.11000262 0.09923287 0.06824091 0.014598852
0000d0 fa 89 c5 3d de ca a4 3c 3f b5 80 3d 85 76 82 3e
       0.096454576 0.020116266 0.0628457 0.25481048
0000e0 b8 52 92 3c 8f f3 d4 3c 1c 6d 6a 3d 88 aa 5d 3d
       0.017861709 0.025995044 0.05723296 0.05411771
0000f0 f1 91 61 3e 64 b5 a5 3d f9 0e 8b 3d 32 73 12 3e
       0.22028328 0.08091238 0.06789965 0.14301756
000100 66 f1 6a bd 1d 6e b3 3d 68 ec 9e 3b 2c 5a 91 3d
       -0.05735912 0.08761237 0.004849959 0.07097277
000110 c1 5f bf 3c 31 95 ab 3d 1f cc 69 3d 75 db c1 3d
       0.023361089 0.083780654 0.05707943 0.09465686
000120 89 84 3d 3c 9d 53 82 b9 4c 46 73 3e 94 8e e7 3d
       0.011567243 -0.0002485783 0.23757285 0.113064915
000130 ca 4b bf 3b 9e 97 14 3e 3a 80 f4 3d 68 bb ce 3a
       0.005837892 0.14510962 0.1193852 0.0015772404
000140 a0 d2 09 3d 37 ff 2b 3b 3a 59 86 3c a3 19 06 3e
       0.033648133 0.002624465 0.016399968 0.13095717
000150 6a 0f d2 3d 34 8d 00 3e 13 b3 c5 3c 9a 00 99 3d
       0.10256846 0.12553865 0.02413324 0.07470818
000160 db a4 00 bd 6b a9 17 3e f4 c2 48 3d f3 c4 35 bc
       -0.03140722 0.14810722 0.049014047 -0.01109432
000170 6b 16 c9 3d 7d d2 1e 3e 69 f5 85 3d 8e 05 a8 3d
       0.09818729 0.15509982 0.06540949 0.082041845
000180 52 f0 83 3d fb 77 11 3e f7 a2 eb 3d 81 21 ff 3d
       0.06442322 0.14205925 0.115056925 0.12457562
000190 bd 34 18 3d 49 08 bb 3c 7b 18 19 3d 05 9d b7 bc
       0.03715967 0.0228311 0.037376862 -0.02241374
0001a0 63 6f 4f 3d 1a 62 53 3d e0 3d f9 3d 9c 9b a1 3c
       0.050643336 0.05160723 0.12170005 0.01972752
0001b0 b3 02 86 bc 4b 60 05 bc 6a e1 26 39 dc d9 04 3e
       -0.016358709 -0.008140634 0.00015914967 0.12973732
0001c0 79 03 c5 3d 4f 26 11 3d 94 5b 92 bd 96 80 12 3c
       0.09619803 0.035436925 -0.071463734 0.00894179
0001d0 ee 09 d8 3b d8 91 7c bd a1 63 71 3e 79 51 51 3c
       0.0065929806 -0.061662525 0.23573162 0.012775772
0001e0 ce ba 1e 3c 49 fb 86 3c b5 7b 05 bd a0 ca 4a 3e
       0.009688092 0.016477244 -0.03258868 0.19803858
0001f0 dc b9 d1 bc 63 82 56 bd ef e5 07 3e 28 e8 c7 3b
       -0.02560132 -0.05237044 0.13271306 0.006100673
000200 90 37 80 3d 96 f8 a8 3d 64 db 33 3e 72 85 60 3d
       0.06260598 0.08250539 0.1756416 0.054814763
000210 3c 43 f9 bc cb 70 29 3e 7c 57 56 bd b6 08 87 3c
       -0.030427568 0.16546933 -0.052329525 0.016483646
000220 2a 15 d7 bc eb 49 ed bc c7 ce eb 3d fc 7e 51 3d
       -0.026255209 -0.02896591 0.11514049 0.051146492
000230 0f c6 b0 bd f7 62 da 3d 92 15 ed bb d3 66 0d 3d
       -0.08631527 0.10663407 -0.0072352374 0.03452189
000240 77 8b 8f 3c b1 5b 01 3e 04 8d 83 3c 36 9e 83 3a
       0.017522557 0.12632634 0.016058452 0.0010041657
000250 01 e9 53 3d 1b ab fb 3c bc 6a 85 ba 8d a1 ac 3d
       0.05173588 0.030721238 -0.0010178904 0.08429251
000260 f8 d0 0e bc 52 5a fe 3d d2 a3 72 3d 56 02 a1 3d
       -0.008716814 0.12419571 0.059238262 0.07861774
000270 e1 04 44 3d c0 49 28 3e 49 f9 db 3d bb b3 18 3d
       0.047856215 0.16434383 0.10740907 0.03728078
000280 22 57 a9 3c 24 72 d0 3c 5b 83 a4 bb e5 31 de 3c
       0.020671431 0.025445051 -0.0050205416 0.027123401
000290 62 b2 98 bc 70 a1 82 3e 5a 79 a9 bc fe 5c 4b 3e
       -0.018639747 0.25513792 -0.020687748 0.19859692
0002a0 0b 1f 6a 3d e0 ac db 3d 90 c8 4b 3d 66 3f e3 3d
       0.05715851 0.10726333 0.04975182 0.11096077
0002b0 3f 1c 12 3e d9 37 53 3e 1f 5b 96 3d fa 51 a4 3d
       0.14268588 0.20626773 0.07341599 0.08023448
0002c0 5b e6 df 3d 4b a1 89 bc f3 52 de 3c e1 26 c1 3d
       0.10932609 -0.016800543 0.027139163 0.09431244
0002d0 3a c7 d7 3d 85 5e 77 3c c2 2f 0d 3e 9f b4 f1 3d
       0.10536046 0.015098219 0.1378775 0.11802029
0002e0 5f 2e 6d 3d 19 12 c3 3b 0b b5 ec 3d 18 c7 0c 3e
       0.05790555 0.005953085 0.11557969 0.13747823
0002f0 ef bb 04 3e d3 4b f2 bb 65 ea de bb fb cb a3 3d
       0.12962316 -0.007394293 -0.0068028443 0.079978906
000300 fe 47 b2 bd ac 8d f9 3d 00 93 ad 39 35 87 8b 3d
       -0.08705138 0.12185225 0.00033106655 0.06812898
000310 55 db 5b bc e8 ce 70 bd cf e4 12 3e eb 0c 38 3e
       -0.013418992 -0.05879107 0.14345096 0.17973678
000320 91 09 11 bd dc 35 e6 3d 47 d4 1a 3e 64 8b e4 3c
       -0.035409514 0.112407416 0.1512004 0.027898498
000330 2c 53 85 bd be 33 e6 3d 98 ee 89 bc 65 ca 29 3c
       -0.065100044 0.11240338 -0.016837403 0.010363196
000340 95 f1 a0 3d 02 fa af 3d 6b 34 e5 3c 17 05 d0 3d
       0.07858578 0.08592607 0.027979096 0.10157221
000350 e7 1b 9e 3d 80 9f d9 3d fb 1e e8 3c 7d af 97 3d
       0.07720166 0.10626125 0.028335085 0.074065186
000360 07 2b 43 bd 02 c1 c2 3d e2 d6 e6 3d fb 0a e0 3c
       -0.047648456 0.095094696 0.112714544 0.027348986
000370 b1 7f 4e 3d c6 56 0a 3e c6 ca 35 3d 51 bb b5 3d
       0.050414745 0.13509664 0.044382833 0.088736184
000380 26 46 b6 3d 51 47 2a 3d 74 b6 2c 3d 32 cc 7e 3d
       0.089000985 0.04157192 0.04216619 0.062206455
000390 3e 40 09 3e c9 88 83 3d 44 eb 13 3e f9 22 9c bb
       0.13403413 0.06422574 0.14445215 -0.0047649113
0003a0 8c 39 3b 3e 77 da 3a 3d 3c ac 9c 3d 98 70 90 b9
       0.18283671 0.0456185 0.076500386 -0.0002754971
0003b0 ac ca 14 bd b9 e1 0b 3d df 73 bf 3c 7d 11 cd 3d
       -0.036326095 0.034150813 0.023370681 0.10013101
0003c0 b5 96 05 3e 5d 56 b5 3d 17 e8 32 bd b9 88 b0 3d
       0.13045771 0.08854363 -0.04367837 0.08619828
0003d0 ce 5d 75 3d e6 b6 27 3d f2 03 6a 3e 1e 91 4d 3d
       0.059903912 0.04094591 0.22853068 0.050187223
0003e0 51 a8 5a 3d c1 11 b1 3d ae cd 24 bd 15 e5 58 3e
       0.053383175 0.086459644 -0.040235214 0.21181138
0003f0 3b 49 ce 3d 10 1b ff 3b f5 fb 75 bc 0f 30 bb bc
       0.10072561 0.0077852085 -0.0150136845 -0.022850065

fc2.bias f4 [128]
000000 97 94 29 3d cd b6 17 3e 00 09 c5 3c 45 3a d0 3d
       0.041401472 0.14815827 0.024052143 0.10167364
000010 e9 90 f7 3c a8 38 96 3d d1 8a ea 3d 9b 8d eb 3d
       0.030220466 0.07335025 0.114522584 0.115016185
000020 92 da 39 3e 9c 9d 2a bd 7a d6 97 bd f9 bd 26 3e
       0.18149784 -0.041654214 -0.07413955 0.16283406
000030 8e da 9f bd c0 6a a3 bb 2d 0b 8f 3d 8a 8b 20 3e
       -0.07805358 -0.004987091 0.069845535 0.1567823
000040 b3 4c 83 3d 4a 10 b2 3d b4 3f 92 3d 43 73 b1 bd
       0.064111136 0.08694513 0.07141057 -0.086645626
000050 f2 02 37 3e 11 64 e6 3d 73 57 9a 3d 23 8f e8 3d
       0.17872217 0.11249555 0.07536211 0.11355426
000060 11 ac fd 3d b4 49 2b 3d 0a ae 02 3e 54 89 ab bd
       0.12386335 0.041818336 0.12761703 -0.08375803
000070 90 8e ae 3d d0 c4 a8 3d 40 ee d9 3c 10 24 ab 3c
       0.085232854 0.08240664 0.026602864 0.02089122
000080 7c 88 12 3e 29 28 a8 3d 03 03 1e 3e 2f 6f 20 3e
       0.14309877 0.08210785 0.15430836 0.15667413
000090 35 7c 9a 3d 53 cb d7 3d dc 11 74 bd 85 10 18 3e
       0.07543222 0.10536828 -0.059587345 0.14850052
0000a0 6c f6 65 bd 50 5f 29 bd da 9e d5 3c a1 5e 91 3d
       -0.05614321 -0.041350663 0.026076723 0.07098127
0000b0 c0 6c a8 3d 6f 09 a4 3d 0b 1c 92 bd 4b eb 93 3b
       0.082238674 0.08009612 -0.07134255 0.004514133
0000c0 18 6f 6f bd 4f 21 a9 bd d6 c4 22 3d 9b 5f d4 3d
       -0.058455557 -0.08258306 0.0397385 0.10369798
0000d0 64 50 16 3e 3c 41 2c 3d 0f 0d 98 3d 11 84 b3 bd
       0.14679104 0.0420544 0.07424366 -0.08765424
0000e0 20 6f b1 3b c7 67 2f bd 2f b5 68 bd 30 88 4e 3d
       0.0054148585 -0.04282358 -0.056813415 0.050422847
0000f0 31 0f 18 3e f2 d3 60 3d db 61 a0 3d ac aa 87 bc
       0.14849545 0.054889627 0.078311644 -0.016560875
000100 52 8b 38 3d 18 8b e4 3d ff b4 2c 3e db 5a e5 3d
       0.04505474 0.111593425 0.1686592 0.1119897
000110 c8 df 82 3d ba 1a 26 3e f3 fb fb 3c 0b 7b a2 3d
       0.06390339 0.16221133 0.030759787 0.07933625
000120 12 e8 2d 3e 26 8c 64 3d ed 04 1a 3e 87 a4 aa 3d
       0.16983059 0.05579772 0.15040942 0.08332162
000130 a8 f3 91 3d 57 fd d5 3c 9b 74 e1 3d 81 2c 89 bc
       0.07126552 0.026121778 0.11008569 -0.016744854
000140 84 34 87 3d 1f 52 25 3c 81 33 d7 3d 4d a4 02 3e
       0.066018134 0.01009038 0.105078705 0.12757988
000150 29 d1 90 3d 80 15 7e 3c e6 4e 47 3d 15 e5 a4 3d
       0.07071144 0.015508056 0.048659228 0.080515064
000160 93 47 e0 3c 6d 39 9b 3d 6c 3d 50 ba e5 f9 f4 3d
       0.02737788 0.075793125 -0.0007943723 0.11961726
000170 82 2a 2d bd f5 86 10 3e e8 f0 f4 3d 51 b0 5e bc
       -0.042276867 0.14113982 0.11960012 -0.013591842
000180 9d 51 da 3d fd e9 13 bd f6 64 3b 3d fe 35 1c 3d
       0.10660098 -0.03611182 0.04575058 0.03813743
000190 78 46 86 3d 2a da 04 3d 13 b0 07 3e e7 ff 8c 3d
       0.065564096 0.03243462 0.1325076 0.06884747
0001a0 53 fc dd 3d 5f 79 b4 3d c2 b1 0a 3c db 56 c7 bc
       0.10839143 0.08812212 0.008465232 -0.024333408
0001b0 6c d4 1e 3e de 0d 28 3e e8 5f 96 3d 44 eb 62 3d
       0.1551072 0.1641154 0.073425114 0.055400148
0001c0 e3 35 fc 3c 51 46 06 bd af fa 7e 3c 4d 5c 01 3e
       0.030787414 -0.032781903 0.015562697 0.12632866
0001d0 d1 21 fa 3d 2e b5 18 3d 99 62 48 3d 26 78 29 bd
       0.12213481 0.03728216 0.048922155 -0.041374348
0001e0 f2 83 0b bd 3c 86 98 3c 1d 95 85 3d 02 14 7c 3d
       -0.03406138 0.018618695 0.06522582 0.06154252
0001f0 db d9 30 3e 9c 6c 98 3d 98 1b 86 bc 19 71 99 3c
       0.17270605 0.074425906 -0.01637058 0.018730687

fc3.weight f4 [128, 128]
000000 59 cd 27 3c 59 6e b1 3d 56 35 fa bc ea 39 86 3d
       0.01024183 0.08663625 -0.03054301 0.06554015
000010 29 e9 7e bb 15 09 93 bd 8d 22 19 bc a6 83 52 3d
       -0.0038896299 -0.07179467 -0.009346616 0.05139508
000020 1d 58 ae bd 20 8e b5 bb 63 01 08 bd 16 df 36 bd
       -0.085129 -0.0055406243 -0.033204447 -0.044646345
000030 f0 1b 7c bc be 9a 62 bd bb 57 3b 3d ac cd cc bb
       -0.01538752 -0.055323355 0.045737963 -0.006250104
000040 62 34 83 3d 0d 55 f5 3b bb 12 94 3d 48 81 35 3c
       0.064064756 0.0074869455 0.07230135 0.011078186
000050 97 fb a8 3d 3a 13 06 bd e6 9e 36 3d bc 70 be 3c
       0.08251112 -0.03273318 0.04458513 0.023247115
000060 d6 e4 74 3d 0d 8b 51 3d 43 19 ac 3d 6b cb f5 3c
       0.059788547 0.051158 0.08403256 0.030004224
000070 6b be 7b 3d a7 64 3f bd 36 b0 08 bd 40 a2 27 3c
       0.061460894 -0.04672685 -0.033371173 0.0102315545
000080 62 4f 0b bd df ec 84 3d 1f 4a fd 3c d8 27 34 bd
       -0.034011252 0.06490492 0.030919133 -0.04398331
000090 e7 7d b4 bd ae 49 5a bd 7d 4c 94 3d 21 18 94 bd
       -0.088130765 -0.053292923 0.072411515 -0.07231165
0000a0 92 11 35 bd 38 37 1a 3c e1 42 2e 3d cb 47 b1 bc
       -0.04420621 0.009412579 0.04254425 -0.021640679
0000b0 e6 b8 67 3c ab f9 21 bd 26 50 1b bd e1 c3 4d bd
       0.014143204 -0.039544743 -0.037918232 -0.050235633
0000c0 44 3b ea 3c fe d1 3a 3d cf 08 72 bd 3e b3 ff bc
       0.028592713 0.04561042 -0.05909043 -0.031213399
0000d0 a4 34 b4 3d 99 87 2c 3c 2c c9 98 bc fe 8c 37 bd
       0.08799103 0.010530376 -0.018650614 -0.044812195
0000e0 04 ab 81 bd 00 24 ad 3b 67 e8 9c 3d a0 0e 4d bd
       -0.06331447 0.0052838326 0.07661515 -0.050062776
0000f0 28 e6 aa bd 1b fc 1a 3c 9a 67 0b bd 6a 93 4d 3d
       -0.0834468 0.009459521 -0.03403435 0.050189413
000100 e2 0c 6b bd 86 d1 dc bc 9d 81 49 3d ca 8b f0 bb
       -0.057385333 -0.026955377 0.049195874 -0.007340883
000110 bc d6 30 bd 67 27 a7 3d 5f 00 bf bb 90 b0 d2 bc
       -0.043173537 0.08161812 -0.0058289017 -0.025718957
000120 db 15 49 bd 80 9b 73 bd 50 ae 46 bc 8a 86 47 3d
       -0.04909311 -0.05947447 -0.01212652 0.04871229
000130 5f 2d ab bc 04 3d 8e 3d 91 c0 b3 3d c4 95 7e bd
       -0.020895658 0.069452316 0.087769635 -0.062154546
000140 62 a5 e5 bc e0 14 9a 3b 21 b9 94 bd 42 e2 a0 bd
       -0.028032962 0.0047021955 -0.07261873 -0.07855655
000150 9b ac 30 3d 82 46 4f 3d 9d 66 0e 3a a1 c4 46 bb
       0.04313336 0.05060435 0.00054321607 -0.0030329602
000160 7a 67 63 bd 13 bb a5 3c 6f 0e 65 3d 67 46 0d 3d
       -0.055518605 0.020230806 0.055921968 0.03449097
000170 c9 48 99 bd 63 93 b8 bd a9 e3 b2 3d f4 ce 3c bc
       -0.07484586 -0.09012487 0.08734829 -0.011523951
000180 10 fa 87 3d cc 95 6e bd b3 30 94 bd e0 7f 63 bd
       0.066394925 -0.058248326 -0.07235851 -0.055541873
000190 d8 81 41 bc a7 c4 3b bd 8f 62 50 bb e3 77 94 bd
       -0.011810742 -0.04584184 -0.0031797027 -0.07249429
0001a0 20 f2 1c 3b 11 26 5d bc aa 9d 25 3d 7f f5 fa bc
       0.0023948029 -0.013497845 0.040433563 -0.03063464
0001b0 0d 33 6b bd e1 3e 91 3d 22 06 be bb fc 80 c8 3c
       -0.057421733 0.07092071 -0.005799071 0.024475567
0001c0 eb 3b 52 3d d6 c9 3f 3d 35 9b af 3d b3 78 aa 3c
       0.051326673 0.046823345 0.08574525 0.020809507
0001d0 ff 11 1c bd 0b f1 b4 bd 58 0a 9f 3d 70 66 12 bc
       -0.0381031 -0.08835038 0.07765645 -0.008935556
0001e0 7f 72 1a 3c 0c ee 82 bc 36 1e 6f 3d 18 0f 85 3c
       0.009426712 -0.01598265 0.05837842 0.016242549
0001f0 ff b6 51 bd 10 bc 75 bd 18 be fa bc a7 35 ad bd
       -0.05119991 -0.059993804 -0.030608222 -0.08457499
000200 20 96 af 3c f1 94 8c 3d aa ed 56 3d e1 8d 70 3c
       0.02143389 0.06864346 0.052472748 0.014682264
000210 f5 7c 27 3e 6b 29 a9 3c cf 5b 24 bb 1f 58 9e 3d
       0.16356261 0.020649632 -0.0025079136 0.077316515
000220 81 45 09 3d f8 31 dd 3c d3 78 96 3d ed bc 58 bc
       0.03351355 0.027001366 0.07347264 -0.013228637
000230 f5 10 6c bd 05 f7 a3 3d 09 e9 51 3d 2c 93 a6 3d
       -0.05763336 0.080060996 0.05124763 0.081335396
000240 56 6c 8d 3d a3 a3 85 3d 2c e6 fd 3d 16 67 3d bd
       0.06905429 0.06525352 0.123974174 -0.04624089
000250 74 e5 02 3d 2f 7f 27 3e 53 7a a9 3c 5e d2 d0 3d
       0.031957105 0.1635711 0.020688212 0.10196374
000260 f7 ec 03 3e 85 77 9d 3d 55 ea f9 3d 38 86 fd 3b
       0.12883364 0.07688812 0.122028984 0.0077369474
000270 24 cb 76 3c 43 4c 24 3e f4 cc 17 3e b5 63 4f bd
       0.015063081 0.16044717 0.14824277 -0.050632197
000280 bb 3b 50 3d f0 65 8f bd d9 e2 11 3e 63 3c d6 3d
       0.050838213 -0.07001865 0.14246692 0.104607366
000290 98 d6 0f bc 02 5b ff 3c fe 74 bc bd 5b 4c 1b 3e
       -0.0087791905 0.031171326 -0.09202002 0.15165846
0002a0 5d ac 6e 3c b0 aa 84 3c 41 23 94 3d 02 43 e0 3a
       0.014567462 0.016194671 0.07233287 0.0017109814
0002b0 79 3f 9f 3d cd e2 89 3d 1c 19 bf 3c 2c 47 dc bc
       0.07775778 0.06732712 0.023327403 -0.026889406
0002c0 49 89 76 3d 08 ff 9b 3c 26 b3 1e 3e bb dd a1 3d
       0.06018952 0.019042507 0.15498027 0.0790362
0002d0 85 40 df 3c 1f cd 5c 3c 88 f0 c7 3d a0 89 64 bb
       0.027252445 0.013476639 0.097626746 -0.003487207
0002e0 3b 32 9d bd ca cb 24 3d 6d e2 4f bd 6e 54 94 3b
       -0.07675596 0.04023341 -0.050753046 0.0045266664
0002f0 8b 2b 2a 3c 83 d9 24 3e 88 7c 32 3c 00 d6 57 ba
       0.010386358 0.16098599 0.010893948 -0.00082334876
000300 84 c8 b2 3d da 31 98 3d b6 8a 23 3e f8 ad 12 3e
       0.087296516 0.074313834 0.15970883 0.14324176
000310 cb 0a fb 3d 4a fd 10 3d 01 d5 78 3c fc cf ef bc
       0.12257918 0.035397805 0.015187503 -0.02927398
000320 b2 d7 1c 3e 73 d1 ad 3d 01 e9 bf 3c 72 60 66 3d
       0.15316656 0.08487215 0.023426535 0.05624432
000330 46 5e 26 3e 8f 65 24 3d a2 1f 01 3e b2 59 9e bc
       0.162469 0.040135916 0.12609723 -0.01932988
000340 ff f5 cb 3d 5a b6 75 3d aa 58 20 bc 50 59 08 3e
       0.099590294 0.059988357 -0.009786764 0.1331532
000350 77 66 a8 3d e8 3d 81 3c 4d 95 f2 3d f4 a2 e9 3b
       0.082226686 0.01577659 0.11844883 0.007130021
000360 e6 4a ad 3d 6d 56 17 3e 03 4a 94 3c cd 16 fc 3d
       0.08461551 0.14779063 0.018101698 0.123090364
000370 a8 d1 5c 3d 8e d3 23 3e a2 ce a2 3d e4 bb 82 bd
       0.05391088 0.1599867 0.07949568 -0.063834935
000380 9a a4 19 3e b8 87 98 3c e5 c9 01 3e 69 32 90 bc
       0.15004197 0.018619403 0.12674673 -0.017602162
000390 a9 7e 46 3d b3 89 f5 bb c5 15 e0 3c 1f 48 11 3e
       0.048460636 -0.0074932217 0.02735413 0.14187668
0003a0 b3 87 1e 3d 4f 8f 0c 3e b0 aa 82 3d 79 09 9d 3c
       0.03870363 0.13726543 0.06380212 0.019169556
0003b0 b4 58 8e 3d 33 73 70 3c ba cd 26 3e b9 52 ad 3b
       0.069505125 0.014675903 0.16289416 0.0052894023
0003c0 8d 14 06 3e 72 b8 38 3d 5b 62 10 bd 99 b5 71 3b
       0.13093777 0.045097776 -0.03525005 0.0036881922
0003d0 03 b3 a0 3d dc a2 86 3d 18 59 1b 3e d9 4f b3 3d
       0.07846644 0.06574032 0.15170705 0.08755464
0003e0 e4 c4 48 3d 78 60 79 bc d5 fc 12 bd 26 19 74 bd
       0.049015895 -0.015220754 -0.03588565 -0.059594296
0003f0 3f 73 b6 3d 0c f2 fb 3d d4 c5 5c bd 2f 20 b7 3b
       0.089087 0.12302026 -0.0538996 0.0055885534

fc3.bias f4 [128]
000000 f3 c3 ab bd 02 82 b4 3d ce a3 23 3e 92 dc 9f bd
       -0.08386984 0.088138595 0.15980455 -0.07805742
000010 43 de 01 3e 03 a2 7d 3c de b9 e1 bc 76 86 8f 3c
       0.12682442 0.015480521 -0.027554449 0.01752017
000020 07 43 9a bd af 05 38 3e 7c 38 96 3d b7 63 b3 bd
       -0.07532316 0.17970918 0.07334992 -0.087592535
000030 19 8d 9f 3d 14 c6 52 bc 95 30 20 3e 11 f1 b3 bd
       0.07790584 -0.012864608 0.15643533 -0.08786214
000040 08 db 97 bd e3 d0 00 3e 3c 03 b0 bc 4f 8e 08 3e
       -0.07414824 0.12579684 -0.021485917 0.13335536
000050 31 d9 6f 3d 1f 7c cf 3d 19 52 a5 bd 63 ee 93 3b
       0.05855674 0.10131096 -0.080722995 0.004514502
000060 91 2e f5 3b 34 f8 1b 3d 8b f1 92 3d b9 61 11 3e
       0.007482358 0.0380785 0.07174977 0.14197434
000070 b6 8c 19 3e 41 bf 03 3d 9a ca 4a bd b3 e9 a9 bd
       0.14995083 0.032164816 -0.049509622 -0.08296528
000080 da ec 25 bd 28 b2 64 bb a7 e1 27 bd 55 56 e1 3b
       -0.040509082 -0.0034896228 -0.040986683 0.0068767467
000090 00 16 a9 bb fd 5c d8 3d ce fb 03 3e 40 25 9a 3d
       -0.0051600933 0.10564611 0.12889025 0.07526636
0000a0 dd e8 ff 3d 79 88 eb 3c 09 ad 9c bb 0d 66 c9 3d
       0.12495587 0.028751599 -0.0047813696 0.09833918
0000b0 c9 ce 94 3d e7 54 51 bd 0b 6f 10 3a 4c 09 66 3d
       0.07266004 -0.05110636 0.0005509711 0.05616121
0000c0 54 8f 6e 3c 72 e3 79 3d af 98 16 3d b9 cf e0 bc
       0.014560539 0.061007924 0.036766704 -0.0274428
0000d0 20 c0 42 bc 86 76 9d 3c 7d 78 84 3d e2 33 76 3b
       -0.0118866265 0.019221555 0.06468294 0.0037567546
0000e0 cb e6 12 3e ee 84 ce 3d 93 38 b1 bd 38 91 6b 3d
       0.14345853 0.10083948 -0.08653369 0.05751154
0000f0 b3 66 10 3d 74 eb d9 bc 61 14 bc 3d 30 22 4f bd
       0.03525419 -0.02660153 0.091835745 -0.050569713
000100 a1 d5 20 3e 6a 7f a8 bd b0 9d 02 3d 77 cf 16 bd
       0.15706493 -0.08227427 0.031888664 -0.036818948
000110 da 1d 74 bd a8 68 19 bd b1 12 96 3c a7 4b 44 3d
       -0.05959878 -0.037453324 0.01831946 0.04792371
000120 a5 75 eb bb ae 80 82 3c 7e 66 72 3d 12 82 8f 3d
       -0.007185655 0.0159305 0.059179775 0.07007231
000130 26 62 1a 3e 78 07 1e 3e 51 3e 70 bd 9c 5b a6 3d
       0.15076503 0.15432537 -0.05865318 0.08122942
000140 1a 17 1a 3a be dc 4d 3d 9e 33 ce 3d 37 04 9f bd
       0.0005878076 0.050259344 0.10068439 -0.07764476
000150 33 5a f5 3b c6 da 0b bd b2 63 93 3d 1c 24 e5 3d
       0.007487559 -0.034144185 0.0719675 0.11188528
000160 d4 3c ae 3d 5c 7f 1c 3e f7 b8 6d 3d f9 00 60 3d
       0.08507696 0.15282959 0.058037724 0.054688428
000170 4b 87 1d 3e 86 9f c9 3d 8f dd 57 3d 2f af bb 3d
       0.15383641 0.0984488 0.05270153 0.09164273
000180 b9 5a 81 3d c5 77 37 bc 9d 6c c3 bd c1 45 79 3d
       0.06316132 -0.011197989 -0.09542201 0.060857538
000190 15 77 e6 3d 22 fb b1 bd 76 67 a0 bc cb 43 57 bd
       0.11253182 -0.08690478 -0.019580584 -0.052554887
0001a0 69 1d ee 3c 51 4a 02 3e e2 bf 81 3d 71 68 18 3e
       0.029066758 0.12723662 0.06335427 0.14883591
0001b0 08 e7 4d bd 36 e9 23 3d bf a1 6c bd 86 06 80 bd
       -0.050269157 0.04001733 -0.05777144 -0.06251244
0001c0 7b c5 cf 3d 4a 3a e8 3c 4a 20 01 3e 39 6d 23 bc
       0.10145088 0.028348107 0.12609974 -0.009974771
0001d0 a1 78 62 3d 08 78 67 bc e0 ed 86 bb da 32 bb 3d
       0.055290822 -0.014127739 -0.0041177124 0.091405585
0001e0 1f 76 c5 3c db c9 ad 3d 72 20 9c 3d 6b 51 d0 3d
       0.024104176 0.084857665 0.07623376 0.10171779
0001f0 3f e8 91 bd 69 36 28 3e ab 26 a6 bd 30 e6 c6 bc
       -0.071243756 0.16427006 -0.08112844 -0.024279684

fc4.weight f4 [5, 128]
000000 60 0a 55 3d f6 4f bd bd 19 cf 97 bd a4 9a 08 3d
       0.052011847 -0.09243767 -0.074125476 0.0333506
000010 5a f1 81 bd d1 b1 ed bb 68 c3 2c bd 87 dc 55 bc
       -0.06344862 -0.0072538634 -0.04217854 -0.013053066
000020 ee 4d 58 3d e0 71 ce bd a3 36 a1 bd fd 2a 81 3d
       0.052808695 -0.10080314 -0.07871749 0.063070275
000030 64 2c e3 3c bd 1a 1b be c3 d4 93 bc c3 2c a2 bd
       0.027731128 -0.15146919 -0.018045789 -0.07918694
000040 ee 40 f0 bc ac 4f 9e bd be 83 f9 bd d0 1e 1f bd
       -0.029327836 -0.0773004 -0.12183331 -0.038847744
000050 16 32 c8 bd e9 f9 08 be 3e a4 66 bd 57 e8 de 3c
       -0.09775178 -0.13376583 -0.056308977 0.027210398
000060 d7 98 c2 3b 2b e5 66 bd f8 18 04 3d 87 b3 47 bd
       0.00593863 -0.056370895 0.032250375 -0.048755195
000070 92 6c d3 bd 2a 74 8e 3d b3 e2 73 3d 97 e5 52 bd
       -0.103234425 0.0695575 0.05954237 -0.051488485
000080 d5 93 92 3d 8c f9 1a bd 6e 83 5e 3d ec 0d dc bc
       0.07157103 -0.037835643 0.05432456 -0.026862107
000090 67 01 ae bd 97 af 07 be e7 1d ab bd 2c 42 9f 3d
       -0.08496361 -0.13250576 -0.08355313 0.07776293
0000a0 f2 b7 c9 bb c6 bf 1b be 8d ce d3 bd 0d 17 9b 3b
       -0.006155961 -0.15209875 -0.10342131 0.0047329725
0000b0 23 7c 99 bd be e5 88 bd dd 6e 1a be 97 0a e0 bc
       -0.0749438 -0.06684445 -0.15081353 -0.0273488
0000c0 d8 ac c9 3a 75 de 5e bd 96 42 8b bd 13 c4 9e bc
       0.0015386594 -0.05441137 -0.0679981 -0.019380605
0000d0 fd c6 b3 3d 9d 79 6d 3d f8 4f 6b 3c 15 52 19 be
       0.087781884 0.057977308 0.014362328 -0.14972718
0000e0 e9 f9 1d be 66 df cc bd 7b fb a3 3d 83 55 6f bd
       -0.15427364 -0.10003547 0.080069505 -0.05843116
0000f0 60 9a a2 3d 68 9c cf 3c 22 28 dd bc 33 a5 86 3d
       0.07939601 0.025343135 -0.026996676 0.06574478
000100 52 b9 ef bd 89 b2 36 bd 8d 7e 5d bd a5 dd 64 3c
       -0.11705269 -0.04460386 -0.054075766 0.01396886
000110 5b 3e 88 3d c8 e4 d9 3c 07 94 f1 bd 8c 67 14 be
       0.06652518 0.02659835 -0.11795812 -0.14492625
000120 ea 58 9f 3d 7e ee a4 3b b8 dc b6 bc d7 23 3d bd
       0.07780631 0.0050333133 -0.022322044 -0.046176758
000130 73 cc e0 bd d3 01 20 be e2 0a 16 3d e3 5d c1 3b
       -0.109764956 -0.15625696 0.036631472 0.0059010847
000140 26 3f cc bd bf d8 30 bc 18 98 66 bd d2 80 3d 3c
       -0.09972982 -0.010793864 -0.05629739 0.011566358
000150 00 32 ff bd 55 ea 93 bc 08 47 ff bc 95 f8 a0 bd
       -0.124607086 -0.018056074 -0.0311618 -0.07859913
000160 69 c3 cf bd c1 ef eb bd 07 18 ee bd 39 1b 5a 3d
       -0.101446934 -0.11520339 -0.116256766 0.053248618
000170 dd f2 0d be 1b f9 c1 bd 79 5c f0 3b 9f d0 0c bd
       -0.13862176 -0.09471341 0.0073352423 -0.034378644
000180 90 96 78 bc b7 9b 83 3d 87 82 85 3c d8 0f d8 bd
       -0.015172616 0.064261846 0.016297592 -0.10549897
000190 d3 a2 d9 bd 20 d9 b0 bc a4 45 16 bd e1 84 9f 3d
       -0.106267594 -0.021587908 -0.03668751 0.077890165
0001a0 e0 d2 10 be 7c 47 15 be 50 28 ce bd dd 26 c4 bd
       -0.14142942 -0.1457805 -0.10066283 -0.09577725
0001b0 3d 41 6a bc 30 44 d6 3b b8 d3 27 3d 70 be 0f bd
       -0.014297781 0.0065388903 0.040973395 -0.035093725
0001c0 a0 88 e6 bd d6 f0 98 3b 8f 86 fd bd d2 8e 21 bc
       -0.11256528 0.0046673818 -0.12379181 -0.009860711
0001d0 0f c3 9c bd 00 2d a9 3a f0 18 0b 3c 92 37 29 bb
       -0.07654392 0.0012907088 0.008489832 -0.0025820476
0001e0 ec f3 19 be 62 48 a6 bd c4 58 e5 bd e5 00 23 be
       -0.15034455 -0.08119275 -0.11198571 -0.1591831
0001f0 d5 c7 80 bd a9 3e 8c bd 4b 5f 70 3d f1 a5 9a bd
       -0.06288115 -0.06847889 0.05868463 -0.07551182
000200 00 02 86 bd 63 ad 14 be a9 48 14 be 23 2e 83 3d
       -0.0654335 -0.14519267 -0.14480843 0.06405284
000210 d0 e4 86 bd bf c6 15 be 87 cd ab bd a0 37 38 bb
       -0.06586611 -0.14626597 -0.083888106 -0.0028109327
000220 ff 34 8c 3d ba e5 0b bd 8b 0e 98 3d 42 ee a4 bd
       0.06846046 -0.03415463 0.07424649 -0.080532566
000230 08 30 5f 3c e3 2c 11 be 29 c6 1c be ec 79 a1 3c
       0.013622291 -0.14177279 -0.15309967 0.019711457
000240 26 19 87 3d 2e 30 ea bd 84 54 e9 bd 73 94 14 be
       0.065965936 -0.11434971 -0.11393073 -0.14509754
000250 3d b3 a0 bc 51 8c 1e be 0f f4 9b 3d f9 50 19 bd
       -0.019616717 -0.15483214 0.0761491 -0.037430737
000260 ae 6f 92 3d 85 67 ee bd 7c 51 98 3c d3 6a 07 be
       0.071502075 -0.116408385 0.018593542 -0.13224344
000270 70 11 2b bd d4 8f 15 bc 38 20 3b bb f8 cd 67 bc
       -0.041764677 -0.00912853 -0.002855314 -0.014148228
000280 a6 d6 c8 3c 37 28 16 be 22 68 3b 3d e6 97 64 bb
       0.024516415 -0.14663778 0.045753606 -0.0034880578
000290 40 d9 84 3c 83 5b fa ba f9 c9 a2 bd 58 e2 3d 3d
       0.016216874 -0.0019100759 -0.079486795 0.046358436
0002a0 32 e6 ea bd e6 9f da bd ac cf 1b bc 82 00 e7 bd
       -0.114696875 -0.106750295 -0.009509962 -0.11279394
0002b0 21 0a 12 be d0 83 b8 bb b6 aa 81 bd 0f 84 10 bd
       -0.14261676 -0.0056309476 -0.06331389 -0.03528219
0002c0 90 82 0c be 09 6c 9d 3d 1c 46 cd bd f0 f7 f9 3c
       -0.1372168 0.07686622 -0.10023138 0.030513734
0002d0 d8 e2 18 3c d0 39 94 bc 63 c0 b2 3d e5 5b 34 bc
       0.0093314275 -0.018093973 0.08728101 -0.0110082375
0002e0 21 01 c0 bd 90 b1 03 be 66 0a 93 3d bc ce 46 3d
       -0.09375215 -0.12860703 0.07179718 0.048537
0002f0 a3 f1 95 3d 30 3d 08 3c 2b d5 95 bd f9 e2 4c 3d
       0.07321479 0.0083153695 -0.07316049 0.050021145
000300 1e 91 14 bd 65 64 15 bd dc 60 96 bc b1 9c 1c 3d
       -0.036271207 -0.036472697 -0.018356733 0.03823537
000310 d0 9b ec bb 67 4c 8f 3d 2b 7e 14 be 27 c5 0a be
       -0.0072207227 0.069969945 -0.14501254 -0.1355177
000320 e3 6c af bc 4f 72 6c 3d 89 6e b7 bd fe 35 9b 3d
       -0.021414226 0.0577262 -0.0895663 0.075786576
000330 9d 6b 8a 3b f6 d1 0d be f4 b0 cd 3c 92 ff 1b be
       0.0042242543 -0.13849625 0.025108792 -0.15234211
000340 0f 95 fd bd 5b e1 ec 3b 46 32 9c bd c9 24 44 3d
       -0.12381946 0.007229013 -0.076267764 0.047886644
000350 62 07 ae bd a3 40 81 3d b5 c0 34 3b 2e a4 c4 bc
       -0.08497502 0.063111566 0.0027580683 -0.024004068
000360 74 95 df bd 26 24 9b bd d5 8f 1d be a2 7b 32 3c
       -0.10917178 -0.07575254 -0.15386899 0.010893734
000370 25 35 4e bc 65 56 a3 bd 18 48 fd bc 32 e1 ae bd
       -0.012585913 -0.07975463 -0.030918166 -0.08539046
000380 54 86 39 bd 47 28 86 bd 3a c2 17 3c 04 19 6b bd
       -0.04529412 -0.06550651 0.009262616 -0.057396904
000390 3a 00 17 be dc bc 20 3d b6 76 18 3b 92 a6 a8 bd
       -0.1474618 0.03924261 0.0023264117 -0.08234896
0003a0 14 2b cf bd d9 cb ca bd df 77 25 bd ac 21 60 bd
       -0.101156384 -0.09902162 -0.04039752 -0.054719612
0003b0 61 fa 85 bd 18 c3 62 3c 5f 74 15 bd fe 8e 24 bd
       -0.065418966 0.013840459 -0.036487933 -0.04017543
0003c0 3f 15 cb bd c3 56 0f be 79 0e 54 3c 03 39 8a 3d
       -0.09916162 -0.1399794 0.012942904 0.06749155
0003d0 42 7f 24 be a6 43 17 3d 06 86 57 3d 4c c0 4e bd
       -0.1606417 0.03692975 0.05261805 -0.050476357
0003e0 00 7e b0 bd bd 8e 06 be 44 6d f6 bd 90 0f 25 bc
       -0.086177826 -0.13140388 -0.120325595 -0.010074511
0003f0 d9 18 8d 3d f0 56 07 bc e7 c1 7f bd 28 73 37 3c
       0.06889505 -0.008260474 -0.06244078 0.011196889

fc4.bias f4 [5]
000000 5b 66 1a bd 64 c9 90 37 5a b5 01 be 3d 48 fe bd
       -0.03769527 1.7259918e-05 -0.12666836 -0.12416122
000010 fb 72 a2 3c
       0.019830218
