weights/smallGrid_Q.pt (torch, 564336 bytes, 8 tensors)

fc1.weight f4 [256, 28]
0	0x3eb3e05a	0.35132104
1	0xbf00899f	-0.50209993
2	0xbef8e8ab	-0.48615012
3	0x3f44f895	0.76941806
4	0x3d8fca7b	0.07021042
5	0xbde309bb	-0.1108584
6	0xbd5a1bf3	-0.05324931
7	0x3e2a1e49	0.16613115
8	0x3e1459de	0.14487407
9	0x3e78a87e	0.24283025
10	0x3ac2f68f	0.0014874506
11	0xbdcfc1b3	-0.10144367
12	0xbdcd880d	-0.10035715
13	0xbca08176	-0.019592982
14	0xbdf5cfc5	-0.120025195
15	0xbe901616	-0.2814185
16	0xbdfcb9bf	-0.12340116
17	0xbd9c2f28	-0.07626182
18	0x3dee47e9	0.116348095
19	0x3d85fa50	0.06541884
20	0xbe674e60	-0.22588491
21	0xbded6845	-0.115921535
22	0x3cae08b3	0.021244382
23	0xbe48b6b6	-0.19600949
24	0x3d3d9a9f	0.046290036
25	0x3dd2f77f	0.103011124
26	0x3e059427	0.13044797
27	0x3dcafee5	0.099118985
28	0x3ee36461	0.4441252
29	0xbee102c2	-0.43947417
30	0xbea7a9b8	-0.32746673
31	0x3f118a8e	0.5685204
32	0x3ef18487	0.47171423
33	0x3e515aea	0.20444837
34	0x3e0e05c1	0.13869382
35	0x3e283146	0.16425046
36	0x3e9c24e0	0.30496883
37	0x3ebcf2c6	0.3690397
38	0x3c9e026c	0.019288264
39	0xbe531ea9	-0.20617165
40	0xbe2c2b7d	-0.16813464
41	0x3dbffdff	0.09374618
42	0xbdd1a6d1	-0.10236896
43	0x3d0fde76	0.035124265
44	0x3e6f11ce	0.23346636
45	0x3e62bc52	0.22142151
46	0x3e264b5f	0.1623969
47	0x3e18cbdc	0.14921516
48	0xbe849eb3	-0.25902328
49	0x3c912043	0.017715579
50	0xbd9a6af3	-0.0753993
51	0xbdd3a149	-0.10333497
52	0xbd4e2479	-0.05032775
53	0x3d037f10	0.032103598
54	0x3c83cebd	0.016089791
55	0xbe010e18	-0.12603033
56	0x3e7e4a28	0.24832976
57	0x3f23bc86	0.6395954
58	0xbe3cb56a	-0.18428579
59	0xbeadfaa4	-0.33980286
60	0x3d51897a	0.0511565
61	0x3dbe9c7f	0.09307193
62	0x3db11efb	0.08648487
63	0x3cb2dbc4	0.021833308
64	0xbde3d571	-0.11124695
65	0xbe9474ea	-0.28995448
66	0x3dc0cefc	0.09414479
67	0x3cb8077e	0.02246451
68	0x3b35a0cd	0.0027714253
69	0x3c4125e8	0.011788823
70	0x3dfe4844	0.12416127
71	0x3dab742e	0.08371769
72	0x3c42b2a6	0.011883413
73	0xbdc4f9ff	-0.096179955
74	0x3c9bf338	0.019036874
75	0x3eba3dbe	0.3637523
76	0xbdb20541	-0.08692408
77	0xbd0ca6de	-0.034338824
78	0xbdc09553	-0.09403481
79	0xbd6955eb	-0.056966703
80	0x3dcfdf4b	0.10150012
81	0x3e50a967	0.20377122
82	0xbd266cab	-0.040630978
83	0xbe1029c7	-0.14078437
84	0xbea23fe1	-0.3168936
85	0xbf44004b	-0.7656295
86	0x3f41f4e8	0.7576432
87	0x3f6eed13	0.93330497
88	0xbdcc6ce6	-0.09981708
89	0xbe653a0a	-0.22385421
90	0x3e72e148	0.2371875
91	0xbe1e7d96	-0.15477595
92	0x3d843205	0.06454853
93	0x3ba249a8	0.004952628
94	0xbd993e03	-0.07482531
95	0xbd689a5d	-0.056787837
96	0xbe784f07	-0.24248897
97	0xbdae50c1	-0.08511496
98	0xbd7d971a	-0.06191168
99	0x3defe5d4	0.11713758
100	0x3c80254e	0.015642788
101	0x3bbedd5c	0.005824728
102	0xbd944794	-0.07240215
103	0xbd1645bd	-0.0366876
104	0xbba3a5e7	-0.0049941423
105	0xbbcfa3f8	-0.0063366853
106	0xbd2411f4	-0.040056184
107	0xbbb74517	-0.005592953
108	0x3cc1a99b	0.023640445
109	0x3c9088b3	0.017643308
110	0x3d1d65ae	0.038427047
111	0xbbf528d4	-0.0074816737
112	0xbd441126	-0.047867917
113	0xbee7defe	-0.45287317
114	0xbec24ef9	-0.37950876
115	0xbed0625a	-0.40700036
116	0x3f6d4c54	0.9269459
117	0x3f7c2fe8	0.985106
118	0x3f1d8a34	0.61539006
119	0x3f6d5320	0.92704964
120	0x3cefe373	0.02928326
121	0x3c3d3e9f	0.011550575
122	0xbeede969	-0.4646714
123	0xbe9b8470	-0.3037448
124	0xbe0e2f81	-0.13885309
125	0x3a6db2da	0.00090674835
126	0xbd8421ad	-0.06451736
127	0xbd9c1aa5	-0.076222695
128	0x3e07a70f	0.13247322
129	0xbe4c4619	-0.19948615
130	0x3cc0fe87	0.023558868
131	0xbd205113	-0.03913982
132	0x3c144d1a	0.009051586
133	0xbdba9217	-0.09109896
134	0x3e78bc26	0.24290523
135	0x3e47d5db	0.19515173
136	0xbde61d12	-0.112360135
137	0xbb47ca46	-0.0030485555
138	0x3dac2d40	0.08407068
139	0xbd360088	-0.0444341
140	0xbf74b2d3	-0.95585364
141	0xbe9c64d5	-0.3054568
142	0x3f57217e	0.8403548
143	0x3f265a00	0.6498108
144	0xbd003f17	-0.031310167
145	0xbd161d90	-0.036649287
146	0xbd68695c	-0.056741104
147	0x3dbfa1de	0.093570456
148	0x3e24de77	0.16100489
149	0xbb3ce217	-0.0028821283
150	0xbb8d1f96	-0.004306744
151	0x3dab009c	0.083497256
152	0xbc61ce52	-0.013782101
153	0x3dc74100	0.09729195
154	0xbdcd5fe2	-0.10028054
155	0x3b922d1b	0.0044609434
156	0x3c71d892	0.014761107
157	0x3e4ca24b	0.19983785
158	0xbd0b2ff2	-0.03398127
159	0x3da39177	0.079867296
160	0x3b815f0a	0.003948097
161	0xbd4b75dc	-0.049672946
162	0xbd71aee5	-0.059004683
163	0x3e1f2970	0.15543151
164	0x3e036907	0.12833034
165	0x3d3f456c	0.046697065
166	0x3e2e50c5	0.17022999
167	0xbdd18f26	-0.102323815
168	0x3f76c265	0.9639037
169	0x3fa688ab	1.3010458
170	0xbf0d14d6	-0.5510992
171	0xbf0343fa	-0.512756
172	0x3f1bd9ce	0.6087922
173	0x3f1d21ac	0.61379504
174	0x3e82d333	0.25551757
175	0xbc3a123f	-0.011356889
176	0xbde0f7ca	-0.10984762
177	0xbdb4d5a1	-0.08829809
178	0x3e800c99	0.2500961
179	0x3e20d239	0.15705194
180	0xbec8a444	-0.39187825
181	0xbcaadd22	-0.020857397
182	0xbcfeb4b1	-0.03109202
183	0xbdcb3da6	-0.09923868
184	0x3e0c407a	0.13696471
185	0xbe2a6fb8	-0.1664418
186	0x3dacaf73	0.08431902
187	0x3e5ed9bc	0.21762747
188	0xbdb9f901	-0.09080697
189	0x3e120dcb	0.14263074
190	0x3e4ae541	0.19814016
191	0x3e44f1af	0.1923282
192	0xbd5783b9	-0.052615855
193	0x3da0500b	0.07827767
194	0x3dc9e70e	0.09858523
195	0xbe095994	-0.13413078
196	0x3f1b5182	0.60671246
197	0x3f05fbce	0.5233735
198	0x3f766469	0.96246964
199	0xbec9f05f	-0.394412
200	0x3b9eb6b6	0.004843558
201	0x3e0997f3	0.1343687
202	0xbda56464	-0.080757886
203	0x3dff03df	0.1245191
204	0x3d625c8f	0.055264052
205	0x3cb2d19f	0.02182847
206	0x3c48ffe5	0.012268041
207	0x3d1b7438	0.03795263
208	0xbe6beefc	-0.23040384
209	0x3d921983	0.07133772
210	0x3da4b0a9	0.08041508
211	0xbde95fef	-0.11395251
212	0x3b8c8fa6	0.004289585
213	0x3da81927	0.082079224
214	0x3da1db23	0.07903125
215	0xbcc450f0	-0.023964375
216	0xbc8bd1a4	-0.017067738
217	0xbe0e3677	-0.13887964
218	0xbdfa5e7f	-0.12225055
219	0x3dd9cbec	0.10634598
220	0xbeb6c8e5	-0.35700145
221	0xbeb2a3a6	-0.3489048
222	0xbe866edb	-0.2625645
223	0x3d0d7571	0.03453583
224	0xbf4e7978	-0.80654097
225	0xbf0755de	-0.528654
226	0x3f6de4da	0.92927325
227	0x3f2e7217	0.6814284
228	0xbe8684a5	-0.26273075
229	0xbe2538c4	-0.16134936
230	0xbbc27f3f	-0.005935579
231	0xbd5ee581	-0.05441809
232	0x3dec4fd6	0.11538665
233	0x3e2f8525	0.17140634
234	0x3da1bd7f	0.07897472
235	0x3d470382	0.04858733
236	0xbc421aaa	-0.0118471775
237	0xbe018def	-0.126518
238	0x3e860661	0.26176742
239	0x3e658884	0.22415358
240	0x3e300dca	0.1719276
241	0xbe07ef7a	-0.13274947
242	0x3db9e7f8	0.09077448
243	0x3e4b78fa	0.19870368
244	0xbcbcab40	-0.023030877
245	0xbd990d3d	-0.07473228
246	0xbe02586b	-0.12729041
247	0x3d50f3e4	0.051013842
248	0x3dce7cd5	0.100824036
249	0xbe286537	-0.1644486
250	0xbd0ad1ce	-0.03389149
251	0xbcb57f4f	-0.022155432
252	0xbf7f706a	-0.99780905
253	0x3f2919b9	0.66054875
254	0xbf668426	-0.9004539
255	0xbdda378d	-0.10655127

fc1.bias f4 [256]
0	0xbe7c70ce	-0.24652407
1	0x3e1b7899	0.15182723
2	0x3dc0ae65	0.09408263
3	0x3e190ff6	0.14947495
4	0xbd929f19	-0.07159252
5	0x3db643e8	0.08899671
6	0x3cd4d55f	0.02598065
7	0xbd3ae3f8	-0.045627564
8	0x3e4e2145	0.20129879
9	0x3f3b82d0	0.7324648
10	0x3e10b2b3	0.14130668
11	0xbf22feea	-0.6367022
12	0x3d9c61c4	0.07635835
13	0xbf284de4	-0.6574385
14	0x3f05a088	0.52198076
15	0x387938f6	5.9419275e-05
16	0x3e79fb34	0.24412233
17	0x3f79a7db	0.9752175
18	0xbe75dbbd	-0.24009605
19	0x3e0c882e	0.13723823
20	0xbdbdf19f	-0.09274601
21	0x3c6dd9d8	0.01451727
22	0xbec42494	-0.38309157
23	0xbda582ea	-0.080816105
24	0x3d925a50	0.07146132
25	0xbee1b68d	-0.44084588
26	0xbe43f676	-0.19136986
27	0xbecc0372	-0.3984638
28	0x3e40d395	0.18830712
29	0xbeb21d2c	-0.3478788
30	0x3ed12bc5	0.40853706
31	0xbe62e8e5	-0.22159155
32	0x3eec7b08	0.46187615
33	0xbea5c6f8	-0.32378364
34	0xbd8a5774	-0.067549616
35	0x3ecabd99	0.39597777
36	0xbee860fc	-0.45386493
37	0xbe801a6c	-0.25020158
38	0x3e3e0bfa	0.18559256
39	0x3e58ae66	0.21160278
40	0xbf01b088	-0.5065999
41	0xbf197f72	-0.5996009
42	0xbe2d9f9c	-0.16955417
43	0xbedbc8ae	-0.42926544
44	0x3e439716	0.19100603
45	0xbe6acfa7	-0.22930776
46	0x3c388efb	0.011264558
47	0x3e7643cb	0.24049298
48	0xbf036761	-0.5132962
49	0x3e728d87	0.23686801
50	0xbe3c4d28	-0.18388808
51	0x3f0a044f	0.53912824
52	0xbdf499c3	-0.1194339
53	0xbdb49ba6	-0.0881875
54	0xbd27e1f4	-0.04098697
55	0xbe7f9820	-0.24960375
56	0xbee78673	-0.45219764
57	0xbe317c17	-0.17332493
58	0x3de008c8	0.10939175
59	0x3e41726f	0.18891309
60	0xbdab90a0	-0.083771944
61	0xbdff7cdb	-0.12474986
62	0xbe614572	-0.21999148
63	0xbe0889d1	-0.13333823
64	0x3e9ac464	0.3022796
65	0x3dd5c746	0.10438399
66	0xbe2ff02e	-0.17181465
67	0xbc5af1a7	-0.0133632785
68	0x3e74780b	0.23873918
69	0xbdaeb9b1	-0.085315116
70	0xbf025454	-0.50909925
71	0x3c8e355e	0.017359432
72	0xbf23b5b5	-0.6394914
73	0xbef894be	-0.4855098
74	0x3e07b61f	0.13253067
75	0x3e5c8d17	0.21538197
76	0xbef02815	-0.4690558
77	0xbd027746	-0.03185203
78	0x3ea795c0	0.32731438
79	0x3d6a92c7	0.057268884
80	0xbe208949	-0.1567737
81	0x3ec45116	0.38343114
82	0xbe2273c3	-0.15864472
83	0xbe074a6f	-0.13211988
84	0xbe114211	-0.14185359
85	0xbf48a62e	-0.7837857
86	0xbf16e3cc	-0.5894134
87	0xbeb8f803	-0.36126718
88	0x3b9fa992	0.0048725093
89	0x3e4adf22	0.19811681
90	0xbdd5c882	-0.104386345
91	0x3e8e547a	0.27798826
92	0xbd1606fa	-0.036627747
93	0x3dd7cff2	0.10537709
94	0xbf30cf89	-0.69066674
95	0x3db378be	0.08763264
96	0x3f195f4e	0.5991105
97	0xbe8ad5cc	-0.2711624
98	0xbde141af	-0.10998856
99	0xbc366c7a	-0.011134261
100	0xbd86df13	-0.06585517
101	0x3d2e5647	0.04256275
102	0xbe714ba5	-0.23564012
103	0x3e5e170b	0.21688478
104	0xbdf31be3	-0.11870553
105	0x3dc976d2	0.09837116
106	0xbcdbf76f	-0.026851384
107	0x3ea46c34	0.32113802
108	0x3e0bfc7b	0.13670532
109	0x3ec4532a	0.383447
110	0xbdaab7e3	-0.08335855
111	0x3f6e4d97	0.9308714
112	0xbeea189b	-0.45721897
113	0xbea34cca	-0.31894523
114	0xbe99fc73	-0.30075416
115	0x3ec73038	0.38903975
116	0xbe7a36a9	-0.24434914
117	0x3e76e2a3	0.24109893
118	0x3d6329c8	0.055459768
119	0x3dbe9921	0.09306551
120	0xbe5257fc	-0.20541376
121	0x3df338fe	0.11876105
122	0xbef179ad	-0.47163144
123	0x3f29fe03	0.66403216
124	0x3e0b2ef7	0.13592134
125	0xbe9afbaf	-0.30270144
126	0xbe10fd07	-0.14159022
127	0xbe7e074b	-0.2480747
128	0xbe7c99ee	-0.24668095
129	0x3df0dac5	0.11760477
130	0xbd848c6b	-0.06472095
131	0x3ed035c8	0.40666032
132	0x3e902291	0.28151372
133	0xbd9bf955	-0.07615916
134	0x3db054eb	0.08609947
135	0x3f8a4014	1.0800805
136	0x3e38eb78	0.18058574
137	0xbe3bdebf	-0.1834669
138	0xbf0e1d11	-0.555131
139	0xbdddb479	-0.10825438
140	0xbd570299	-0.05249271
141	0xbeb67ff3	-0.35644493
142	0xbd940e22	-0.07229258
143	0x3ee1ee34	0.44127047
144	0x3c885953	0.016644156
145	0x3e960032	0.29297024
146	0xbdd9c042	-0.106323734
147	0x3d36aca1	0.044598226
148	0x3d0f76e1	0.03502548
149	0xbe01b1e0	-0.1266551
150	0xbf23b313	-0.6394512
151	0x3d0786c8	0.03308752
152	0xbef0072c	-0.46880472
153	0x3d1bfb54	0.038081482
154	0xbdfcabbc	-0.12337443
155	0x3ec9ef49	0.39440373
156	0xbedc6491	-0.43045476
157	0x3de236ce	0.110456094
158	0xbeab6de7	-0.33482286
159	0x3ebe7b1d	0.37203303
160	0xbf3a9fff	-0.72900385
161	0x3f4672f8	0.7751918
162	0x3da4756a	0.080302075
163	0x3e0b703a	0.1361703
164	0x3db55040	0.08853197
165	0x3e774ba5	0.2414995
166	0x3e0728c8	0.1319915
167	0xbc8c6109	-0.017136114
168	0xbebcb579	-0.36857203
169	0xbddaada0	-0.106776476
170	0x3d924ca9	0.07143528
171	0x3da85789	0.08219821
172	0x3d956169	0.0729397
173	0x3e67dcf6	0.22642884
174	0xbd76665e	-0.06015622
175	0x3dd2d298	0.10294074
176	0xbdefd294	-0.117100865
177	0x3f47d5b1	0.7806044
178	0x3ec2b7b7	0.38030788
179	0xbbb3a1c6	-0.0054819314
180	0xbbda13f9	-0.006655213
181	0x3e1a7654	0.15084201
182	0xbddc6b82	-0.10762693
183	0xbe0ea183	-0.139288
184	0xbe0d15bb	-0.13777821
185	0xbe33988e	-0.17538664
186	0x3cceeb1c	0.025258593
187	0xbe9f94a0	-0.3116808
188	0x3eb97511	0.36222127
189	0xbeaaa8be	-0.33331865
190	0xbdf733d5	-0.12070433
191	0xbe41d4e2	-0.18928865
192	0xbe5fac9c	-0.21843189
193	0xbf1fc50b	-0.6241004
194	0xbd04d87c	-0.032433018
195	0x3e4a6846	0.1976634
196	0x3d816fe4	0.063201696
197	0xbe074dda	-0.13213292
198	0x3d3a1130	0.045426548
199	0xbef28ede	-0.47374624
200	0x3f1ac608	0.6045842
201	0xbea26903	-0.31720743
202	0xbbebc24c	-0.007194793
203	0x3f4e11fa	0.8049618
204	0xbecb01f3	-0.39649925
205	0x3d3761d4	0.04477103
206	0x3afe15a7	0.0019385115
207	0x3f601216	0.87527597
208	0x3d8619f8	0.06547922
209	0xbd9e39c8	-0.07725865
210	0x3bd25087	0.006418291
211	0xbdf9c186	-0.12195115
212	0xbf57c440	-0.8428383
213	0xbe75c7a9	-0.24001946
214	0xbeb314af	-0.34976718
215	0x3bb9318d	0.005651659
216	0xbe4745ae	-0.19460174
217	0x3cb480f8	0.022034153
218	0x3f0856c9	0.53257424
219	0x3f17c1bc	0.5927999
220	0x3c2c1831	0.010503815
221	0xbe901330	-0.2813964
222	0x3e943986	0.28950137
223	0x3e8251f9	0.25453165
224	0x3e5c2209	0.21497358
225	0x3e2919dd	0.16513772
226	0xbe133708	-0.14376462
227	0x3ebe2cc6	0.37143534
228	0xbf00bdd7	-0.5028967
229	0xbdafce36	-0.085842535
230	0x3f17c08b	0.5927817
231	0x3ec520bc	0.38501537
232	0x3eaefd3b	0.34177575
233	0x3dcd80da	0.10034342
234	0xbec3f0a8	-0.38269544
235	0x3e13baa7	0.14426671
236	0xbe5408a2	-0.20706418
237	0x3e5f2618	0.21791875
238	0xbe8fe943	-0.28107652
239	0xbe0b96a0	-0.13631678
240	0xbe77ecc0	-0.24211407
241	0x3f5ee56f	0.8706884
242	0x3da34a0d	0.079731084
243	0xbe140934	-0.14456636
244	0x3e130d96	0.14360651
245	0xbea04da9	-0.3130925
246	0xbe3f3c0f	-0.18675254
247	0x3eb16a04	0.34651196
248	0x3e8805e9	0.2656701
249	0x3d4c90ce	0.049942784
250	0x3e11e103	0.14245991
251	0xbe992429	-0.299104
252	0xbe50da5d	-0.20395799
253	0x3c1eebdd	0.009699789
254	0x3e8652db	0.2623509
255	0x3f0c270e	0.5474709

fc2.weight f4 [256, 256]
0	0x3e8c53b3	0.27407607
1	0x3e804197	0.2505004
2	0xbc78a4dc	-0.015176024
3	0xbe0a0a93	-0.13480596
4	0xbde40ee1	-0.111356504
5	0xbefde68f	-0.49589965
6	0x3d87b0ea	0.066255406
7	0xbf1c82f1	-0.611373
8	0xbe9f3d9e	-0.31101698
9	0xbf180421	-0.593813
10	0x3ebe015e	0.37110418
11	0xbebf47aa	-0.37359363
12	0x3f22e69f	0.6363315
13	0xbe02dff1	-0.1278074
14	0x3ecb7dfc	0.39744556
15	0x3dccb6bb	0.099957906
16	0x3eeb61cf	0.4597306
17	0xbf7adb38	-0.9799075
18	0xbe89f428	-0.2694409
19	0x3e9352bf	0.28774068
20	0xbd733d12	-0.059384413
21	0x3e03a82a	0.12857118
22	0xbd909b71	-0.07060898
23	0xbf03008f	-0.5117273
24	0xbe79d254	-0.2439664
25	0x3ec898ac	0.3917898
26	0xbf4d3baa	-0.80169165
27	0xbd701267	-0.0586113
28	0xbe15bb53	-0.1462224
29	0xbd51414d	-0.051087666
30	0xbdcd1377	-0.10013478
31	0x3e29c45c	0.16578811
32	0xbf62021a	-0.88284457
33	0xbe7f76a8	-0.24947608
34	0xbefc0547	-0.49222776
35	0xbd202f1c	-0.039107427
36	0x3ed4edcf	0.41587684
37	0xbec075ac	-0.37589777
38	0xbf391e75	-0.723121
39	0x3f2b7493	0.66974753
40	0x3f1374a7	0.5759987
41	0x3f264d8a	0.64962065
42	0xbe0222f7	-0.1270865
43	0x3e0cb389	0.13740362
44	0xbe22174b	-0.15829198
45	0x400da514	2.2132006
46	0x3f1095f0	0.56478786
47	0xbed44072	-0.41455418
48	0xbe30082c	-0.17190617
49	0x3f20bb9c	0.6278627
50	0x3ea750b3	0.32678756
51	0xbe69735d	-0.22797914
52	0xbf41a86c	-0.75647616
53	0x3f98dbcb	1.1942075
54	0x3e0b71b0	0.13617587
55	0xbf059aff	-0.5218963
56	0x3e821b29	0.25411347
57	0xbfadd4c5	-1.3580557
58	0xbe9c2e14	-0.30503905
59	0x3e1517a9	0.14559807
60	0xbf790545	-0.97273666
61	0xbf5ed7b7	-0.87047905
62	0x3f9246cd	1.1427857
63	0xbe67d08b	-0.22638147
64	0xbe604cb5	-0.21904261
65	0xbe36e5c2	-0.17861083
66	0xbec24f89	-0.37951306
67	0xbf315323	-0.6926748
68	0xbee5e541	-0.4490147
69	0xbf7ed740	-0.99547195
70	0x3eb8e3c2	0.36111265
71	0xbe939223	-0.2882243
72	0x3e781cf5	0.24229796
73	0xbd8db16b	-0.069186054
74	0x3ee6f53c	0.45108974
75	0xbbd3b636	-0.00646093
76	0x3ef2dac6	0.47432536
77	0xbf08972c	-0.5335567
78	0xbeb854c2	-0.36002165
79	0xbe5d2305	-0.2159539
80	0x3eaf1811	0.3419805
81	0xbd9b5db6	-0.07586233
82	0xbecdd442	-0.40201002
83	0xbf80e402	-1.0069582
84	0xbd646db1	-0.055768672
85	0xbdd74e50	-0.10512984
86	0x3c144a90	0.00905098
87	0x3ec8dce9	0.3923104
88	0x3f311ecc	0.6918762
89	0x3e829792	0.25506264
90	0x3f38341c	0.7195451
91	0xbce2a2bc	-0.027665488
92	0xbe1e0d05	-0.15434654
93	0x3f78a9e0	0.9713421
94	0x3de685d9	0.11255998
95	0xbe8ee863	-0.27911672
96	0xbdcc7c26	-0.09984617
97	0x3f83fc31	1.0311338
98	0xbe8bf4b7	-0.2733514
99	0x3de9901d	0.114044406
100	0x3e9a8052	0.30176026
101	0x3f424436	0.7588533
102	0xbe43cde8	-0.19121516
103	0x3e353d27	0.17699109
104	0xbc5a2809	-0.013315209
105	0xbe36fff9	-0.17871083
106	0xbd4fb61f	-0.050710794
107	0x3f2a5a17	0.66543716
108	0xbf26f146	-0.65211904
109	0xbf30d7f5	-0.69079524
110	0xbf693fdf	-0.91113085
111	0xbfe14b7f	-1.7601165
112	0xbf6f23ef	-0.93414205
113	0x401a0c18	2.4069881
114	0x3e804275	0.25050703
115	0xbded4280	-0.115849495
116	0xbf13c890	-0.5772791
117	0xbedb0b97	-0.4278228
118	0x3e8a2dd6	0.26988095
119	0xbeb2a40a	-0.34890777
120	0x3eea3450	0.45743036
121	0x3b2ea377	0.0026647726
122	0x3eb8a5c9	0.36063984
123	0xbedb0a87	-0.4278147
124	0xbf3a932e	-0.7288083
125	0x3f0dccfd	0.5539091
126	0xbf6ff2bf	-0.93729776
127	0xbf400a20	-0.7501545
128	0x3cec26b4	0.028827049
129	0x3d77f664	0.06053771
130	0x3e3d3c16	0.18479952
131	0xbf988c00	-1.1917725
132	0x3eade3c0	0.33962822
133	0xbed99dd8	-0.42503238
134	0x3f157d5c	0.5839441
135	0xbfa729d1	-1.3059636
136	0x3e1098b0	0.14120746
137	0x3f13f20c	0.5779121
138	0x3f207ce4	0.6269057
139	0x3eb1b9d9	0.34712103
140	0xbe69a652	-0.22817352
141	0x3f8253ac	1.0181785
142	0xbed29431	-0.41128686
143	0xbbba31f4	-0.0056822244
144	0xbe039939	-0.12851419
145	0x3ee90548	0.45511842
146	0xbdf52704	-0.11970332
147	0xbef0eba5	-0.47054783
148	0x3d2464f5	0.040135343
149	0x3f096683	0.53672045
150	0x3ec1decc	0.37865293
151	0x3e2205bc	0.158225
152	0x3d29a75f	0.041419383
153	0x3dc1c4ff	0.09461402
154	0x3f2423ec	0.6411731
155	0xbdb724ea	-0.08942588
156	0xbea83384	-0.32851803
157	0xbd541ef5	-0.051787335
158	0xbe5d83e7	-0.21632348
159	0x3e2a7d22	0.16649297
160	0x3e1b95d6	0.15193877
161	0xbf8b1a78	-1.0867453
162	0x3ed52aa8	0.41634107
163	0xbeddaeb2	-0.43297344
164	0x3ecc2d82	0.3987847
165	0xbf49e4ff	-0.78865045
166	0x3e8def05	0.2772142
167	0xbf2d7b22	-0.6776601
168	0x3e4cd322	0.20002416
169	0x3e8fc4fe	0.2807998
170	0xbf2ecc6d	-0.6828068
171	0x3f4b6296	0.79447305
172	0xbfb20f56	-1.391093
173	0x3f20153c	0.625324
174	0x3f569006	0.8381351
175	0xbe8b2263	-0.27174672
176	0xbec43c5c	-0.383273
177	0xbf0c43e6	-0.54791105
178	0x3d603bb5	0.05474444
179	0x3e8d3951	0.2758279
180	0xbf09b520	-0.53792
181	0xbe8f3868	-0.27972722
182	0xbdff319f	-0.12460636
183	0x3affb600	0.0019509196
184	0xbf8f7954	-1.1208901
185	0xbeb69d6b	-0.35666975
186	0xbedd005c	-0.43164337
187	0x3f0a7702	0.5408784
188	0xbf575f44	-0.8412974
189	0x3cf47909	0.02984287
190	0xbf2e7b84	-0.6815722
191	0xbd533248	-0.051561624
192	0xbd9344cd	-0.07190857
193	0x3e12d560	0.14339209
194	0xbf9072ee	-1.1285074
195	0xbda60a40	-0.08107424
196	0xbe507bf7	-0.20359789
197	0xbeb398e4	-0.35077584
198	0xbef6cd5b	-0.4820355
199	0xbcb6c8fb	-0.022312632
200	0x3e2fd6b6	0.1717175
201	0x3eca5423	0.39517316
202	0x3d26cc77	0.040722337
203	0x3e735ae2	0.23765138
204	0x3ee28b0a	0.44246703
205	0xbd814a0b	-0.06312951
206	0xbf09c1a3	-0.5381109
207	0x3da8faf0	0.082509875
208	0x3e36d0c6	0.17853078
209	0xbe16e0b8	-0.14734161
210	0x3f1b0a55	0.6056264
211	0xbf54cc83	-0.8312456
212	0xbe119af4	-0.14219266
213	0xbe88f2f8	-0.2674787
214	0x3e15d154	0.14630634
215	0xbd9975fd	-0.074932076
216	0x3f375631	0.7161589
217	0xbfa08f80	-1.2543793
218	0xbe304a32	-0.17215803
219	0xbd50d8ee	-0.05098813
220	0xbd992415	-0.07477585
221	0x40943ee8	4.632679
222	0xbef43053	-0.47693118
223	0xbf05db23	-0.522875
224	0xbedd325f	-0.43202493
225	0xbe245320	-0.16047335
226	0xbe650eb3	-0.22368889
227	0x3ee233d0	0.44180155
228	0x3edebca1	0.43503287
229	0xbccd700a	-0.025077838
230	0xbf571189	-0.8401113
231	0x3eb6e325	0.35720173
232	0xbe1860a4	-0.14880615
233	0xbdd3f312	-0.10349096
234	0x402ee3a0	2.7326431
235	0x3cc39e77	0.023879273
236	0x3e41199e	0.18857428
237	0xbd539bdf	-0.051662322
238	0x3c72532f	0.01479034
239	0xbd62d281	-0.055376533
240	0x3e9a3d33	0.30124816
241	0xbf42baa7	-0.7606606
242	0xbf100e8c	-0.56272197
243	0xbedfa0ff	-0.43677518
244	0xbed2488e	-0.4107098
245	0xbcefd0bb	-0.029274335
246	0x3f266634	0.649997
247	0xbf53635a	-0.82573473
248	0xbe9677e7	-0.29388353
249	0xbe40bcd6	-0.18822035
250	0xbf4848a7	-0.7823586
251	0x3eabf4dc	0.3358525
252	0x3f02d621	0.51107985
253	0xbedbe2ed	-0.42946568
254	0x3f1ac947	0.60463375
255	0xbf319077	-0.6936106

fc2.bias f4 [256]
0	0xbe9aba81	-0.30220416
1	0x3f3432a7	0.7038979
2	0xbe26618e	-0.16248152
3	0x3d930dc3	0.07180359
4	0x3d33cfcf	0.043899354
5	0xbc00e715	-0.007867594
6	0xbd89383e	-0.067001805
7	0xbdade4c3	-0.084908985
8	0x3e892db6	0.26792687
9	0x3d767790	0.060172617
10	0x3e7e8063	0.24853663
11	0x3ea959d1	0.33076337
12	0xbee76669	-0.4519532
13	0xbebceca7	-0.368993
14	0x3d93edad	0.072230674
15	0x3c027a67	0.007963753
16	0xbedbbb3b	-0.42916283
17	0xbe08b413	-0.13349943
18	0xbe0006af	-0.1250255
19	0x3cb757f8	0.022380814
20	0xbe805db2	-0.25071484
21	0x3dea6cf9	0.11446566
22	0xbe3dec31	-0.18547131
23	0xbe60c713	-0.21950941
24	0xbe5a234e	-0.2130253
25	0x3e487ffd	0.19580074
26	0x3e2c0c21	0.16801502
27	0xbdf7302b	-0.12069734
28	0xbe7748f2	-0.2414892
29	0x3ee1c344	0.44094288
30	0xbea62928	-0.32453275
31	0xbe942adf	-0.28938958
32	0xbe92ac7b	-0.28647217
33	0x3f4395c5	0.76400405
34	0xbda05cf1	-0.07830227
35	0xbc80f633	-0.015742397
36	0xbede29f4	-0.43391383
37	0xbe7c6f19	-0.24651755
38	0x3e56a3a6	0.20960864
39	0x3d49a17e	0.049226277
40	0x3e4ef24c	0.20209616
41	0xbea46bee	-0.32113594
42	0xbd5f893a	-0.05457423
43	0x3e260e4a	0.16216388
44	0xbe0ff8e5	-0.1405979
45	0xbd29b906	-0.041436218
46	0x3df87702	0.12132074
47	0xbd82b13a	-0.063814595
48	0x3d9753c9	0.073890276
49	0x3f24ec55	0.64423114
50	0xbe8f4b81	-0.27987292
51	0xbe27bf54	-0.1638158
52	0x3cc478e9	0.023983436
53	0x3f05968e	0.52182853
54	0xbddc336d	-0.10751996
55	0xbe16f50f	-0.1474192
56	0xbe4569b6	-0.19278607
57	0x3dc8ffe2	0.09814431
58	0x3b3a1b12	0.0028397483
59	0x3d944da5	0.07241372
60	0x3dcf00b1	0.10107554
61	0xbca086c9	-0.01959552
62	0xbd2d6c29	-0.042339478
63	0xbe8b2ab5	-0.2718102
64	0xbd0e1e00	-0.03469658
65	0xbab722e2	-0.0013972188
66	0x3eedd2bf	0.4644985
67	0xbe571c03	-0.2100678
68	0x3ed8023a	0.421892
69	0x3e48d970	0.19614196
70	0x3e14863a	0.14504328
71	0x3e322f17	0.17400776
72	0xbe7d3ca5	-0.24730165
73	0xbea93244	-0.33046162
74	0x3ebc9455	0.36831918
75	0xbcacb0fa	-0.021080483
76	0x3e25a5bc	0.16176504
77	0x3ddaa01e	0.10675071
78	0x3e74c021	0.23901416
79	0x3e16235d	0.14661928
80	0xbddf3034	-0.10897866
81	0xbe9db057	-0.307986
82	0xbda3513a	-0.07974477
83	0xbd9ffc0c	-0.07811746
84	0x3e971d9b	0.29514775
85	0xbd8a957b	-0.067667924
86	0xbd6591fc	-0.056047425
87	0x3e52f3d0	0.2060082
88	0xbd49414f	-0.04913455
89	0x3d70007d	0.058594216
90	0x3edec0d9	0.43506506
91	0xbd4677e3	-0.048454177
92	0xbda42e08	-0.08016592
93	0xbda94617	-0.08265322
94	0x3dcd3a74	0.10020915
95	0x3f478fdb	0.7795388
96	0x3dc70606	0.09717946
97	0x3f44758d	0.7674187
98	0x3e76f1a7	0.2411562
99	0x3f08952c	0.5335262
100	0xbd4d5db5	-0.050138194
101	0xbcf51549	-0.029917376
102	0x3db1dafa	0.086843446
103	0xbd426894	-0.047463015
104	0xbe7443ed	-0.23854037
105	0x3f04724e	0.51736915
106	0xbe226670	-0.1585939
107	0x3f4b66db	0.7945382
108	0xbe9076f0	-0.28215742
109	0xbe39481f	-0.18093918
110	0x3f0d7fa4	0.5527289
111	0x3de322d6	0.11090629
112	0x3dd7a25b	0.10529014
113	0x3f45c446	0.77252614
114	0xbd341e08	-0.043973953
115	0x3e81ea1c	0.25373924
116	0xbe53ceb5	-0.20684321
117	0x3e98bf08	0.29833245
118	0xbc2369cd	-0.009973955
119	0xbeb95dcb	-0.3620437
120	0x3e918e3b	0.28428826
121	0x3ddb665d	0.107128836
122	0x3d8addc2	0.06780578
123	0x3f4362f9	0.76322895
124	0x3f311c98	0.69184256
125	0xbd26ddc4	-0.040738836
126	0xbb646bcd	-0.0034854293
127	0x3f1c914d	0.6115921
128	0x3f4db7ac	0.80358386
129	0x3e65fc6d	0.22459574
130	0x3e801a52	0.2502008
131	0x3f16c130	0.5888853
132	0xbdb9b854	-0.09068361
133	0x3ef588fc	0.47956073
134	0xbd9d7450	-0.076882005
135	0xbf06e3b6	-0.5269121
136	0x3f179e6a	0.59226096
137	0x3e95748d	0.29190484
138	0xbe98cca5	-0.2984363
139	0xbe8a4a8e	-0.27010006
140	0xbdcbff1a	-0.09960766
141	0x3e920de8	0.28526235
142	0xbdf2107e	-0.11819552
143	0x3dae054e	0.084971055
144	0x3e290fb9	0.16509904
145	0xbe09cac6	-0.13456258
146	0x3bec9798	0.00722022
147	0xbee4c9ed	-0.44685307
148	0x3dd8ff4d	0.1059557
149	0xbe0b4584	-0.13600737
150	0x3dd3dfbb	0.103454076
151	0xbd5bd5b3	-0.053670596
152	0xbea2f1eb	-0.31825194
153	0x3e7b5503	0.24544148
154	0xbe9ff955	-0.31244913
155	0xbe0e43e0	-0.1389308
156	0x3cf9363f	0.030421374
157	0x3e6e02f7	0.23243318
158	0xbdfc2f1a	-0.123136714
159	0xbe54a82d	-0.20767279
160	0xbe815787	-0.2526209
161	0x3e19a074	0.15002614
162	0xbd57eef7	-0.05271813
163	0x3cf2b450	0.029626995
164	0x3eb13971	0.34614137
165	0xbd553eb5	-0.052061755
166	0x3dc129f4	0.0943183
167	0x3db9b4c3	0.09067681
168	0xbcb8e119	-0.022568272
169	0xbc335881	-0.010946394
170	0xbe2028ed	-0.15640612
171	0xb9881e18	-0.00025962363
172	0xbe3759e0	-0.17905378
173	0xbda8a2ab	-0.082341515
174	0x3f2cf31a	0.67558444
175	0x3eca30ce	0.3949036
176	0x3ea50972	0.3223377
177	0xbd75c5f3	-0.060003232
178	0x3f5d0c66	0.86347044
179	0x3f378f0c	0.7170265
180	0xbd1a710a	-0.03770546
181	0x39d41ce9	0.0004045733
182	0x3e38ae6b	0.18035285
183	0xbe5a49fe	-0.21317288
184	0xbdf9073d	-0.12159584
185	0xbd18ef88	-0.03733781
186	0x3e7a6a2a	0.24454561
187	0x3f3599ec	0.7093799
188	0x3eba84b9	0.36429384
189	0x3f4396c4	0.76401925
190	0xbdfcf53d	-0.12351463
191	0xbc0504c1	-0.008118809
192	0xbe5a4d4f	-0.21318553
193	0x3e086bc1	0.13322355
194	0xbb9be3f5	-0.004757399
195	0xbca0b8bd	-0.01961934
196	0x3da0eeee	0.07858072
197	0x3e99a328	0.3000729
198	0xbe6f4bbd	-0.23368736
199	0xbcd94dde	-0.026526388
200	0xbe340755	-0.17580922
201	0x3d082a10	0.03324324
202	0x3f457ad2	0.77140534
203	0x3da11c9b	0.07866784
204	0x3e5739d2	0.2101815
205	0x3d5c3470	0.053760946
206	0xbeaf2caa	-0.34213763
207	0xbd9819bf	-0.07426786
208	0x3ef01751	0.4689279
209	0xbd9d0ca1	-0.076684244
210	0xbe22b84c	-0.15890616
211	0xbec13ddb	-0.37742504
212	0xbe64a5df	-0.223289
213	0xbd533f96	-0.051574312
214	0x3dbf0e3a	0.093288854
215	0xbe5a2589	-0.21303381
216	0xb9f5edf9	-0.00046907345
217	0xbbf1dc5c	-0.007381005
218	0xbd8d4d08	-0.06899458
219	0x3e265855	0.16244633
220	0x3d89fec4	0.06738046
221	0x3d0f9e0f	0.035062846
222	0xbd9a78fb	-0.075426064
223	0x3dfd409d	0.1236584
224	0x3dc0a07a	0.094056085
225	0x3ea5d8d3	0.32391986
226	0x3f347b34	0.70500493
227	0xbe9653a8	-0.293607
228	0x3f37ad69	0.7174898
229	0x3c99d825	0.018779824
230	0xbe053d9c	-0.13011783
231	0x3ce60b33	0.028081512
232	0xbeb1c5f7	-0.34721348
233	0x3e1e28e1	0.15445282
234	0x3e03f02c	0.12884587
235	0x3e5c13a0	0.21491861
236	0xbcd4544a	-0.025919098
237	0xbe244fe5	-0.16046102
238	0xbdc8e066	-0.098084256
239	0x3f4217c2	0.758175
240	0xbe144336	-0.14478764
241	0x3a3f5d7d	0.00073000026
242	0x3dd34320	0.103155375
243	0x3e7609c6	0.24027166
244	0x3e84ed07	0.25962088
245	0xbd14ce9f	-0.03632986
246	0xbe1fe9d7	-0.15616547
247	0xbc8d5e06	-0.017256748
248	0x3e77ea31	0.2421043
249	0x3e57729f	0.21039818
250	0x3aba7ee2	0.0014228488
251	0x3e32ad04	0.17448813
252	0x3bca03fc	0.0061650258
253	0xbe643db4	-0.22289163
254	0xbd4aaee2	-0.049483187
255	0x3c697fdb	0.0142516745

fc3.weight f4 [256, 256]
0	0x3d47ebb9	0.048808787
1	0x3ea6e6a4	0.3259784
2	0xbb84a2db	-0.004047734
3	0xbcecdf58	-0.028915092
4	0xbceab2ac	-0.02864965
5	0x3e8a0b4f	0.26961753
6	0xbcedd102	-0.029030327
7	0x3cf9a854	0.030475773
8	0x3db58de8	0.08864957
9	0x3f4159bc	0.7552755
10	0x3d2b8558	0.041875213
11	0x3e5152dc	0.20441765
12	0x3e5e6bf5	0.2172087
13	0x3ddadde7	0.10686856
14	0xbdb8c9d1	-0.090228684
15	0xbd42bf0d	-0.04754548
16	0xbf00b022	-0.5026876
17	0xbe888628	-0.26664853
18	0xbf2f9e36	-0.68600786
19	0xbd0945c2	-0.03351379
20	0x3ba3cac1	0.0049985354
21	0x3e93c7a4	0.2886325
22	0xbdc70c61	-0.09719158
23	0xbf422695	-0.7584012
24	0xbe694121	-0.22778751
25	0xbb4045d2	-0.002933849
26	0x3f10777b	0.5643231
27	0x3ef31628	0.4747784
28	0xbc78f856	-0.015195927
29	0x3eb7582c	0.35809457
30	0xbdadaa31	-0.08479727
31	0xbd904fd6	-0.070464775
32	0x3eb8a09f	0.36060044
33	0x3e91d4d4	0.28482687
34	0xbc137619	-0.009000325
35	0xbd7ac50b	-0.06122307
36	0xbde583a2	-0.112067476
37	0xbe08f34d	-0.13374062
38	0x3f1df0f5	0.61695796
39	0xbc876023	-0.016525334
40	0x3cc47020	0.023979247
41	0xbcdf3f48	-0.027251855
42	0xbd1adafc	-0.037806496
43	0x3f3092c2	0.68973935
44	0xbec307d1	-0.380919
45	0x3d126731	0.035742942
46	0x3cf199df	0.029492317
47	0xbd1f92a6	-0.038958214
48	0xbe0b463f	-0.13601016
49	0x3e75c42b	0.24000613
50	0xbdd03bd8	-0.10167664
51	0xbda1b5ae	-0.07895981
52	0x3efd005e	0.49414343
53	0x3e997cdb	0.2997807
54	0x3dd53de1	0.10412193
55	0x3e850cd4	0.2598635
56	0xbed67e34	-0.4189316
57	0x3f1e0fc7	0.61742824
58	0x3efc408e	0.49268
59	0x3cd7da1b	0.026349118
60	0x3ea7e905	0.32794967
61	0xbcd4da4d	-0.025983
62	0xbe4e3927	-0.2013899
63	0xbf351c73	-0.70746535
64	0x3eb8b330	0.3607421
65	0xbd2d6ecf	-0.042342003
66	0x3e411e56	0.18859228
67	0x3da0763a	0.0783505
68	0x3ed0e292	0.4079786
69	0xbee087a6	-0.43853492
70	0x3e5717ff	0.21005248
71	0x3cbd9391	0.023141654
72	0xbda0b9f2	-0.07847966
73	0xbed10810	-0.40826464
74	0x3a6f1a40	0.0009121038
75	0x3d9d3ad8	0.07677239
76	0x3ee8cba0	0.45467854
77	0x3e53c2c0	0.2067976
78	0x3e352608	0.17690289
79	0xbd9afd38	-0.07567829
80	0xbeea18b5	-0.45721975
81	0x3eafe155	0.34351602
82	0xbea57683	-0.3231698
83	0xbd8ef2c9	-0.06979901
84	0x3ea1ef94	0.31628096
85	0x3d389d51	0.045071904
86	0xbbbf21ac	-0.0058328714
87	0x3e471641	0.19442083
88	0xbbfd0d29	-0.007722516
89	0x3e480a1c	0.19535106
90	0x3ecf428a	0.40480453
91	0xba6f0ef4	-0.00091193547
92	0x3998fc76	0.00029179797
93	0x3dc4b47c	0.09604737
94	0x3e0bf7c0	0.13668728
95	0x3e992ae5	0.29915538
96	0x3e8a09a5	0.26960483
97	0x3e905e6f	0.28197047
98	0x3d85d9c4	0.06535676
99	0x3ee88f7c	0.4542197
100	0x3f2a4e79	0.6652599
101	0xbd6ff583	-0.058583748
102	0x3e8dc434	0.27688754
103	0xbd6e5e57	-0.05819544
104	0xba83f6f8	-0.0010068109
105	0x3facb98d	1.3494126
106	0xbe65cdbe	-0.22441766
107	0x3e9b2117	0.30298683
108	0x3e9a57b3	0.30145034
109	0x3d86b6ac	0.06577811
110	0x3ece4f65	0.40294948
111	0xbd925845	-0.07145742
112	0x3f43f7bd	0.76549894
113	0x3eafd81f	0.34344575
114	0x39ae43f5	0.00033238498
115	0x3cecf2e5	0.028924415
116	0xbf1ef1c5	-0.6208766
117	0x3e2d2852	0.16909912
118	0x3dc7a71f	0.09748673
119	0xbf75d5b2	-0.960292
120	0x3e1a19fe	0.15048978
121	0x3d42e372	0.04758019
122	0x3f8d5e8f	1.1044482
123	0x3e8db1d7	0.27674744
124	0x3eef4a11	0.46736196
125	0x3ea512d2	0.3224092
126	0x3e295825	0.1653753
127	0x3f131e44	0.57468057
128	0x3e9e27e9	0.30889824
129	0x3e0eb8a7	0.13937627
130	0x3e4c18d6	0.19931349
131	0x3e01e84e	0.12686273
132	0xbf272e98	-0.6530547
133	0x3e6f0231	0.2334068
134	0xbdc7f183	-0.097628616
135	0xbde4ef6d	-0.11178479
136	0x3e8755d1	0.2643266
137	0x3d1fc095	0.03900202
138	0xbf1291f7	-0.57253975
139	0x3d838cbf	0.064233296
140	0x3a96a783	0.0011494014
141	0x3e15cdb1	0.14629246
142	0xbf0e81b9	-0.5566669
143	0x3ed6e62c	0.41972482
144	0x3ec14d27	0.37754175
145	0xbf584790	-0.84484196
146	0xbd8f7c52	-0.07006134
147	0xbdddd349	-0.10831315
148	0x3abb27be	0.0014278812
149	0xbd83f786	-0.06443696
150	0x3e07fd49	0.13280214
151	0xbc80ca35	-0.01572142
152	0xbe7d0351	-0.24708296
153	0xbccf54a6	-0.025308918
154	0xbf704d74	-0.93868184
155	0x3dcc22bb	0.09967562
156	0x3f054be9	0.52068955
157	0x3e9bdefb	0.30443558
158	0x3df9c113	0.12195029
159	0x3e8ba010	0.27270555
160	0x3cd88a50	0.02643314
161	0x3ed3a1cc	0.4133438
162	0xbf37071e	-0.71495235
163	0x3d82bcd2	0.06383671
164	0xbe6fc4fd	-0.23414989
165	0x3c0c8984	0.008577708
166	0x3e28c14e	0.1647999
167	0x3edb1657	0.4279048
168	0xbc637f70	-0.013885364
169	0x3ea3329d	0.31874552
170	0xbf3d927c	-0.7405164
171	0xbd8ade49	-0.06780679
172	0xbedb7bde	-0.4286794
173	0xbd6d2c14	-0.057903364
174	0x3f06df5d	0.52684575
175	0x3d2831db	0.04106317
176	0x3e0dcf50	0.13848615
177	0xbc431e40	-0.011909068
178	0x3eaedc5b	0.34152493
179	0x3e90d3cc	0.28286588
180	0x3c8112ed	0.015756095
181	0xbcd5eabd	-0.026112908
182	0x3e82c641	0.2554188
183	0xbf95ac24	-1.1693158
184	0xbea2bfe5	-0.3178703
185	0xbde60d5c	-0.11233017
186	0x3f903a26	1.1267745
187	0x3e919c41	0.28439525
188	0x3e2eda58	0.17075479
189	0x3e9b8c11	0.303803
190	0xbcd5487b	-0.026035538
191	0x3b79b699	0.0038103221
192	0xbec19f5f	-0.37816903
193	0x3f56c64d	0.8389633
194	0x3d13272a	0.03592602
195	0xbd78e95d	-0.060769428
196	0x3f23b840	0.6395302
197	0x3e1061ae	0.14099762
198	0xbdfffc3c	-0.12499282
199	0x3d392cd8	0.045208782
200	0x3db5b2b7	0.08871978
201	0xbd1a9a0a	-0.03774456
202	0x3e927d95	0.28611436
203	0x3ec53057	0.38513443
204	0x3e95d25c	0.29262054
205	0xbe3b3bac	-0.18284482
206	0xbd5829e3	-0.05277432
207	0x3e86436e	0.2622332
208	0x3e448449	0.19191088
209	0xbd9733f3	-0.073829554
210	0xbd83ae1c	-0.06429693
211	0xbe92e5d8	-0.28690982
212	0xbe0fb9b0	-0.14035678
213	0xbb7a94f6	-0.003823576
214	0x3ed2bb61	0.41158584
215	0xbe310523	-0.17287116
216	0xbc9619e8	-0.0183229
217	0xbd2064e4	-0.039158717
218	0xbdd74e86	-0.10513024
219	0x3ebad1df	0.36488244
220	0xbde56bb0	-0.112021804
221	0xbe6553e1	-0.22395279
222	0xbd92d142	-0.07168819
223	0x3e72a641	0.23696233
224	0xbe9f34f9	-0.31095102
225	0x3eb06bfa	0.3445738
226	0x3e97e314	0.29665434
227	0xbf992c0f	-1.1966571
228	0x3e9a17e3	0.3009635
229	0xbd548fff	-0.051895138
230	0x3d4d3c72	0.050106473
231	0x3d05c9be	0.0326631
232	0xbce1a955	-0.027546564
233	0xbe99abde	-0.30013937
234	0x3e4d50b3	0.20050316
235	0x3f091f7c	0.53563666
236	0x3d66df72	0.056365438
237	0x3e3d427e	0.18482396
238	0xbe490048	-0.19629014
239	0x3eaa7164	0.33289635
240	0xbd89a720	-0.0672133
241	0x3d5b7285	0.05357601
242	0x3ed309b2	0.41218334
243	0xbb39700f	-0.0028295552
244	0x3de75694	0.1129581
245	0xbecc3150	-0.39881372
246	0xbd64f4c8	-0.055897504
247	0xbe57af0c	-0.21062869
248	0x3ed887aa	0.42291003
249	0x3e3debe4	0.18547016
250	0xbe160726	-0.14651164
251	0x3f4f6e63	0.8102781
252	0x3d97cb66	0.07411842
253	0xbe4d2dc2	-0.20036986
254	0x3c4a7014	0.012355823
255	0xbbf0c0f8	-0.0073472224

fc3.bias f4 [256]
0	0x3f22073f	0.63292307
1	0x3d62004a	0.055176057
2	0x3e056c18	0.13029516
3	0xbd8432db	-0.064550124
4	0xbd81f66d	-0.0634583
5	0x3e3db2ea	0.18525282
6	0xbd37d1ed	-0.044877935
7	0x3e6fc71e	0.23415801
8	0x3f089664	0.5335448
9	0x3f2297ba	0.63512766
10	0x3f44257e	0.7661971
11	0xbd1797b6	-0.037009917
12	0x3b9a84ac	0.0047155228
13	0xbd0982d6	-0.03357204
14	0x3e7b3218	0.24530828
15	0x3ea893cb	0.32925257
16	0x3ef80a1b	0.4844521
17	0xbbdc097c	-0.006714998
18	0x3defad6a	0.11702998
19	0x3ef9a4a1	0.48758414
20	0x3effdfbf	0.49975392
21	0xbcbc338b	-0.022973796
22	0xbd53a35b	-0.05166946
23	0x3be16fc2	0.0068797776
24	0xbe2a98f7	-0.16659914
25	0xbd806de1	-0.06270958
26	0xbd3e482c	-0.046455547
27	0xbda9ea79	-0.08296675
28	0xbe775609	-0.24153914
29	0x3e76277b	0.24038498
30	0xbd9cf2c5	-0.07663492
31	0xbd401e9e	-0.0469042
32	0x3e17e72d	0.1483428
33	0x3efa148e	0.48843807
34	0xbd737356	-0.059436165
35	0xbc63aa58	-0.013895594
36	0x3dea71c2	0.11447479
37	0xbd09a835	-0.03360768
38	0x3d8be439	0.068306394
39	0x3da89715	0.082319416
40	0xbd13a51e	-0.03604614
41	0x3f2fdae3	0.6869337
42	0x3e9fb5f5	0.3119351
43	0x3e092374	0.1339243
44	0x3eb5801e	0.35449308
45	0x3f31aafc	0.69401526
46	0x3e7350d9	0.2376131
47	0x3d00c866	0.031441115
48	0x3f1bd2d5	0.6086858
49	0x3b305af7	0.0026909688
50	0x3f0c778e	0.54869926
51	0x3ecd76aa	0.40129596
52	0xbc984bf9	-0.018590914
53	0x3f4c8241	0.7988625
54	0x3d5c8fda	0.053848125
55	0x3d0166ff	0.031592365
56	0x3f09b9c2	0.5379907
57	0x3f016064	0.50537705
58	0x3ebf20dc	0.37329757
59	0x3f10ed5d	0.5661219
60	0x3e6d5b53	0.23179369
61	0x3b37b6a7	0.0028032453
62	0x3d00ee5b	0.031477313
63	0xbda4df1d	-0.08050368
64	0x3ec0f9d0	0.37690592
65	0x3c5c7448	0.013455458
66	0x3ee18262	0.44044787
67	0xbda7d2b0	-0.08194482
68	0xbd80e58a	-0.06293781
69	0xbd7278d0	-0.059197247
70	0x3e876979	0.26447657
71	0xbdb1b7a1	-0.086776026
72	0xbdc2dddc	-0.095149726
73	0xbe1f86e3	-0.15578799
74	0x3f221bc5	0.6332362
75	0x3ef6c964	0.48200524
76	0x3f57b51f	0.84260744
77	0xbe2ae664	-0.1668945
78	0xbe0bb94f	-0.13644908
79	0xbca6e313	-0.02037195
80	0x3c04e6c4	0.008111659
81	0xbe81324f	-0.25233695
82	0xbda0236f	-0.078192584
83	0xbc9091ec	-0.017647706
84	0x3c90e108	0.017685428
85	0x3ed9c50a	0.4253314
86	0xbd909397	-0.070594005
87	0x3f1457df	0.5794658
88	0x3f3411c3	0.703396
89	0x3ca52105	0.020157347
90	0xbd847242	-0.064671054
91	0x3eb061e9	0.344497
92	0xbcf1084a	-0.029422898
93	0xbc075bb0	-0.008261606
94	0x3a2e9760	0.000666013
95	0x3bc2fae7	0.00595032
96	0x3e29bdd1	0.16576315
97	0xbefad893	-0.48993358
98	0x3ec9faa7	0.39449045
99	0xbe49f0fa	-0.19720832
100	0x3e28d2d7	0.16486679
101	0x3d01aacd	0.03165703
102	0xbdd872e7	-0.10568791
103	0x3e273383	0.16328244
104	0xbb8011a5	-0.0039083534
105	0x3e2a4ef2	0.16631678
106	0x3e9e0e37	0.3087022
107	0x3e51166e	0.20418712
108	0xbd062b6e	-0.03275626
109	0xbe4b549f	-0.19856499
110	0x3cf4b89f	0.02987319
111	0x3f3c7270	0.7361212
112	0xbd1ce416	-0.038303457
113	0x3ea3fa35	0.3202683
114	0x3d162657	0.036657657
115	0xbd6e1e37	-0.058134284
116	0xbdf6bd8d	-0.12047873
117	0x3f040171	0.515647
118	0x3eb021de	0.3440084
119	0xbcd5074e	-0.02600446
120	0xbd9ac119	-0.07556362
121	0x3eac4b78	0.33651328
122	0x3ce13f06	0.027495872
123	0xbd69e8e4	-0.057106867
124	0xbe884af5	-0.26619688
125	0x3f02100c	0.50805736
126	0x3e4e1cff	0.20128249
127	0xbdd04b7b	-0.10170647
128	0xbeca0059	-0.3945339
129	0xbd4e3b4d	-0.050349522
130	0xbce3a9fe	-0.02779102
131	0x3ea9b099	0.33142546
132	0x3c4dbf6b	0.012557845
133	0x3bced128	0.0063115545
134	0xbf0acef7	-0.54222053
135	0x3d294c40	0.041332483
136	0xbd48db8c	-0.0490375
137	0x3f02a04a	0.5102583
138	0x3ac4808e	0.0014991926
139	0x3ee51242	0.44740492
140	0x3d39c203	0.04535104
141	0x3f4e4fb4	0.8059037
142	0xbd1c98ff	-0.038231846
143	0xbdee0bfc	-0.116233796
144	0xbeecb7b3	-0.462339
145	0x3ee12b67	0.43978426
146	0x3d286dab	0.041120213
147	0x3e24d071	0.16095139
148	0x3f1d2469	0.6138368
149	0x3dcda864	0.100418836
150	0x3dad172e	0.08451687
151	0x3f1d754a	0.61507094
152	0x3bf48e0b	0.007463222
153	0x3ee052d0	0.4381318
154	0x3edfb4e6	0.43692702
155	0x3c35066a	0.0110488925
156	0xbd9344da	-0.07190867
157	0x3f0b2262	0.5434934
158	0x3b368124	0.002784797
159	0x3db9dda4	0.09075478
160	0x3ef9367b	0.48674378
161	0x3eac8908	0.33698297
162	0x3c82d29b	0.015969565
163	0x3f0ce1bd	0.5503195
164	0xbdaaecd7	-0.08345955
165	0x3ce5e526	0.028063368
166	0x3eec72e5	0.46181408
167	0x3e0dee43	0.13860421
168	0x3c4da8cd	0.012552452
169	0xbc64c361	-0.013962598
170	0x3e15a336	0.14613041
171	0xbd43ac5e	-0.047771804
172	0xbd390955	-0.045174915
173	0xbd9c67f1	-0.07637013
174	0x3e00f8bd	0.12594886
175	0x3c929250	0.017892033
176	0x3cc84ebd	0.024451608
177	0x3f2c56b1	0.6731978
178	0xbd9dfa27	-0.077137284
179	0x3ed1f483	0.4100686
180	0xbea18f1a	-0.3155449
181	0x3e3de14f	0.1854298
182	0xbe2bf5b4	-0.16792947
183	0xbd594062	-0.053039916
184	0x3f026050	0.5092821
185	0xba9f6fba	-0.0012164034
186	0x3edd1517	0.43180153
187	0x3f2ca71f	0.67442507
188	0xbdfc6e1a	-0.12325688
189	0x3e034b3f	0.12821673
190	0x3ebc926a	0.36830455
191	0xbc6074a9	-0.013699689
192	0xbc76762b	-0.015042822
193	0xbf15b5fe	-0.58480823
194	0x3c0b9b4c	0.008520912
195	0x3f042142	0.5161325
196	0xbc879f17	-0.016555352
197	0x3f2328ea	0.63734305
198	0x3c620df1	0.013797269
199	0xbc0f20ab	-0.008735816
200	0xbd98bbdd	-0.07457707
201	0x3d80bfd8	0.06286591
202	0x3ebdc9e8	0.37068105
203	0x3f0d24fe	0.5513457
204	0xbb9cce1b	-0.004785312
205	0x3eb54efc	0.35411823
206	0xbd6eb1b8	-0.058274955
207	0x3b7c58ea	0.0038505145
208	0xbd1e7b76	-0.03869196
209	0x3d1a8bf4	0.037731126
210	0xbe2386b4	-0.15969354
211	0x3ea19d1a	0.3156517
212	0xbea22dd6	-0.31675595
213	0x3f08207a	0.53174555
214	0x3eca96b2	0.39568096
215	0x3ecc7770	0.39934874
216	0xbcfa9ffa	-0.03059386
217	0x3e12aca3	0.14323668
218	0xbc9bed1f	-0.019033967
219	0xbd0a45c6	-0.033757947
220	0x3ebf8ab6	0.37410516
221	0xbe80eddb	-0.2518147
222	0xbe44a82f	-0.19204782
223	0x3e0abd13	0.13548689
224	0xbd6998d1	-0.057030503
225	0x3eac2997	0.3362548
226	0x3f2e1331	0.67998034
227	0xbd159503	-0.03651906
228	0x3d59d793	0.053184103
229	0x3f33a793	0.7017757
230	0xbd854845	-0.06507925
231	0xbdadab4b	-0.08479937
232	0x3dbdebf4	0.0927352
233	0xbea7b430	-0.3275466
234	0xbe125cca	-0.14293209
235	0x3cc5beb8	0.024138793
236	0x3b240ccc	0.0025032042
237	0xbec2febd	-0.38084975
238	0xbdb39e1f	-0.087703936
239	0x3e58dd6e	0.21178219
240	0x3ea28904	0.3174516
241	0x3f072c39	0.52801853
242	0xbe21f5bf	-0.15816401
243	0x3ecc79ca	0.39936668
244	0x3e3426ce	0.17592928
245	0x3efd4387	0.49465582
246	0x3d3fa49c	0.046787843
247	0x3edbe5a9	0.42948654
248	0xbd56d2fa	-0.052447297
249	0x3f0ed65e	0.5579585
250	0x3ebd4968	0.36970067
251	0x3e2a8b19	0.16654624
252	0x3eb7e5f4	0.35917628
253	0x3b2a85b5	0.0026019637
254	0x3e9c8790	0.30572176
255	0xb92fbb0d	-0.00016758982

fc4.weight f4 [5, 256]
0	0x3e16e0ed	0.1473424
1	0x3b4f2502	0.0031607752
2	0xbec4e46d	-0.38455525
3	0x4033974b	2.8061092
4	0x3d902a4e	0.07039319
5	0x3f5ad412	0.85479844
6	0x3d468682	0.04846812
7	0x3eb37eb3	0.350576
8	0x3e30a22c	0.17249364
9	0x3fbc3c60	1.4705925
10	0x3ed6ab4d	0.41927567
11	0xbd68714a	-0.056748666
12	0x3d244c17	0.040111627
13	0xbd508c8a	-0.05091528
14	0xc0011b66	-2.0172973
15	0x3edd550c	0.43228948
16	0x3e5f3a1e	0.21799514
17	0x40587fd2	3.3828015
18	0xbd8d9b26	-0.06914358
19	0x3e9ba675	0.30400434
20	0x3e7dfbd9	0.24803104
21	0xbd0333ce	-0.032031827
22	0x3e2a4424	0.16627556
23	0x3d14995e	0.036279075
24	0xbeaf63c2	-0.34255797
25	0x3c8a5fe3	0.016891425
26	0x3cd1d0fd	0.025612349
27	0x3c09f599	0.008420371
28	0xbf6ddce9	-0.9291521
29	0xbee67cb3	-0.45017013
30	0x3cef24bd	0.029192323
31	0x3d150b3f	0.03638768
32	0xbf72f436	-0.94903886
33	0x3ec9c8a7	0.39410898
34	0x3c0071fa	0.007839674
35	0x3cb0ac5d	0.021566564
36	0x3fa0d39d	1.2564579
37	0xbc8d0029	-0.01721199
38	0xbf534efd	-0.825424
39	0xbf0cae80	-0.54953766
40	0x3f89caf5	1.0765063
41	0xbf7c88ac	-0.98646045
42	0xbf343c88	-0.70404863
43	0xbefdd821	-0.49578956
44	0x3ea5c0fc	0.32373798
45	0x3f0d7e9b	0.5527131
46	0x3e685ca6	0.22691593
47	0xbd33b224	-0.04387106
48	0x3e880ef4	0.26573908
49	0x3d0601f4	0.032716706
50	0xbf363af7	-0.71183723
51	0x3e70a331	0.23499753
52	0x3d13437e	0.035953037
53	0xbfe7ae6b	-1.8100103
54	0xbea7856f	-0.3271899
55	0x3c84a09b	0.016189864
56	0x3e7768f4	0.2416113
57	0x3e43fcef	0.19139455
58	0xbf433080	-0.7624588
59	0x3e6406f3	0.22268276
60	0x3f337ff3	0.7011711
61	0xbcb82488	-0.022478357
62	0x3ef3167a	0.47478086
63	0x3cd3e5ef	0.025866477
64	0x3ebfc939	0.37458208
65	0xbd32a8d2	-0.04361803
66	0x3ea99762	0.33123308
67	0x3c4a6c58	0.012354933
68	0xbcf34754	-0.029697098
69	0x3bc0870d	0.0058754743
70	0x3ed85533	0.42252502
71	0x3cc34654	0.023837246
72	0xbc1761b5	-0.009239604
73	0xbdb20e58	-0.08694142
74	0x3d8ce3e6	0.06879406
75	0x3e99c636	0.30034035
76	0xbe28c4fe	-0.16481397
77	0x4051ca2c	3.2779646
78	0xc02c42c2	-2.6915746
79	0xbd3eb2d5	-0.046557266
80	0xbc8bf221	-0.01708323
81	0xbe76ac32	-0.24089125
82	0xbd53aee8	-0.051680475
83	0x3fbaebbd	1.4603192
84	0xbc32e725	-0.010919367
85	0x3ec58ae0	0.38582516
86	0xbbbea2e5	-0.0058177584
87	0xbf2bd6ef	-0.6712484
88	0xbf38e17d	-0.7221907
89	0x3ee5c701	0.4487839
90	0xbeaa06de	-0.33208364
91	0x3eb4c2bc	0.3530482
92	0xbcb42277	-0.02198909
93	0xbbf5a320	-0.0074962527
94	0x3d3d47aa	0.046210922
95	0x3beeccb1	0.0072875847
96	0xbe382ffb	-0.17987053
97	0xbf1bda58	-0.6088004
98	0x3ef205fe	0.47270197
99	0xbfa1473e	-1.2599866
100	0x3d386d2a	0.045025982
101	0x3d2db159	0.04240546
102	0x3c16f912	0.009214656
103	0xbf74c259	-0.9560905
104	0x3d7d049e	0.06177198
105	0x3feedea2	1.8661692
106	0xbf559a52	-0.834386
107	0x3e9247d4	0.28570426
108	0x3cfac6ee	0.030612435
109	0x4048f4e8	3.139948
110	0xbc192ac8	-0.009348579
111	0xbe4c9aec	-0.19980973
112	0xbcc52920	-0.024067461
113	0x3f7aea79	0.98014027
114	0xbec2da77	-0.380573
115	0x3df7769d	0.120831706
116	0x3fc7a704	1.5597844
117	0x3e370c69	0.17875828
118	0xbf2b8b1f	-0.67009157
119	0x3d347a1a	0.044061758
120	0xbd10ca58	-0.03534922
121	0x3eaf3352	0.34218842
122	0xbade6bb1	-0.001696935
123	0x3cc95c6a	0.0245802
124	0xbec80985	-0.39069763
125	0x3e9b726a	0.30360729
126	0xbf27f444	-0.65607095
127	0x3f1fa9ec	0.62368655
128	0xbe21863b	-0.15773861
129	0x3d729890	0.059227526
130	0x3ce6cb2c	0.028173052
131	0x3eb2ced4	0.34923422
132	0x3d2a0e89	0.041517768
133	0xbca4a935	-0.020100215
134	0xbfa12af6	-1.2591236
135	0x3bb6b538	0.005575802
136	0xbcda7d6d	-0.026671136
137	0x3e8bbe17	0.27293465
138	0x3d89295c	0.06697342
139	0x3e6a7373	0.22895603
140	0xbd162150	-0.036652863
141	0xbe0f6bd8	-0.14005983
142	0x3cf91971	0.03040764
143	0xbbdc6f74	-0.0067271534
144	0xbf98f8ed	-1.1950966
145	0x3ea43e36	0.32078713
146	0x3d56db2d	0.052455116
147	0x3ee066ab	0.4382833
148	0x3e174aa9	0.14774574
149	0x3f4aa50f	0.7915811
150	0x3fc21d98	1.5165281
151	0x3f22351b	0.6336228
152	0xbd630e24	-0.055433407
153	0x3c0e286c	0.0086766295
154	0x3ea24deb	0.31700072
155	0x3d60583b	0.054771643
156	0xbcf93c2c	-0.0304242
157	0x3e732e47	0.23748122
158	0xbca6da80	-0.02036786
159	0x3f800110	1.0000324
160	0x3ec8d5d4	0.39225638
161	0x40070e16	2.1102347
162	0xbcf29fc7	-0.029617203
163	0x3e0c091f	0.13675354
164	0x3b72606a	0.0036983737
165	0x3ac8d3e6	0.001532194
166	0xbeba7024	-0.36413682
167	0x3e9c03ad	0.30471554
168	0x3d531e9f	0.051542874
169	0x3c3abfd3	0.0113982735
170	0x3fc305d0	1.5236149
171	0x3d7e2e7f	0.06205606
172	0xbc80e8d6	-0.015736025
173	0x3c8d9110	0.017281085
174	0xbebdf5e7	-0.3710167
175	0xbc89a6ba	-0.016803134
176	0xbd0db0a6	-0.034592293
177	0x3d1d67f3	0.03842921
178	0x3ca17d59	0.01971309
179	0x3ec98683	0.39360437
180	0x3ef9fca1	0.48825553
181	0x3f90a8cf	1.1301516
182	0x3ef61f24	0.48070633
183	0xbccb9bd7	-0.024854584
184	0x3e5e7e38	0.21727836
185	0xbd15ecf0	-0.036602914
186	0xbee92159	-0.45533255
187	0x3e723d54	0.23656207
188	0x3fdc3e07	1.7206429
189	0xbe89b43f	-0.2689533
190	0x3fb3464e	1.400583
191	0x3d832f39	0.064054914
192	0xbc9bfcc8	-0.019041434
193	0x3e474edf	0.1946368
194	0x3d618b14	0.055064276
195	0x3e5f954c	0.21834296
196	0xbd55ecca	-0.052227773
197	0x3df94503	0.12171366
198	0xba986d0b	-0.0011629177
199	0xbbdf3ccb	-0.006812667
200	0x3d002e0b	0.03129391
201	0x3eb8b9f8	0.36079383
202	0x3ead62a4	0.3386432
203	0x3e26c39c	0.16285557
204	0x3d2d8f8a	0.042373218
205	0xbf80851e	-1.0040624
206	0x3d49165e	0.049093597
207	0x3d8055e4	0.06266382
208	0x3c1d4d3d	0.009600935
209	0xbee13243	-0.4398366
210	0xbe44dc25	-0.19224603
211	0x3ee4eca8	0.44711804
212	0xbe800215	-0.25001588
213	0x3e582d25	0.21110971
214	0x3f6f654a	0.9351393
215	0x40138402	2.304932
216	0xbd1da832	-0.03849048
217	0x3e7e4512	0.24831036
218	0x3c1b73fd	0.009488103
219	0xbc18de9e	-0.00933042
220	0xbf8b9edb	-1.0907854
221	0xbe88360b	-0.26603732
222	0xbe0f0247	-0.13965712
223	0x3efa437f	0.4887962
224	0x3c46e8a3	0.012140426
225	0x3e43f8fe	0.19137952
226	0x3f547bf4	0.8300164
227	0xbc5b666c	-0.0133911185
228	0xbc89eb9b	-0.016835978
229	0xbf2d6387	-0.6772999
230	0x3ca9e476	0.020738821
231	0x3d22a1ae	0.03970497
232	0x3f09e208	0.5386052
233	0x4028d158	2.6377773
234	0x404fd36d	3.2472794
235	0x3d06c706	0.032904647
236	0xbc95e3b3	-0.018297052
237	0x3ec9ec52	0.3943811
238	0xbc9aeee0	-0.018912733
239	0x4030eff4	2.7646456
240	0xbf51f3be	-0.82012546
241	0x3e8d94db	0.2765263
242	0x3f13983e	0.5765418
243	0x3dd1a387	0.102362685
244	0xbfa2c060	-1.2714958
245	0x3f5cd834	0.862674
246	0x3c50515f	0.012714713
247	0x3ebe074a	0.37114936
248	0xbcbbf7b2	-0.022945259
249	0x3e9970ce	0.29968876
250	0xbe89bd7d	-0.2690238
251	0x3db53d98	0.08849639
252	0x3e215ad2	0.15757301
253	0x400436c0	2.0658417
254	0x3cb3325c	0.0218746
255	0x3c1b7c2a	0.009490052

fc4.bias f4 [5]
0	0xbe1fb049	-0.15594591
1	0x3f0da6ee	0.5533284
2	0xbc674b09	-0.014117011
3	0x3f404335	0.7510255
4	0x3e22d647	0.15902053
